log/geometric_graph/cube/checkpoints/best_model-step=14306.ckpt (torch, 138130 bytes, 34 tensors)

init_coord f4 [512, 3]
000000 83 3c 05 3e c8 71 64 3e 9c 57 4d 3f 08 d0 1a bf
       0.13011365 0.22309029 0.80211806 -0.6047368
000010 67 95 77 3f bd 22 fb 3e bd 5c f9 3d d4 16 01 be
       0.96712345 0.4904994 0.121758915 -0.12606364
000020 6b f6 80 3e 35 d1 91 3e 1a 1f 3f be 46 e1 47 3f
       0.25188002 0.28479925 -0.18664208 0.78078115
000030 4a 13 6e be bf 14 9b 3e 04 e5 ff 3d 6b d1 e1 3d
       -0.23249546 0.30289266 0.12494853 0.110262714
000040 48 ac 5f 3f 0a dc c2 be 33 5a 5c 3f ba 7a 81 3f
       0.87372255 -0.380585 0.86075133 1.0115578
000050 d7 a3 ba be 1a 4c d9 be 99 89 95 3c 34 cb 86 3d
       -0.36453125 -0.42440873 0.018254088 0.06581727
000060 a5 b4 be 3d 12 51 23 3c e5 b6 8f 3e 13 09 1e bf
       0.09311799 0.009968059 0.28069225 -0.61732596
000070 be 58 b2 3e 2d f3 f5 3e 23 c5 52 be 89 21 9e bd
       0.3483333 0.4803709 -0.20583014 -0.0772124
000080 47 01 64 bf 5d 9e 05 bf 77 08 5a be a2 14 37 3e
       -0.8906445 -0.5219477 -0.21292292 0.17878965
000090 38 77 22 3e 9c 7b 96 be eb 48 cd 3e 0b a1 93 bf
       0.15865791 -0.2939118 0.40094694 -1.1533521
0000a0 1d ad 5c 3f b7 42 78 be 41 4d ac be 6d d7 9f be
       0.8620165 -0.242442 -0.3365269 -0.31219044
0000b0 bd 28 f2 3d 8d cd 23 be b1 fb b3 bd 56 ce 5b bf
       0.118241765 -0.1599638 -0.08788241 -0.8586172
0000c0 af c7 c9 3e fa c6 b2 be 39 29 0e bf 27 a9 6c 3e
       0.3941016 -0.34917432 -0.5553165 0.23111401
0000d0 03 88 9d 3e 05 21 da 3e 80 1e 39 3d 3a f3 b5 be
       0.3076783 0.42603317 0.045195103 -0.3553713
0000e0 55 f2 ae bf 6b 5b b7 be ca 39 e6 bd 47 d3 cd be
       -1.3667704 -0.35811934 -0.11241491 -0.40200254
0000f0 26 ce 04 3f 7d 60 51 3f 5c 6e 72 bf 75 61 ef bd
       0.5187706 0.81787854 -0.94699645 -0.1168851
000100 eb 0e 3c be 81 79 07 bf ed 20 08 be 2f a8 3c 3e
       -0.18365066 -0.52919775 -0.1329381 0.18423532
000110 e3 cf 05 bf 8f fa cf 3e 40 fd e3 3e c8 f7 cc bd
       -0.52270335 0.4062085 0.44529152 -0.10008198
000120 48 44 02 3f 03 33 23 3f b6 aa c8 3e c1 96 1d 3e
       0.5088544 0.6374971 0.39192742 0.1538954
000130 58 9e c0 be 81 2b 22 be 42 d1 76 3f de 6b 40 3f
       -0.37620807 -0.15836908 0.9641305 0.7516459
000140 38 c3 af be a7 82 84 3e 30 ff db be f8 d9 83 3e
       -0.34328628 0.2588093 -0.4296813 0.25752234
000150 d5 27 c1 bd e4 e1 e9 bd 78 b2 48 bf 74 66 ed bd
       -0.094314255 -0.11420038 -0.7839732 -0.11591807
000160 c4 11 f2 bd d3 87 92 be ad 01 bc 3e 38 af 23 bc
       -0.11819795 -0.2861925 0.3672003 -0.009990506
000170 5a ac 03 3e 8f 0c 6f bd 17 a2 e2 be 1a 1f d6 3d
       0.12858716 -0.058361586 -0.4426429 0.10455151
000180 2f 88 18 be ba d6 71 3f a6 83 ef 3c de 65 aa be
       -0.148957 0.9446827 0.02923758 -0.33280843
000190 22 a9 ba bf 4b 7f 8f be 60 62 a5 bf 03 59 c2 be
       -1.4582865 -0.28026804 -1.2920647 -0.37958536
0001a0 c7 ec d7 3d a9 ed 9a 3d b6 eb 0c 3f 79 df b8 bb
       0.105432086 0.07564861 0.55047166 -0.0056418744
0001b0 99 ee 9f 3f 42 9e 24 3e 99 cd 55 3e a9 98 38 bf
       1.2494689 0.16075996 0.2087921 -0.7210794
0001c0 8b fd ab 3d 9c 24 b3 3e d8 34 f6 3e fb 42 26 3f
       0.08397969 0.34988868 0.48087192 0.64945954
0001d0 a3 39 af 3e ea 3d 57 bf de d0 22 3e 8e 13 b9 bd
       0.3422366 -0.8407885 0.15899989 -0.09036933
0001e0 e6 cb f6 be 8c 38 06 bf 1d 51 63 3e 06 79 d2 be
       -0.48202437 -0.52430034 0.22198911 -0.4110796
0001f0 97 96 62 be 2a b5 9a be 55 ee 20 bf 0f 8e b6 bf
       -0.22127758 -0.30216342 -0.62863666 -1.4262103
000200 17 b5 29 bf fc e1 2c 3f aa 22 14 bf cd 04 2b be
       -0.66291946 0.67532325 -0.57865393 -0.1670105
000210 ef 20 24 bf ae 29 a3 bd 69 ad f7 bd 21 35 ba 3e
       -0.6411275 -0.07966934 -0.12093622 0.3636866
000220 a4 50 01 3f 6b 67 83 3e 0c 30 d9 3e b1 50 41 be
       0.5051367 0.2566484 0.4241947 -0.18878438
000230 34 6f c8 be 44 49 be 3e af e0 6e 3f 32 19 19 3f
       -0.3914734 0.37165272 0.9331159 0.5980407
000240 39 c4 68 3e d8 f0 4a 3f dd 6d 05 bf 47 e6 17 3f
       0.22731103 0.7927375 -0.52120763 0.5933575
000250 3c 32 c4 be f4 c9 93 3f 0a 58 e5 3e e5 4f 2c bf
       -0.38319576 1.1546006 0.4479373 -0.6730941
000260 b3 98 33 be af 79 a1 3e 3d e2 94 3e 35 e9 c1 be
       -0.17538719 0.3153815 0.29078856 -0.37873235
000270 41 5b f6 bd c7 25 8c be 9a ef bb be cf 88 97 3d
       -0.12029124 -0.27372572 -0.3670624 0.07399141
000280 68 74 df bc 9e e1 65 3e 29 5c ad 3e c5 08 f7 3e
       -0.027277187 0.22449347 0.33859375 0.48248878
000290 9f e7 2b bf 3f b0 d5 3e ac 1e c6 be d8 22 db 3e
       -0.671503 0.41736028 -0.38695276 0.4280002
0002a0 49 9b 46 3e f0 fd e5 be e8 18 24 3f fd 89 f7 be
       0.19395174 -0.449203 0.64100504 -0.48347464
0002b0 14 5d 39 be 48 ee de 3c a9 67 1d 3b b1 b2 f5 bc
       -0.18101913 0.02721323 0.0024018085 -0.029992433
0002c0 10 1b 3a bf 7b 66 42 3e 14 13 87 3d 47 8c 0c 3f
       -0.72697544 0.18984406 0.06595436 0.54901546
0002d0 96 a9 dd 3e 1f 21 42 3d f4 f8 6e bf 8c 42 22 bf
       0.43293446 0.047394868 -0.9334862 -0.6338279
0002e0 51 3a 04 be 6a 5e a8 3f ea 4c 83 3f b8 7b ec 3e
       -0.12912871 1.3153813 1.0257847 0.4618814
0002f0 e4 60 4c bf e9 a6 db 3d 65 46 b7 be d5 d3 81 bf
       -0.79835343 0.10725195 -0.35795894 -1.0142771
000300 df b8 96 3e 00 c9 c6 3f 24 09 74 3d 0a 0e a2 be
       0.2943792 1.553009 0.05957903 -0.31651336
000310 65 47 33 3e 13 11 85 3e 20 38 22 bf 23 11 36 3e
       0.17507704 0.2598959 -0.6336689 0.17779975
000320 03 05 81 bd b3 49 51 3f b4 fd 15 3f 2c 42 ef be
       -0.06299784 0.8175308 0.58590245 -0.46730173
000330 6e 22 b6 3e 46 94 9c bd a1 f2 63 3e 9b 55 10 bf
       0.35573143 -0.076454684 0.22260524 -0.56380624
000340 2d ea ab 3c e1 3f af be 9a 5b 99 3e 11 2e 88 3d
       0.020985687 -0.34228423 0.299527 0.066494115
000350 53 59 16 3e 0e f3 a0 be 12 64 4c 3e c9 5a 0f 3f
       0.14682512 -0.31435436 0.19960049 0.559979
000360 c4 67 62 3e 77 6f c0 be be e0 38 be f6 f2 10 3f
       0.22109896 -0.3758504 -0.18054482 0.5662073
000370 61 07 84 bd 52 4f b2 3e c2 f6 d7 bd 55 fb 97 be
       -0.0644672 0.34826142 -0.10545112 -0.2968394
000380 e2 a6 a8 be f7 86 c1 3e 4b e6 5c bd 0c e2 01 be
       -0.3293982 0.37798283 -0.053930562 -0.12683886
000390 b2 93 95 3e 77 e3 6d 3e cd 2c de be 21 10 0f 3e
       0.29214245 0.23231302 -0.43393555 0.13970996
0003a0 f0 58 9d 3d bf ad 58 3e f5 8c 2e 3f b2 4c 0a 3f
       0.07682979 0.21160029 0.68183833 0.5402328
0003b0 f7 cf 9c be a7 b3 93 3c c5 50 5f bf 70 48 e9 3d
       -0.30627415 0.01803 -0.8723262 0.113907695
0003c0 ca 97 57 3d ee 0b db be 03 a7 e6 3d 5b 91 37 bf
       0.05263499 -0.4278254 0.11262324 -0.7170617
0003d0 5c ea ee be 48 70 0a 3f 3e 22 08 3f d8 0a d0 bc
       -0.46663177 0.5407758 0.5317725 -0.025395796
0003e0 28 bb 5d bf 4c b8 59 be 3e c4 d9 3e 69 ad a1 3d
       -0.866137 -0.2126171 0.42532533 0.078944035
0003f0 63 93 46 3e 0d 81 47 bf 41 ea ec 3e fe 84 fa 3e
       0.19392161 -0.7793129 0.46272472 0.4892959

encoder.egnn.layers.0.edge_mlp.0.weight f4 [32, 33]
000000 d0 e8 10 bd f3 69 11 3e d5 ae a3 3d 8e 2c 23 be
       -0.035378277 0.14200573 0.07992331 -0.15934965
000010 ba 31 a7 3d 57 46 78 bd 02 da f6 bd 6e 06 98 bd
       0.081637815 -0.060613956 -0.120533004 -0.07423101
000020 85 2b ae bd 14 ce cf 3d 64 11 92 3d 6a 6c 58 3e
       -0.085043944 0.10146728 0.07132223 0.21135107
000030 76 3f 9c bd 25 12 37 3e b5 fe a5 ba e2 a6 e8 bd
       -0.07629292 0.17878015 -0.001266441 -0.11359955
000040 3d de 51 bd ce 82 89 3c c8 21 7c 3d 8c ea 4c be
       -0.051237334 0.016786005 0.061555654 -0.20011348
000050 38 32 38 3e b3 df ff 3a 8b 3b ca 3d 7e 95 4e 3e
       0.17987907 0.0019521624 0.09874638 0.20174214
000060 df 80 71 bc 8f b5 e4 bd 7b 40 9d bd e7 af d9 3d
       -0.014740198 -0.11167442 -0.07678314 0.10629254
000070 c9 dc 11 3e 96 a3 d4 3d bd 0d 82 bc ee f4 2c 3e
       0.14244379 0.10382764 -0.015875692 0.16890308
000080 aa a3 fc bd f5 d2 2f be db 62 11 be 1d 2c 41 3d
       -0.12335904 -0.17170317 -0.14197867 0.04716121
000090 9c cb 85 bd 9b 0e 1f 3e 7f ab 0d be 38 83 0a be
       -0.06532976 0.15532915 -0.13834952 -0.13526618
0000a0 a0 b3 5b 3d 3f 82 5b bc 0d 39 62 3d 1a 7e f8 bd
       0.0536381 -0.013397752 0.05523019 -0.12133427
0000b0 9c 5c a5 bc cf 80 db 3d db 43 11 3e ee a1 75 3d
       -0.020185761 0.10717928 0.14186041 0.05996888
0000c0 e9 02 04 bd b3 c5 3a bd 66 ed 03 bd da 6a 4f 3d
       -0.032229338 -0.045598697 -0.032208823 0.05063901
0000d0 44 cb 05 3e 1b c6 08 be b0 24 3e bd e1 f7 a4 bd
       0.13065821 -0.13356821 -0.046421707 -0.08055092
0000e0 73 1d 1f 3e e0 dc 73 bc 7b 09 b1 3d 58 1e e8 bd
       0.15538578 -0.014884204 0.086443864 -0.113339126
0000f0 66 a2 31 3e 93 10 4b 3e 4c 1c e7 bd 5c fb 32 bd
       0.17347106 0.19830541 -0.11284694 -0.043696746
000100 42 b7 4e bd 3e 69 88 3e 3e 17 bf bd be 75 a1 bd
       -0.050467737 0.26642793 -0.09330605 -0.07883786
000110 81 d8 0d bd 27 f6 e3 3c 86 b7 10 bb 74 24 23 3e
       -0.034630302 0.027827336 -0.0022082045 0.15931875
000120 b8 4f 07 3d 88 86 69 bd 32 2b 1f 3c 37 16 18 3e
       0.03303501 -0.057013065 0.009714888 0.14852224
000130 19 66 cf 3c 70 24 5e bd 41 ee b8 3c af d1 fb 3d
       0.025317239 -0.05423397 0.022574546 0.12295853
000140 f6 e0 21 3d 50 db a9 3c e8 a1 a2 3d 20 64 cb 3c
       0.03952118 0.02073446 0.079410374 0.024828017
000150 b2 74 a4 bd f8 76 88 3d 64 78 24 bd 55 0a b7 bd
       -0.0803007 0.066633165 -0.040153876 -0.089375176
000160 d7 30 03 be 57 b6 78 3e ac 91 9d 3d 84 26 65 be
       -0.128116 0.24288307 0.076938 -0.22377974
000170 da 5a 21 3e 41 51 2c 3a 3b f5 20 3e 10 03 a3 b9
       0.15757313 0.0006573387 0.15718548 -0.00031092064
000180 da 24 04 3e e1 33 83 3e 6e b5 93 3e ae b5 24 be
       0.12904683 0.25625518 0.28849357 -0.1608493
000190 90 7c 04 3e 41 2a 41 bd cf 16 e1 bd d2 be 0a 3e
       0.12938142 -0.047159437 -0.109906785 0.13549355
0001a0 47 6d 4f be 88 88 e2 b9 62 01 c6 bd 8d c1 3f be
       -0.2025653 -0.00043207803 -0.096682325 -0.18726178
0001b0 61 18 85 bd d5 05 e7 bc a5 10 b7 bd 73 08 5d 3d
       -0.064987905 -0.028201023 -0.089387216 0.053963136
0001c0 d9 4d 0f be fc ab 5c be c6 ac 91 3d 93 ea e6 bd
       -0.1399454 -0.21549982 0.07113032 -0.1127521
0001d0 f6 99 e6 bd ac 0f 57 bd a8 ff 11 be 54 9c c6 3d
       -0.112598345 -0.05250518 -0.14257681 0.09697786
0001e0 12 f2 33 bd 45 84 5c be 3e 97 3b 3e 31 c0 db 3c
       -0.043932028 -0.21534832 0.18319413 0.026825042
0001f0 a3 b3 21 be d3 3b 3e 3e 6f 8a c9 bd 58 a5 82 be
       -0.15791182 0.18577509 -0.09840857 -0.25516772
000200 56 2d 95 3e 80 3f 41 3e d4 6a 3b 3e 75 8d 70 bc
       0.2913615 0.1887188 0.1830247 -0.0146821635
000210 85 eb b8 bb 77 98 3a 3e 8f cb 64 3d 4a f7 3b 3e
       -0.0056433105 0.18222223 0.05585819 0.18356052
000220 7e 8d 9a 3d e0 54 1e 3e a4 a8 c4 3d 9f 8c 7d bd
       0.07546519 0.15462065 0.09602478 -0.061901685
000230 dd 5c 07 3e 63 97 cf bd 34 7f 22 3e 60 ed 29 bc
       0.13219018 -0.101362966 0.15868837 -0.010371536
000240 9a 8e 2c bd 06 04 5c be e4 65 aa bd b0 f4 8a bb
       -0.042128183 -0.2148591 -0.08320215 -0.004240595
000250 65 54 dd 3d 00 82 8c bd 6f 95 a1 bb c3 6b 16 3e
       0.108071126 -0.06860733 -0.004931144 0.14689545
000260 95 57 d1 3d e6 89 9b bd 98 db 24 3d 65 64 85 bd
       0.10221783 -0.075946614 0.040248483 -0.06513289
000270 5d 8c a0 3d 95 a0 b0 3d c2 b7 3b 3e 69 a7 92 3d
       0.07839272 0.086243786 0.18331817 0.07160837
000280 a7 40 37 bb 6f c9 6a bc 09 19 05 3e 4d b2 26 be
       -0.002796212 -0.014330252 0.12997831 -0.16278954
000290 97 87 47 3e be 89 62 bd 52 46 ca 3c 24 06 99 bd
       0.19485317 -0.055307142 0.024691734 -0.07471874
0002a0 7c ce 82 3d e2 14 5d be ba 85 6c be 1b d2 40 be
       0.0638704 -0.21589997 -0.23097888 -0.18830149
0002b0 8c 68 ca bd 0f 19 23 3e bf b0 ed 3c bf 68 93 3d
       -0.09883222 0.15927528 0.029014943 0.07197713
0002c0 42 2b dc 3d b8 5e 29 bd f4 63 43 bd 8b fb 94 3d
       0.10750438 -0.041350096 -0.047702745 0.072745405
0002d0 51 63 49 3d 05 3d d8 3c 9b 77 0c bd 31 77 5f 3e
       0.04916698 0.026396284 -0.034293752 0.21822812
0002e0 fa b4 ba bd 22 d9 46 bd b8 85 18 3d 62 6c 53 3d
       -0.0911655 -0.048546918 0.0372369 0.051617034
0002f0 01 17 a2 bd d5 a4 09 bd 8a bb 7b 3d 6a e6 41 3e
       -0.07914544 -0.03360446 0.061458148 0.18935552
000300 9e 0b 2a bd c2 0b cf 3b 04 e3 65 be 18 a6 d6 bd
       -0.041514985 0.0063185403 -0.22449881 -0.104808986
000310 e4 a5 8b bb 9f 7b eb be 81 97 7d 3e 58 47 07 3e
       -0.004261719 -0.45992753 0.24764825 0.13210809
000320 44 9b eb bd 9c 4b 52 3d f1 3d 68 bd cd bb 21 3e
       -0.11504224 0.051341638 -0.056699697 0.15794297
000330 84 ed 13 3e 57 70 df bd 49 1f 50 3d 43 1b ae 3c
       0.14446074 -0.10910099 0.050811086 0.021253234
000340 fb 06 4c be c1 fd 1f be 86 0b a7 3c e1 01 8a bd
       -0.19924538 -0.15624143 0.020391237 -0.067386396
000350 de 3d c1 bd 15 67 e4 bd 1c 69 24 3c 65 23 e2 3c
       -0.09435628 -0.11152474 0.010034826 0.027604768
000360 4a 94 d5 bc 07 57 91 bd a7 78 2e bb 39 cd 27 3c
       -0.026071686 -0.07096677 -0.0026622207 0.0102418
000370 e4 16 2d be 1f ae 22 3e 18 df 19 bd 2b 96 f0 bd
       -0.16903263 0.15886734 -0.037566274 -0.11747392
000380 7d 82 8c bc 3e ca 6a 3d 43 f0 4b 3b 43 22 cf bd
       -0.017152065 0.05732178 0.003111855 -0.10113957
000390 bb 4d a9 3c a0 4b 23 3e bd 42 24 bd 54 35 f7 3d
       0.020666948 0.15946817 -0.04010271 0.120707184
0003a0 74 c8 84 3d 8a 66 8e 3d bf 27 cb 3d 9a c2 9b bd
       0.06483546 0.069531515 0.0991969 -0.07605477
0003b0 91 7d 9c bd f1 e2 70 3d bd 6a ab bc f2 f2 b5 bd
       -0.076411374 0.05881018 -0.02092492 -0.08884229
0003c0 d8 d8 12 be d6 b4 69 bd c9 08 5b 3d ff 20 42 be
       -0.14340532 -0.057057224 0.053475175 -0.189579
0003d0 10 ee 23 3e 22 e4 23 3e 6a ae 29 be 6d 72 43 3d
       0.16008782 0.16004995 -0.1657044 0.047716547
0003e0 d3 ec 36 be 7f 37 5d 3e 39 14 60 be 2d be 51 3e
       -0.17863779 0.21603201 -0.21882714 0.20482703
0003f0 9e c0 0c 3e b3 99 05 3e 34 8b f2 3d f8 a6 a6 3d
       0.13745353 0.13046913 0.11842957 0.081373155

encoder.egnn.layers.0.edge_mlp.0.bias f4 [32]
000000 ec 93 a8 3b d4 37 0f 3e 04 32 80 bd b9 79 5b bd
       0.005144587 0.1398614 -0.0625954 -0.05358288
000010 1a e9 43 3d 51 2f 12 be c0 ae 83 bd d5 4c 9c bd
       0.047829725 -0.14275862 -0.06429815 -0.07631842
000020 75 1b 22 3d 58 88 e1 bd c4 91 6a bc ab fa 51 bd
       0.039576966 -0.11012334 -0.01431698 -0.051264446
000030 68 2c 1d 3d b8 70 ce 3c 9b 99 0e be cc 71 5a 3d
       0.038372427 0.025200233 -0.13925783 0.05333118
000040 03 6e ab 3d b5 6e 9d bc c2 80 61 3d 69 d8 96 3d
       0.083705924 -0.019217828 0.055054434 0.07365496
000050 0f 2d 9f bd 2c bf 84 3c 20 39 a2 3d 01 6c 7d 3c
       -0.07772266 0.01620444 0.07921052 0.015467645
000060 cc 82 ca bd 15 6e 9d 3d 8d 79 c9 3c 5e 9d 9c 3d
       -0.09888229 0.07687012 0.024594093 0.07647203
000070 34 11 69 bb 78 de 61 3c a1 98 3d bc 97 dd 10 be
       -0.0035563232 0.013785951 -0.011572034 -0.1414703

encoder.egnn.layers.0.edge_mlp.2.weight f4 [32, 32]
000000 9e 62 96 bd 7a d3 fb bd 70 7a 24 bd e0 e4 87 3d
       -0.073430285 -0.12296195 -0.040155828 0.06635451
000010 f5 1d 20 3e ad 8a 7d bc 02 4d d6 3d 69 39 e0 bd
       0.15636428 -0.015474957 0.10463907 -0.1094845
000020 37 cc 4e 3e d7 47 21 3d e5 ac d8 bc 60 57 df bd
       0.2019509 0.039375152 -0.02644963 -0.10905337
000030 ea ca 2a bc 7d b7 52 3e 93 03 1e 3e b0 61 e8 bd
       -0.010424355 0.20577808 0.15431051 -0.113467574
000040 69 61 4c 3e 19 51 06 3d 27 b9 a9 3d 7b 83 59 3e
       0.19959034 0.032792185 0.08287268 0.21241562
000050 c5 4d bb bd f7 11 1d 3e d4 e4 4a 3e a9 cf 45 be
       -0.09145693 0.15338884 0.19813854 -0.19317497
000060 db e1 a5 bd cb 53 96 bc 7e 56 3d be d7 d4 0c bd
       -0.08099719 -0.018350502 -0.18490025 -0.034382667
000070 20 51 4f 3e f1 29 fc 3d cd c1 ad 3d f5 97 95 bd
       0.2024579 0.12312687 0.0848423 -0.07304374
000080 14 bd 64 3d 56 87 13 bd 94 95 4a be d8 ce 19 bd
       0.05584438 -0.03601774 -0.19783622 -0.037550777
000090 27 00 cc bc 21 c8 00 3c 18 11 8b bd c1 c6 0f 3d
       -0.024902416 0.007860214 -0.0679037 0.035101656
0000a0 d7 e6 9b bd 46 14 c8 3d c7 b6 86 bd 2d 0c 7c bd
       -0.076123886 0.09769492 -0.06577831 -0.06153505
0000b0 d0 67 c0 3d b9 4a 0d 3e 11 ca 0f be bc 56 82 3d
       0.09394801 0.13798036 -0.14041926 0.063641995
0000c0 cf 07 b2 bd 50 d6 38 3c fb 22 06 3e 25 15 fe bd
       -0.086928956 0.011281565 0.13099281 -0.12406377
0000d0 7e 83 00 3e ab f0 3e 3e 78 fa 9f 3d 59 f2 73 bc
       0.1255016 0.18646495 0.07811445 -0.014889323
0000e0 93 cb 30 be c3 f7 50 bd de 7a 1b be 54 3b 01 3e
       -0.17265157 -0.051017534 -0.15183589 0.12620288
0000f0 e3 27 7d 3d ea dc f5 3d 07 47 72 3e 0f 02 4a 3d
       0.061805617 0.12005027 0.23659907 0.04931837
000100 b9 11 e0 3d 23 74 0a bc 45 2f 18 be e2 3c d2 3d
       0.1094088 -0.008450541 -0.14861782 0.10265519
000110 e5 50 20 be 56 31 7f bd a4 32 76 bd d3 aa 3d 3e
       -0.15655859 -0.06230291 -0.06010689 0.18522196
000120 8f 9b 2e be 6f f5 10 be 62 b0 02 3e 96 f9 85 bb
       -0.17051528 -0.14156125 0.12762597 -0.004088591
000130 94 15 d6 3c 0f 6d 97 3d 08 a7 5c bd 04 d3 01 3e
       0.026133336 0.07393848 -0.05387023 0.12678152
000140 34 78 22 be f9 ad e9 bd 33 3d 08 be ff 15 7d be
       -0.15866166 -0.11410136 -0.13304596 -0.24715422
000150 be 38 16 3e 6c 5d 70 bd 55 e2 1a 3e 50 4b 15 3e
       0.14670083 -0.058682844 0.15125401 0.1457951
000160 2f 2d 69 bd 76 9e 0a be 88 18 26 be e3 8d 3e 3c
       -0.056927856 -0.1353701 -0.16220295 0.011630508
000170 8b 16 11 bd f8 5d cc 3d e3 55 d5 3d 4f 9d c0 bd
       -0.03542189 0.099788606 0.10416772 -0.09405004
000180 06 6e 82 3d 03 a6 89 bd 78 da 4d bd 16 69 65 bd
       0.063686416 -0.06721117 -0.050257176 -0.05600842
000190 c8 05 a0 3d df fd db 3d 05 13 14 3e be e7 1e 3e
       0.07813603 0.107417814 0.1446038 0.1551809
0001a0 16 3c 50 be 45 a8 75 bd 7c 2c 46 3e 59 85 5a 3e
       -0.20335421 -0.059974927 0.19352907 0.2133993
0001b0 67 8e 6d be 0f 02 d5 bd ba dd 06 be 57 06 59 bc
       -0.23198853 -0.10400783 -0.1317052 -0.01324614
0001c0 32 7d 85 3d b7 09 5b be 5d da c2 bd 5f 1d 72 3d
       0.0651802 -0.21390425 -0.09514306 0.05911004
0001d0 58 67 4e 3e b5 eb 18 3e da ba 97 bd 0f d1 bd bc
       0.2015661 0.14933665 -0.07408686 -0.023170976
0001e0 92 4e cd bc dc c9 37 bd 6f be c0 bd bc 95 de bb
       -0.02506188 -0.044870242 -0.09411322 -0.006792752
0001f0 16 5c 4b be ca dc d1 3d fa 27 62 3e 79 08 3a bc
       -0.19859347 0.1024719 0.22085562 -0.011354559
000200 fc 31 9d bd 43 db eb bd 79 40 b1 3d d0 eb 0f be
       -0.076755494 -0.1151643 0.08654875 -0.14054799
000210 52 13 21 bc c2 ad 9e bd 07 09 d9 bd bd 5e 91 3d
       -0.0098312665 -0.077479854 -0.10597425 0.07098148
000220 2f d1 be 3d 7c 59 ce 3d 1f 7a 23 3d c1 00 87 bb
       0.09317242 0.100756615 0.039911386 -0.004119963
000230 c3 aa 67 be 67 df 09 3a 97 da 84 bc 9b 48 ec bd
       -0.22623734 0.0005259425 -0.016217513 -0.11537286
000240 dd ce 0e be d8 98 85 be ec 48 2b 3c 61 ac 61 be
       -0.139461 -0.26093173 0.010454398 -0.22038414
000250 4b d1 3a 3e e1 d0 2e be 45 43 8f 3e 1d f3 ea 3c
       0.18243901 -0.17071868 0.2798101 0.028680379
000260 83 d1 7b bd c0 67 99 3d 86 6a 79 be 1e 05 90 bb
       -0.061479103 0.07490492 -0.24357042 -0.0043951413
000270 82 82 15 3e e6 93 17 3d 30 ae 84 3e 36 04 5e be
       0.14600566 0.03700628 0.25914145 -0.21681294
000280 92 cf 11 3e c3 dc 20 3e 35 92 04 bd 4c 4b 0c be
       0.14239338 0.15709214 -0.032365996 -0.13700598
000290 17 62 22 bd 1b 82 8c 3d e6 e9 c1 bd 9e a7 74 3d
       -0.039644327 0.06860753 -0.09468441 0.059730165
0002a0 95 6b 5c bc 71 68 a2 bd be 89 0c bd e1 41 0d be
       -0.013453384 -0.07930077 -0.03431105 -0.13794662
0002b0 3d b6 a9 3d 0e 4c 2c be 52 ec ea 3d b0 96 32 be
       0.08286712 -0.16825888 0.11470856 -0.17440295
0002c0 28 a4 11 be ee 96 2a be ce 88 3a 3e c1 47 7e be
       -0.14222777 -0.16659138 0.1821625 -0.2483206
0002d0 17 8e c9 3d 1e 8a 4b 3e ba 85 00 be dc c4 d3 3d
       0.098415546 0.19876906 -0.12551013 0.10340282
0002e0 99 7a 45 be c4 2f 9c bd a7 ed ec 3c 05 ed 1b be
       -0.19285049 -0.07626298 0.028921915 -0.15227135
0002f0 c7 0d 21 3e b9 b4 9f 3d 0c 72 7c 3e cd 76 d7 3c
       0.15727912 0.07798142 0.2465288 0.026301766
000300 d3 b6 2a bc 30 ba 6d bc 5f 54 54 3e c0 9e 73 3e
       -0.010419565 -0.014509723 0.2073531 0.23791027
000310 ce ed b1 bd fd ab c8 3d ca 26 c2 3d 5f a0 26 be
       -0.08687936 0.09798429 0.09480055 -0.16272114
000320 19 53 ad 3d 70 00 51 3e d6 ee 06 3e 5d 15 b9 3d
       0.08463115 0.20410323 0.13177046 0.09037278
000330 97 71 61 3c 98 b5 99 3a 20 bc 67 bd c4 0c cc bc
       0.013759992 0.0011727093 -0.056575894 -0.02490843
000340 27 37 93 3d 30 e8 83 bc 10 a5 d2 3c 65 5c 28 3d
       0.07188254 -0.016101927 0.025713474 0.04110374
000350 5d c9 5b 3c c8 70 d9 bd f7 3c a9 bc b9 93 23 be
       0.013414708 -0.106172144 -0.020658953 -0.1597432
000360 11 b6 0e 3e ce 8d be 3d c2 16 36 be b7 08 fb bd
       0.1393664 0.09304391 -0.17782119 -0.122575216
000370 f1 c5 4b 3c 05 ad 10 bc 46 57 a8 3d eb 42 97 3d
       0.01243733 -0.008830314 0.08219771 0.073858105
000380 ee db b9 3c a4 8f 1e be 11 22 d1 3c 18 e3 23 3e
       0.022687878 -0.15484482 0.02552894 0.16004598
000390 b1 41 c8 3d e4 69 02 be 6c 05 38 bd 3c a4 c2 3c
       0.09778155 -0.12735707 -0.044927046 0.023759954
0003a0 66 2f b6 bd a1 7b 13 3d cd 07 a1 bc 88 6d 57 be
       -0.08895759 0.036006574 -0.01965704 -0.21037877
0003b0 c6 e9 45 3d f8 a6 b5 bd 23 3f fd bd 7f d4 07 3e
       0.048318647 -0.088697374 -0.12365558 0.13264655
0003c0 20 69 13 be b2 5f 1a 3e e8 69 07 be 52 d7 c0 3d
       -0.14395571 0.15075567 -0.13223994 0.09416069
0003d0 f0 87 80 be 9f 91 5d 3d 0a 8e e7 3d 23 0e 23 be
       -0.25103712 0.054093953 0.11306389 -0.15923361
0003e0 d0 bd 5c 3e ed 8f 17 3e 7e de 94 bd 22 a7 bb bd
       0.21556783 0.14800997 -0.072689995 -0.091627374
0003f0 f0 3a 6e 3b 8e 2e b7 bd 95 25 03 be dd 9b 2d be
       0.0036351047 -0.089444265 -0.12807305 -0.16953988

encoder.egnn.layers.0.edge_mlp.2.bias f4 [32]
000000 11 2e 28 3b ba af 34 3e 70 3f 79 3d 20 d2 0d 3e
       0.0025662223 0.1764516 0.060851514 0.13849688
000010 aa 26 37 be c6 70 14 3e e8 2d e9 3d 82 7f 08 3e
       -0.17885843 0.14496145 0.11385709 0.1332989
000020 1c db b1 3d 3f c9 b7 3d 2f 7b 1a 3e 4b 42 af bc
       0.0868437 0.089739315 0.15086053 -0.021393916
000030 b5 7d 82 bd ca f6 7b be e3 67 83 3c 4e fa 20 3c
       -0.06371633 -0.24605861 0.016040748 0.009825302
000040 14 8c af 3d fc 09 10 3e dc 15 27 3e 99 93 b6 3c
       0.0857164 0.14066309 0.16316932 0.022287177
000050 b3 37 b0 3d 6d e5 5a 3d 16 53 3d bc b2 ba 09 3b
       0.08604374 0.053441454 -0.011555454 0.002101582
000060 9a fe 0c bd 95 9a d1 bd 85 f6 13 3e 35 a7 c1 bd
       -0.034422494 -0.10234562 0.14449508 -0.0945572
000070 91 b1 1d be 00 6f 10 3e 39 da 20 3d ad 43 00 be
       -0.15399767 0.14104843 0.039270613 -0.12525816

encoder.egnn.layers.0.node_mlp.0.weight f4 [32, 48]
000000 a0 9d 24 3e 0f dc 05 3e 2e 44 13 be a3 67 86 3d
       0.16075754 0.13072227 -0.14381477 0.06562736
000010 d0 0a 55 be b9 2b d4 bd f1 81 68 3d f8 07 21 bd
       -0.20804906 -0.10359902 0.056764547 -0.03931424
000020 00 83 4a 3d 27 b1 6d bd ba 67 f4 bd c7 5d 3e bb
       0.049441338 -0.058030274 -0.11933847 -0.0029047595
000030 14 56 4a 3d d6 8e 31 bd ae d4 b1 bb 4e fb ed bd
       0.049398497 -0.04334911 -0.0054269647 -0.11620198
000040 b9 26 ae bd 52 17 dc 3d e6 d2 d0 3c 7d 9f 5c 3e
       -0.085034795 0.107466355 0.02549119 0.21545215
000050 29 80 9c bd 42 d1 35 be bc 3c b9 3d 91 f1 4c bd
       -0.07641632 -0.17755607 0.09044787 -0.050035063
000060 cb 6e 82 bb d0 67 cb 3d 87 1b 16 be b4 02 c8 bd
       -0.0039804927 0.0993191 -0.14658938 -0.097661406
000070 4b f7 f1 bd 78 b7 4d bd 17 ca d0 bd 92 de 76 3b
       -0.118147455 -0.050223798 -0.101947956 0.0037669283
000080 8b be 0e 3d 6b d9 0d be 53 ec 92 3c ef 92 f7 bb
       0.034849685 -0.1385247 0.017934954 -0.0075553576
000090 c9 d4 0c 3e 70 92 b2 3c 89 6b 9e 3a 7c 9e 4f 3e
       0.13753046 0.021798342 0.0012086491 0.202753
0000a0 76 5c dc bc fc f1 8b bc 50 11 f7 3c b9 36 00 3d
       -0.026899558 -0.01708316 0.030159622 0.031302188
0000b0 af 05 92 3d cf 99 89 bb e2 d4 10 3d 74 91 c8 3a
       0.0712999 -0.0041992436 0.03535927 0.0015302137
0000c0 96 26 a7 bc 0c 46 73 3d f3 6c 2b bd 06 5e 6c 3e
       -0.020404141 0.059392974 -0.04185195 0.23082742
0000d0 46 fd 8b bd c8 f6 c1 bd 80 f5 af 3d 3f e4 ac 3d
       -0.068354174 -0.09470898 0.08591747 0.08441972
0000e0 0f d9 33 3e 5a e1 63 bd a7 a8 cc 3c 34 62 95 bd
       0.1756327 -0.055634834 0.024982763 -0.072941214
0000f0 7f 3c b7 bd c4 f4 4e bd b6 62 4f bd 65 ed 17 3e
       -0.089470856 -0.050526395 -0.050631247 0.14836653
000100 10 30 41 bd 36 56 54 be 21 b1 27 ba 2d d0 9a bd
       -0.047164977 -0.20736012 -0.00063969387 -0.07559238
000110 e0 99 3c be 3a 5a 12 be 3e e3 31 be 9e 02 b7 3d
       -0.18418074 -0.14292231 -0.17371842 0.08936046
000120 68 d3 54 3c 54 e0 08 be 28 85 c5 3d d0 c4 06 3d
       0.012989856 -0.13366824 0.09644538 0.03290254
000130 ff 72 a6 3d 78 49 eb 3d d8 12 11 3d 39 a1 23 be
       0.081274025 0.114886224 0.03541836 -0.1597947
000140 b9 a5 05 3e c4 97 0c bd f1 03 c3 3d cb 2b 38 3d
       0.130515 -0.034324422 0.09522236 0.04496364
000150 68 13 87 be 3d 60 63 3d 2e 4f 97 bd 75 01 45 be
       -0.26381993 0.0555117 -0.07388149 -0.19238837
000160 ee 5f 14 3e 25 bd 8f 3d e0 71 94 3d 44 4c 3c be
       0.1448972 0.07018498 0.072482824 -0.18388468
000170 f1 ee 5b 3e ac ed 01 be 26 57 08 3e 6c 90 80 bd
       0.21477868 -0.12688321 0.13314494 -0.06277546
000180 e1 2f d0 bc 3d 84 5b be 73 41 aa bd d7 52 81 ba
       -0.025413455 -0.21437164 -0.08313265 -0.0009866607
000190 9d 9e 55 be eb 29 0a bd 81 05 ea bd 56 b1 a0 bd
       -0.20861287 -0.033731382 -0.11426831 -0.07846324
0001a0 2e 32 c7 bd b7 c2 70 bd 9f 42 dd bd 29 9a 05 be
       -0.09726368 -0.058779445 -0.108037226 -0.13047089
0001b0 90 82 27 bd ea 29 0d be 46 f3 5c be 21 aa bc bb
       -0.040896 -0.1378552 -0.21577176 -0.0057575856
0001c0 4c b4 ad bc 8f 69 7e bd 4e a0 29 bd f2 04 8a 3c
       -0.021204136 -0.062112387 -0.041412644 0.016848061
0001d0 10 26 01 3e 3a df a7 3c 20 b3 e3 bb df cc fc bc
       0.12612176 0.020492185 -0.0069488436 -0.030859409
0001e0 41 03 52 bd 44 d6 90 bd e9 a5 d7 bd c6 6e c7 bd
       -0.051272634 -0.07072118 -0.10529692 -0.09737925
0001f0 5e ee 58 3d c9 da fe 3d 2a 57 ce 3d ec 99 df bd
       0.0529617 0.12444074 0.10075219 -0.1091803
000200 56 4b ac bd ba 61 20 be b8 6e 96 bd 1d 9f 47 3d
       -0.08412807 -0.1566228 -0.07345337 0.048735727
000210 c7 32 ea bc 46 ac 0e be 98 f5 5c bd 45 38 97 bd
       -0.028588666 -0.13932905 -0.053945154 -0.073837794
000220 cc d1 f8 3c 56 a3 02 3e eb 6f 5f bc 83 a6 d4 3d
       0.030373476 0.1275762 -0.013637523 0.10383322
000230 d3 c6 62 bc f0 f3 94 bd cb 6a b4 bd 3c 93 72 3d
       -0.013841349 -0.0727309 -0.08809432 0.059222445
000240 38 ee 97 bd 54 27 df bc 59 74 e9 bd 46 b9 0e 3e
       -0.074184835 -0.027240433 -0.11399145 0.13937864
000250 3c be 4b be 9c 76 a1 3d 40 e2 b1 bd 4c a1 b8 3a
       -0.19896787 0.07883951 -0.08685732 0.0014086156
000260 ac 8e 16 be 38 2f 73 bc 04 dc 50 bb 51 b1 2d be
       -0.14702863 -0.014842801 -0.003186942 -0.16962172
000270 10 47 00 bd bd 98 47 be 3c 60 f7 bd 79 f9 bf bd
       -0.03131777 -0.19491859 -0.12078902 -0.09373755
000280 6e bb 64 3d 83 95 9a 3e 2e 98 ed 3d 9f d5 9f 3d
       0.05584281 0.30192193 0.116012916 0.07804417
000290 d2 fa e6 3d 6c 59 c3 3d 0c fa 7b 3d 07 12 ea 3c
       0.11278309 0.0953854 0.06151776 0.02857305
0002a0 a3 15 9a 3d ef f0 60 3e 80 df e9 3d ef 3a e8 3d
       0.07523658 0.21966909 0.11419582 0.11339366
0002b0 29 7a 93 bd 68 d2 5a be fc 7d 74 3c dc f7 29 be
       -0.072010346 -0.21369326 0.014922615 -0.16598457
0002c0 93 61 03 3d f7 32 22 3e e7 d4 9e 3d c9 06 14 3a
       0.032075476 0.15839754 0.07755452 0.0005646763
0002d0 8f fc 71 3c 5c 7f 25 be 81 77 d8 3d ee d4 1d 3d
       0.014769687 -0.16161865 0.105696686 0.038533144
0002e0 ca 8b 3f bd 6a ff c7 3d 52 73 28 3e 2b c8 fa bd
       -0.046764173 0.09765513 0.16450241 -0.1224521
0002f0 91 bf bf bd 19 dd c3 3d 0d 0e a6 bd cd ad 28 be
       -0.0936271 0.095636554 -0.08108149 -0.1647255
000300 10 64 a4 3d 72 21 4a bd 69 c0 6d bd 34 5c 32 bc
       0.08026898 -0.049348302 -0.058044825 -0.010886241
000310 ea ef 33 be 3f 54 1b bd bf b4 fd 3d 4d 73 12 3c
       -0.17571989 -0.03792214 0.1238799 0.008938623
000320 13 1e fe bd c5 55 b4 bd 8f c7 cf 3d 04 b2 af bd
       -0.1240808 -0.08805422 0.10145485 -0.08578876
000330 8c 74 fc 3d 91 e6 bf bc b9 fd af bd a7 19 db 3c
       0.12326917 -0.023425372 -0.08593316 0.02674563
000340 d4 82 b5 bc fc 8d 87 bd 55 4a 2d be 77 42 af 3c
       -0.02215711 -0.06618878 -0.16922887 0.021393998
000350 cb 06 25 3d ff 9b c3 3d db 26 12 3d 47 82 8a 3d
       0.04028968 0.09551238 0.035681587 0.0676313
000360 a5 a3 ee 3c 98 2f 2b 3d 01 08 8c bd 5f dd be bb
       0.029130766 0.041793436 -0.06837464 -0.0058247293
000370 a4 a0 d3 bd af 0c 7c bd 69 75 8b 3d 37 c5 1e be
       -0.10333374 -0.061535534 0.068095036 -0.15504919
000380 49 17 fa ba e7 32 6a bd 1f 37 c5 3c 38 54 12 be
       -0.0019080426 -0.05717745 0.024074135 -0.1428994
000390 51 9d 3c be df 43 d2 3c 21 79 1f 3e 29 54 72 bc
       -0.18419386 0.02566713 0.15573551 -0.014790573
0003a0 02 b5 13 3d 45 89 f3 bd ae 62 6c 3d 19 14 23 bd
       0.036061294 -0.118914165 0.057711296 -0.03981409
0003b0 6b 08 5c bd a0 ba 7b bc 33 7f bc bc 39 73 f2 bb
       -0.053718966 -0.015364319 -0.023009872 -0.0073989895
0003c0 0a c1 9e 3d f2 b8 46 3d 4e ad 48 be e5 e5 be 3d
       0.07751663 0.04851622 -0.1959736 0.09321193
0003d0 59 b4 23 be 33 f4 a0 bd c0 7f 26 3d 6b 4e 11 3d
       -0.15986766 -0.07859077 0.040649176 0.035475176
0003e0 c0 d7 05 3e 8d 95 ae bc 6d 27 fb bc 9c ef ae bd
       0.13070583 -0.021311546 -0.030658448 -0.085417956
0003f0 02 02 16 3e b7 a4 8f 3c 02 05 36 be ec 95 95 bd
       0.14649203 0.017534597 -0.17775348 -0.07303986

encoder.egnn.layers.0.node_mlp.0.bias f4 [32]
000000 18 9a 94 bc 95 3d 3a 3e 07 08 d6 bd e9 ed 22 3d
       -0.018139884 0.18187554 -0.1045075 0.03977767
000010 6e d7 98 3d 59 fd ba 3d 2d 32 90 bd 97 08 23 3e
       0.07462965 0.091303535 -0.0704082 0.15921246
000020 48 d3 e0 bc a6 9c df bc 7a de cd bd d4 7a f4 3c
       -0.027444497 -0.027296375 -0.100522 0.029843725
000030 9a 73 1d bc c4 d0 b5 3d 1d 28 4d bd 4f 43 6a 3e
       -0.009610081 0.088777095 -0.050087083 0.22877239
000040 24 29 27 3e a4 c1 07 be 29 9b ca 3b cf 1a e8 bc
       0.16324288 -0.13257462 0.0061830473 -0.028333096
000050 6d cd 0b be 1b 06 56 bd d9 93 98 bd 6e 83 88 bd
       -0.13652582 -0.052251916 -0.07450075 -0.06665693
000060 94 fa b4 3d 5f 26 5f bc a8 8f 66 bd a9 00 02 be
       0.088368565 -0.013619988 -0.056289345 -0.12695564
000070 3e 22 2d 3c 21 6f 52 bd 57 87 e6 bd 24 a9 c2 b8
       0.010567246 -0.051375512 -0.11256283 -9.282146e-05

encoder.egnn.layers.0.node_mlp.2.weight f4 [16, 32]
000000 2d c1 49 3c 75 72 67 3d ca dd a7 bd 06 d9 0b be
       0.012314123 0.05650564 -0.081966 -0.13657007
000010 1b f1 8f 3d 5f ff b2 bd 41 59 c5 3d a9 29 0c bd
       0.07028409 -0.087401144 0.096361645 -0.034219418
000020 a0 f5 1f be b4 0a 1a 3d e3 75 bc 3d 94 94 2d bd
       -0.15621042 0.037607864 0.092021726 -0.042378023
000030 29 e8 5c 3c 95 f9 c6 bd a9 23 4d 3e 14 e6 6d 3e
       0.013483086 -0.09715573 0.20033135 0.23232299
000040 2a 30 04 be 9d d7 20 3e d7 d8 03 bc 97 ca 51 3d
       -0.12908998 0.1570725 -0.008047304 0.051218595
000050 6d 9d e2 3d 17 c7 83 3d e8 52 10 be 77 fd 7d bd
       0.11065183 0.06434458 -0.14094126 -0.0620093
000060 31 ec b1 bc 24 38 3a be ac a5 6a 3d 70 20 49 3e
       -0.02171907 -0.18185478 0.057286903 0.1964128
000070 c2 43 04 be 52 1d 33 3e ab 5c ed bd 0b 19 02 be
       -0.12916473 0.17491654 -0.11589941 -0.12704866
000080 c1 be ca bd 9f d7 4c be e5 17 8a 3d 2b 6f 11 be
       -0.09899665 -0.20004128 0.06742839 -0.14202563
000090 7f 8f fb bd e2 a3 51 3d 88 0e 0d bd 40 08 8e bd
       -0.12283229 0.05118168 -0.034437686 -0.06935167
0000a0 95 35 b9 bd b1 72 03 be 59 8b 34 be 0e c9 c0 3c
       -0.09043423 -0.1283672 -0.17631282 0.02353337
0000b0 06 f3 2a be fb 58 e1 3d 40 f5 9e 3d 5f a4 46 3a
       -0.16694269 0.110033 0.077616215 0.0007577594
0000c0 2b a8 91 3d d3 31 0a 3d 13 d5 03 3d d1 2e 0d 3e
       0.071121536 0.033738922 0.032185625 0.1378739
0000d0 9c 07 c4 3d 1c d0 16 3e 16 80 2c 3d 39 90 5b 3d
       0.09571764 0.14727825 0.04211434 0.05360434
0000e0 ad 55 cd 3c cc 9f 09 be 74 02 6a bd c9 ff 44 bd
       0.025065267 -0.13439864 -0.057131246 -0.0480955
0000f0 38 30 01 3d 4e c6 49 3e 6f 3c 78 3e f9 ed 5c bc
       0.031540126 0.19704553 0.24241804 -0.0134844715
000100 9b fd f5 bd 5f 6b 7c bd a1 40 fe bd 3c 5a 39 be
       -0.12011262 -0.061625835 -0.12414671 -0.18100828
000110 f3 f9 7a bd a4 5e 86 3d 3b d6 90 bc a4 1b 0f be
       -0.061273526 0.0656102 -0.017680278 -0.13975388
000120 bc 96 72 be bc a3 0b be c2 33 0e 3e 5e d3 98 3d
       -0.23690313 -0.13636678 0.13886932 0.0746219
000130 81 62 eb 3d 48 69 50 be 29 53 8e bb 98 01 8f bd
       0.114933975 -0.20352662 -0.0043434096 -0.06982726
000140 60 18 00 be ac 7b 47 3e 87 6a 21 3e 8e bd 57 3c
       -0.12509298 0.19480771 0.15763293 0.013167752
000150 4b 6d 4e bd c5 94 f0 3c 0b 20 cd bd a7 29 d8 3b
       -0.0503972 0.029367814 -0.10015877 0.006596762
000160 34 8b 3e be fd f3 f1 bc 7a dd 9b 3c 58 af 74 3d
       -0.1860779 -0.029535288 0.019026507 0.059737533
000170 57 00 94 bd e4 a4 19 be 31 1e b7 3d a1 e4 1a 3e
       -0.07226627 -0.15004307 0.089413054 0.15126278
000180 0b a6 c0 3c db a1 45 3e f4 7b 14 3e 3e 68 4e 3d
       0.023516675 0.19300024 0.1450041 0.05039238
000190 cb 85 cb 3d 83 5a da 3d f7 fa 70 3e 22 84 19 3e
       0.09937628 0.10661795 0.23533235 0.14991811
0001a0 1c b6 e1 bb 77 af 64 b8 b5 a4 0e 3e 95 fd a2 3d
       -0.006888164 -5.452285e-05 0.13930018 0.07958523
0001b0 c6 61 16 be d9 aa 22 3e 70 96 9e ba 34 10 17 be
       -0.14685735 0.15885486 -0.0012099277 -0.14752275
0001c0 25 b0 89 3d c1 77 39 bb 3b 90 04 bc 07 c9 29 3e
       0.0672305 -0.0028300139 -0.008091028 0.16580592
0001d0 3b 89 10 be 84 6d 2c 3e ec b6 bd bd e9 e1 59 3d
       -0.1411485 0.16838652 -0.09263405 0.05319396
0001e0 32 be 28 3e b3 b8 51 bd fe 19 9e 3d c2 fc 13 3e
       0.16478804 -0.051201534 0.07719801 0.14451888
0001f0 f0 e1 18 3d a8 ac 1d be 03 e3 1c 3e 22 88 0c 3e
       0.037324846 -0.15397894 0.15320973 0.13723806
000200 5f 8e 5c bd df 88 17 be a7 cb 5d bd 32 49 16 be
       -0.053846713 -0.14798306 -0.054149296 -0.1467636
000210 26 11 6e bc 7c b2 b0 3d c4 7e 4c be 72 a7 05 3e
       -0.014530456 0.08627793 -0.19970232 0.13052157
000220 6f 48 37 3c ef 36 b8 bd d3 ba 25 3e 3e 93 27 3e
       0.011186703 -0.08994853 0.16184549 0.16364762
000230 61 0b 95 3c e3 78 35 3e 4e 3a bf 3d 0c 5c 05 bc
       0.018193902 0.17721896 0.093372926 -0.0081396215
000240 3d 0f 7b bc d6 77 fa bd 4a 99 2e 3e 85 bd d5 3d
       -0.015323457 -0.12229888 0.17050663 0.104365386
000250 20 bb bd bd 22 eb d4 3d af da 05 ba 2f b5 06 be
       -0.09264207 0.103964105 -0.0005106134 -0.13155054
000260 5e c4 87 3d d5 1c ae 3d 6b 42 13 be c0 ae f1 3d
       0.06629251 0.08501593 -0.14380805 0.11800909
000270 cc 37 53 bd 10 f2 18 bd f0 c7 89 bd 30 0c 69 bc
       -0.051566884 -0.037340224 -0.06727588 -0.014224097
000280 f4 20 89 3e 26 35 ea bd fe 35 4a be b3 0b 6c bd
       0.26782954 -0.114359185 -0.19747159 -0.057628345
000290 30 7a 36 bc d0 c9 21 ba 67 a3 47 be 19 3a 53 be
       -0.01113753 -0.0006171735 -0.19495927 -0.20627631
0002a0 31 c2 77 bd ee 78 fb 3d 41 80 ca bd 37 6f 00 3e
       -0.06048793 0.12278925 -0.09887744 0.12542425
0002b0 92 43 bc 3d fd 82 71 be 33 e3 53 bc 3e 96 ac bd
       0.091925755 -0.23585124 -0.0129325865 -0.08427094
0002c0 af a5 54 3d 73 9a 41 bd 42 3a 6d 3d 46 35 ad 3b
       0.05191582 -0.047266435 0.057916887 0.0052858917
0002d0 3c 18 a0 3d 30 f7 64 3e 80 26 4c 3e 48 1e 88 3d
       0.07817122 0.2235992 0.19936562 0.06646401
0002e0 a7 ea 1e be 57 cf ee bd 7b 83 5a 3e 8f c9 2b 3e
       -0.155192 -0.11660641 0.21339218 0.16776107
0002f0 e9 b9 21 3e 50 07 e1 bb 36 6e 10 be e1 d6 0a be
       0.15793575 -0.006867327 -0.14104542 -0.13558532
000300 c8 f5 d1 3d 51 d8 28 3e a9 06 5e bc 6d 14 64 bd
       0.10251957 0.16488768 -0.013551393 -0.055683542
000310 3b 50 6f bd ee b3 5e 3e 27 06 14 bc 27 00 57 3d
       -0.058426123 0.21748325 -0.00903467 0.05249038
000320 c2 78 b3 bd cd ac ab 3d fc 24 2c 3d 29 4c 96 3d
       -0.08763267 0.083825685 0.04202746 0.07338745
000330 b8 ea d0 bd c2 71 50 3d 3d 4f 6f 3e 03 94 d8 3b
       -0.10201019 0.050889738 0.23370071 0.0066094412
000340 d3 51 bd bd 97 2b e9 bc 2f bc 88 be 62 09 e8 3d
       -0.09244122 -0.028463168 -0.26706073 0.11329915
000350 57 ab 01 be d4 25 11 be 0c ce a6 bd e5 a0 36 be
       -0.12663017 -0.14174587 -0.08144769 -0.17834814
000360 3d 0e 75 3e 79 0c ec 3c bf ac 33 bd 00 ca 35 be
       0.23931213 0.028814541 -0.043865915 -0.17752838
000370 0f 23 23 be 65 6c 86 3d 92 46 07 3e e5 3a 2b 3e
       -0.15931343 0.06563643 0.13210514 0.16721685
000380 57 48 af 3d 44 61 90 3b 5f a7 3a bd 1b 83 e3 3d
       0.085587196 0.004406126 -0.045569774 0.11108991
000390 06 f3 31 bd 12 47 41 3e ef 8c 86 bc ca 0e b2 bd
       -0.043444656 0.18874767 -0.016424624 -0.08694227
0003a0 77 94 65 3e 3f 90 5b 3d 89 5f d8 bd 2a 03 01 3e
       0.22419916 0.05360436 -0.10565097 0.12598863
0003b0 c3 ae c3 3a 11 33 8a 3d 39 00 91 bd c7 aa 22 be
       0.0014929402 0.067480214 -0.070801206 -0.15885459
0003c0 a7 cd d4 3c ef 5e 08 3b 64 3b b2 3d d8 4c 13 3c
       0.025976969 0.0020808538 0.08702734 0.008990489
0003d0 a1 e5 ac 3d 9b e8 f1 bd 29 71 04 3e e6 2a 9d 3d
       0.08442236 -0.11811944 0.12933792 0.07674198
0003e0 14 41 ae 3d cd 32 b6 bd ab 60 93 bd 55 18 b9 bd
       0.085085064 -0.08896408 -0.07196172 -0.09037844
0003f0 ed 28 37 3e b7 b0 03 3e 23 9e 65 bd 2a 20 29 3d
       0.17886706 0.1286038 -0.056059014 0.04129044

encoder.egnn.layers.0.node_mlp.2.bias f4 [16]
000000 05 1c 3a 35 52 e3 f5 34 83 2e f3 36 77 d6 19 37
       6.9331173e-07 4.5800203e-07 7.247379e-06 9.169445e-06
000010 3f 9a 11 b6 55 e3 6b b5 f8 93 ff b5 bf be a0 b5
       -2.1696467e-06 -8.7875134e-07 -1.9042045e-06 -1.1976443e-06
000020 a0 60 a4 35 37 42 ba 35 6b 52 de b4 44 ec 8f b6
       1.2247074e-06 1.3877351e-06 -4.141069e-07 -4.289237e-06
000030 71 2d 15 b6 3d ae 06 b7 0d f7 a6 36 d8 bc 01 b6
       -2.222918e-06 -8.02759e-06 4.975946e-06 -1.933242e-06

encoder.egnn.layers.0.coord_mlp.0.weight f4 [32, 32]
000000 c0 b8 2f 3e 61 51 fb bd ff 4e 7b 3d c9 aa 26 3d
       0.1716032 -0.12271381 0.061354633 0.040690217
000010 bf b4 21 bd 0f ea 47 be e6 cf ff 3c 11 ef 08 3d
       -0.039479014 -0.1952288 0.031227063 0.033431116
000020 7a 44 8e 3b 63 db 63 3e cd d9 7f 3d 5f 84 35 be
       0.004341659 0.22251658 0.06246357 -0.17726277
000030 c9 18 4c be 6c 97 1d bc 75 b7 84 be af 07 1c be
       -0.1993133 -0.009618621 -0.25921217 -0.15237306
000040 e3 9e c9 bd 52 3a 43 bd 64 ad 62 bd ad db 40 3d
       -0.09844758 -0.04766304 -0.05534114 0.0470845
000050 07 43 95 be 1f 89 74 3d eb 36 9f be 6b 23 1e be
       -0.291527 0.05970108 -0.31096587 -0.15443198
000060 cf 53 1b 3d 59 00 2d bd b0 1f fd 3d 9b 9c 54 be
       0.037921723 -0.04223666 0.123595595 -0.20762865
000070 db a3 2c 3e 5c f6 2f 3e 9c 61 09 3e 00 52 f4 bd
       0.16859381 0.17183822 0.13416141 -0.11929703
000080 c8 3e 20 3e ce b7 33 bd 6e 3f d0 3a 34 c9 2d 3d
       0.15648949 -0.04387646 0.0015888044 0.04242821
000090 53 46 b3 3d 66 ac 3e be ba 30 eb 3c cd 4d 69 3e
       0.08753648 -0.18620452 0.028709758 0.22783585
0000a0 d5 74 8b 3d 87 87 d4 3d 80 22 01 be 18 4c 7f be
       0.06809393 0.10377412 -0.12610817 -0.24931371
0000b0 49 6b f4 bd ad 3e b4 b9 65 78 9e be ee 3d 41 be
       -0.119345255 -0.00034378972 -0.3095123 -0.1887128
0000c0 b4 a6 b6 bc 12 27 d0 3b 2a 74 3b 3e f7 c9 f9 bd
       -0.022296287 0.006352314 0.18306032 -0.12196725
0000d0 a1 7b 38 be b1 ae 17 3d d8 e5 a0 be a5 d9 c6 bd
       -0.1801591 0.037031833 -0.31425357 -0.09709481
0000e0 e4 7a cf 3d 73 7e f6 3d 49 cf c2 bd 02 72 81 be
       0.101308614 0.12035837 -0.09512193 -0.25282294
0000f0 cd ed 09 3d b0 5e d4 3d 52 8e 94 3d e2 e8 ac 3d
       0.03367405 0.10369623 0.07253708 0.08442856
000100 d3 02 82 3d d6 7c 21 3e a0 09 f9 bd ec 65 26 3e
       0.06348195 0.15770277 -0.12160039 0.16249818
000110 42 41 bc bd a8 8f f4 3d c3 4a eb bd 22 08 95 bd
       -0.091921344 0.11941463 -0.11488869 -0.07276942
000120 eb ca 99 bd 22 0b a4 be 7b 65 4c 3e c1 39 9b 3e
       -0.07509407 -0.32039744 0.19960587 0.303175
000130 43 12 5b 3e 0a 0e ca 3d 1b 58 66 3e 15 df a2 3d
       0.21393685 0.09865959 0.22494547 0.07952706
000140 6e ed 90 3c a0 d2 b8 bd b8 82 89 3b 93 c4 af 3d
       0.01769134 -0.090245485 0.004196491 0.085824154
000150 39 2b ce 3d d7 be 18 bc a9 a4 bf 3e 1a 05 58 3e
       0.10066838 -0.0093228435 0.37430313 0.21095696
000160 47 43 3e be 0b 55 9f 3d c4 61 27 3e 8a f4 a2 3e
       -0.18580352 0.077798925 0.16345888 0.31827193
000170 7d fc 63 be dc 93 62 3c 09 88 de bc 1b 97 aa bd
       -0.22264285 0.013829198 -0.027164476 -0.08329602
000180 03 7f ce 3d 59 2d d4 bd 13 5e d4 3d b9 41 ed bb
       0.10082819 -0.10360212 0.10369506 -0.0072405008
000190 05 2d 0a be 35 9c bb bd 25 e0 5b 3e 81 d6 cb 3d
       -0.13493736 -0.091606535 0.21472223 0.09953023
0001a0 ed 04 26 3e 7a e8 ff 3c f7 b4 93 b9 9c a3 af be
       0.16212817 0.031238783 -0.00028172854 -0.34304512
0001b0 fa 8b 0d be 3e 39 0c 3d c4 57 4d be 40 da c9 be
       -0.13822928 0.034234278 -0.20053011 -0.39424324
0001c0 f1 c7 87 be 7b d0 1e be 56 a6 c9 3d 2f e7 36 3d
       -0.2651973 -0.15509216 0.09846179 0.044654068
0001d0 2b c2 a1 be 77 3d 09 3e 7d ac eb bd 1b 22 9b be
       -0.3159345 0.13402353 -0.11507509 -0.30299458
0001e0 b8 bf 9e bd 56 39 de 3a 62 2b 2b 3e 8c 31 03 be
       -0.07751411 0.0016954343 0.16715768 -0.1281187
0001f0 ca bc 2b 3e da ab fd 3d a6 d9 de 3d ba 81 85 3d
       0.16771236 0.12386294 0.10881357 0.06518884
000200 56 2c 85 3d bc 91 24 bd 5b 79 96 3b 36 50 6d 3e
       0.06502597 -0.040178046 0.0045921034 0.2317513
000210 d5 dd ea 3d 1a d2 16 3e b7 ab 63 be 5b d7 2b be
       0.11468092 0.14728585 -0.22233473 -0.1678137
000220 e3 4c f6 bc f5 02 60 be 2c c7 68 3d 5a 26 16 3e
       -0.03006596 -0.21876128 0.05683057 0.14663067
000230 06 62 e5 3d 3d 59 d7 bd 19 87 44 3e a4 d9 15 3e
       0.11200337 -0.10515068 0.1919216 0.14633805
000240 88 78 83 3d 84 ae 61 bd 73 49 59 bb 82 8f d8 bb
       0.06419474 -0.05509807 -0.0033155351 -0.0066089043
000250 f6 64 62 3e dd 58 05 bd fa a1 6e 3e 9e ec 3b 3e
       0.22108826 -0.03255545 0.23303977 0.18351981
000260 22 09 ed bd 4e 3a 01 be 08 70 07 bc 8e 15 66 3e
       -0.115740076 -0.12619898 -0.008266456 0.2246916
000270 89 92 05 bd 3e 29 91 bd 09 42 56 bd c2 5f 7e bd
       -0.03261045 -0.070879444 -0.05230907 -0.06210304
000280 b7 0a d3 3b f4 42 80 3c 52 ed 7c bd 35 03 e5 bd
       0.0064404863 0.015656926 -0.061749764 -0.11182252
000290 0b 6b e1 bc e9 00 50 ba 00 6e 89 3d f5 f1 04 3e
       -0.027516862 -0.0007934706 0.06710434 0.12982924
0002a0 ba 1c f3 3d 2a 8b b6 3d 4d 94 16 3c d7 ad ff bc
       0.118707135 0.08913262 0.009190631 -0.031210823
0002b0 d6 f4 80 bd e1 2f 4a bd 53 89 ab bd 9d 25 1b bd
       -0.06296699 -0.049362067 -0.08375802 -0.037877668
0002c0 d0 e7 90 3b b6 5e 0c bd 2a e1 3a 3d b6 f9 14 3d
       0.0044221655 -0.03427001 0.04562489 0.036370955
0002d0 26 e3 21 be cb 94 0a 3d b1 6e 0a be 15 62 4b bc
       -0.15809307 0.033833306 -0.13518788 -0.012413521
0002e0 c9 ce 6a 3d 13 6b a1 3d d6 eb 9e bd fb e6 ef bd
       0.057326112 0.07881751 -0.07759826 -0.11713978
0002f0 9c 51 19 3e c4 83 f9 3d 0e 02 a2 3c 22 51 e5 bd
       0.14972538 0.121833354 0.01977637 -0.111971155
000300 d9 89 25 bd 32 7a e7 bc 01 8d c4 3d 85 b5 a9 bc
       -0.040414665 -0.02825651 0.09597207 -0.020716438
000310 53 8e 65 3d 77 cc bd 3d 52 90 68 bd 1a ea e6 3a
       0.056043934 0.09267514 -0.05677826 0.0017617375
000320 6a 6e 94 bd 7f 49 b4 bc c8 02 8e 3d bd c5 c2 3d
       -0.07247622 -0.022007702 0.06934124 0.09510372
000330 9f 10 5a 3d 5f 44 fd bd 60 08 88 3d 65 c7 b5 3d
       0.053238507 -0.123665564 0.066422224 0.08875922
000340 d2 e5 a9 3b 47 76 7b 3d 85 d7 b3 3b e9 be be 3c
       0.0051848674 0.061392095 0.0054883384 0.023284392
000350 5c ee 3f 3d 38 3e 34 bd cb 8b ea 3d 69 73 19 3b
       0.046858177 -0.04400465 0.11452445 0.0023414737
000360 49 b7 c0 bd 92 7b a5 3c 8c fb 1d bd 8c 66 55 3d
       -0.09409959 0.020200524 -0.038569972 0.05209975
000370 28 7d 0f 3d 34 57 b7 bd bd 37 18 bd 39 8b 97 3d
       0.035031468 -0.089521796 -0.03716253 0.073996015
000380 81 9e 1d 3e 4e f5 34 3d 9d ba 45 be 43 72 28 be
       0.15392496 0.044179253 -0.19309469 -0.16449837
000390 35 5a fa 3d 73 ef 59 3a b7 a3 78 3e f7 28 c3 bc
       0.12224237 0.0008313574 0.24281202 -0.023823244
0003a0 ae 46 81 bc 9a 1f 65 3e 29 e5 f5 bd b0 c1 14 be
       -0.015780773 0.22375336 -0.120065995 -0.14527011
0003b0 87 3f 20 be 5f e3 72 bd e1 66 96 be 73 3b 47 be
       -0.15649234 -0.05929887 -0.29375365 -0.19456272
0003c0 17 77 ba bd c9 c1 38 bd 0b b9 9e bd 93 67 1b be
       -0.09104746 -0.045106683 -0.07750138 -0.15176229
0003d0 6f be 7e be 05 9e 00 3e 9d 7c 8d be 52 e9 81 bc
       -0.24877332 0.1256028 -0.27634135 -0.015858326
0003e0 13 3e d6 3d db e7 34 bc 41 64 f4 bd e1 34 3a be
       0.104610585 -0.011041607 -0.119331844 -0.18184234
0003f0 08 b9 ed 3d 25 1c 8b 3d 58 c3 25 3e 1e e0 ad bd
       0.116075575 0.067924775 0.16187799 -0.084900126

encoder.egnn.layers.0.coord_mlp.0.bias f4 [32]
000000 5a e1 f3 bc a9 58 34 3c 63 dc 46 bd 2e ec 49 bd
       -0.029770542 0.011007466 -0.04855002 -0.049297504
000010 ad 1c 12 bd 76 3f 27 3e de 55 25 be 1f c0 f4 3d
       -0.03567188 0.16332802 -0.16146037 0.11950707
000020 4b 24 97 3d d2 82 03 3e 25 9e 18 3e 19 55 d2 bd
       0.07379969 0.12842873 0.14904077 -0.10270137
000030 81 01 bd 3d bc b8 7f bd 6b 12 c5 bd 72 9a 00 be
       0.092288025 -0.062432036 -0.096226536 -0.12558916
000040 52 5c 5b bc d7 69 00 bd 58 4b 82 bd 78 ac 2e bd
       -0.01338871 -0.031350937 -0.06362027 -0.042644948
000050 92 70 e6 bc de 18 69 bb 80 13 06 3e 18 a0 e7 3d
       -0.02812985 -0.00355678 0.13093376 0.11309832
000060 75 f5 ce bd 50 b7 c2 3c 34 02 35 bd 5c ea 38 3d
       -0.10105411 0.02376905 -0.044191554 0.045145378
000070 01 28 97 bd da 0c 2b 3e 01 22 29 3d 59 e7 93 3d
       -0.07380677 0.16704121 0.041292194 0.072218604

encoder.egnn.layers.0.coord_mlp.2.weight f4 [1, 32]
000000 f4 49 48 be b4 c9 86 be f6 1e 67 3e ec 24 47 be
       -0.19559461 -0.26325762 0.22570404 -0.19447678
000010 d6 9f 14 3e 64 91 20 bd 27 50 14 3d e7 24 94 be
       0.14514098 -0.039201155 0.03620925 -0.28934404
000020 8f 09 6e 3d a5 06 0f be 13 b5 45 be a7 6e c6 bc
       0.058114585 -0.13967378 -0.19307356 -0.024222685
000030 af df 9f bd 04 0f 07 3e 49 e9 d8 3d a4 f0 b7 3d
       -0.07806336 0.13189322 0.105913706 0.089814454
000040 cc fb 7c bd 83 2f 17 be 4b b8 de bc f5 6a 1b 3e
       -0.06176357 -0.14764218 -0.027187487 0.1517752
000050 ed e9 1e 3e 25 4e 0c 3e 71 26 a9 bd a0 71 1c be
       0.15518923 0.13701685 -0.08259285 -0.1527772
000060 d9 2b 7b 3e 84 5f b0 3d 15 b9 8a bd 37 cb 78 bd
       0.24528445 0.08611968 -0.06773583 -0.060740676
000070 75 31 51 bd 6a de ae bd 1e 78 0a be 12 f6 0f be
       -0.051072557 -0.08538516 -0.13522384 -0.14058712
