log/geometric_graph/cube/checkpoints/last_model.ckpt (torch, 137618 bytes, 34 tensors)

init_coord f4 [512, 3]
0.13011365 0.22309029 0.80211806 -0.6047368 0.96712345 0.4904994 0.121758915 -0.12606364
0.25188002 0.28479925 -0.18664208 0.78078115 -0.23249546 0.30289266 0.12494853 0.110262714
0.87372255 -0.380585 0.86075133 1.0115578 -0.36453125 -0.42440873 0.018254088 0.06581727
0.09311799 0.009968059 0.28069225 -0.61732596 0.3483333 0.4803709 -0.20583014 -0.0772124
-0.8906445 -0.5219477 -0.21292292 0.17878965 0.15865791 -0.2939118 0.40094694 -1.1533521
0.8620165 -0.242442 -0.3365269 -0.31219044 0.118241765 -0.1599638 -0.08788241 -0.8586172
0.3941016 -0.34917432 -0.5553165 0.23111401 0.3076783 0.42603317 0.045195103 -0.3553713
-1.3667704 -0.35811934 -0.11241491 -0.40200254 0.5187706 0.81787854 -0.94699645 -0.1168851
-0.18365066 -0.52919775 -0.1329381 0.18423532 -0.52270335 0.4062085 0.44529152 -0.10008198
0.5088544 0.6374971 0.39192742 0.1538954 -0.37620807 -0.15836908 0.9641305 0.7516459
-0.34328628 0.2588093 -0.4296813 0.25752234 -0.094314255 -0.11420038 -0.7839732 -0.11591807
-0.11819795 -0.2861925 0.3672003 -0.009990506 0.12858716 -0.058361586 -0.4426429 0.10455151
-0.148957 0.9446827 0.02923758 -0.33280843 -1.4582865 -0.28026804 -1.2920647 -0.37958536
0.105432086 0.07564861 0.55047166 -0.0056418744 1.2494689 0.16075996 0.2087921 -0.7210794
0.08397969 0.34988868 0.48087192 0.64945954 0.3422366 -0.8407885 0.15899989 -0.09036933
-0.48202437 -0.52430034 0.22198911 -0.4110796 -0.22127758 -0.30216342 -0.62863666 -1.4262103
-0.66291946 0.67532325 -0.57865393 -0.1670105 -0.6411275 -0.07966934 -0.12093622 0.3636866
0.5051367 0.2566484 0.4241947 -0.18878438 -0.3914734 0.37165272 0.9331159 0.5980407
0.22731103 0.7927375 -0.52120763 0.5933575 -0.38319576 1.1546006 0.4479373 -0.6730941
-0.17538719 0.3153815 0.29078856 -0.37873235 -0.12029124 -0.27372572 -0.3670624 0.07399141
-0.027277187 0.22449347 0.33859375 0.48248878 -0.671503 0.41736028 -0.38695276 0.4280002
0.19395174 -0.449203 0.64100504 -0.48347464 -0.18101913 0.02721323 0.0024018085 -0.029992433
-0.72697544 0.18984406 0.06595436 0.54901546 0.43293446 0.047394868 -0.9334862 -0.6338279
-0.12912871 1.3153813 1.0257847 0.4618814 -0.79835343 0.10725195 -0.35795894 -1.0142771
0.2943792 1.553009 0.05957903 -0.31651336 0.17507704 0.2598959 -0.6336689 0.17779975
-0.06299784 0.8175308 0.58590245 -0.46730173 0.35573143 -0.076454684 0.22260524 -0.56380624
0.020985687 -0.34228423 0.299527 0.066494115 0.14682512 -0.31435436 0.19960049 0.559979
0.22109896 -0.3758504 -0.18054482 0.5662073 -0.0644672 0.34826142 -0.10545112 -0.2968394
-0.3293982 0.37798283 -0.053930562 -0.12683886 0.29214245 0.23231302 -0.43393555 0.13970996
0.07682979 0.21160029 0.68183833 0.5402328 -0.30627415 0.01803 -0.8723262 0.113907695
0.05263499 -0.4278254 0.11262324 -0.7170617 -0.46663177 0.5407758 0.5317725 -0.025395796
-0.866137 -0.2126171 0.42532533 0.078944035 0.19392161 -0.7793129 0.46272472 0.4892959
00000000: 833c 053e c871 643e 9c57 4d3f 08d0 1abf
00000010: 6795 773f bd22 fb3e bd5c f93d d416 01be
00000020: 6bf6 803e 35d1 913e 1a1f 3fbe 46e1 473f
00000030: 4a13 6ebe bf14 9b3e 04e5 ff3d 6bd1 e13d
00000040: 48ac 5f3f 0adc c2be 335a 5c3f ba7a 813f
00000050: d7a3 babe 1a4c d9be 9989 953c 34cb 863d
00000060: a5b4 be3d 1251 233c e5b6 8f3e 1309 1ebf
00000070: be58 b23e 2df3 f53e 23c5 52be 8921 9ebd
00000080: 4701 64bf 5d9e 05bf 7708 5abe a214 373e
00000090: 3877 223e 9c7b 96be eb48 cd3e 0ba1 93bf
000000a0: 1dad 5c3f b742 78be 414d acbe 6dd7 9fbe
000000b0: bd28 f23d 8dcd 23be b1fb b3bd 56ce 5bbf
000000c0: afc7 c93e fac6 b2be 3929 0ebf 27a9 6c3e
000000d0: 0388 9d3e 0521 da3e 801e 393d 3af3 b5be
000000e0: 55f2 aebf 6b5b b7be ca39 e6bd 47d3 cdbe
000000f0: 26ce 043f 7d60 513f 5c6e 72bf 7561 efbd
00000100: eb0e 3cbe 8179 07bf ed20 08be 2fa8 3c3e
00000110: e3cf 05bf 8ffa cf3e 40fd e33e c8f7 ccbd
00000120: 4844 023f 0333 233f b6aa c83e c196 1d3e
00000130: 589e c0be 812b 22be 42d1 763f de6b 403f
00000140: 38c3 afbe a782 843e 30ff dbbe f8d9 833e
00000150: d527 c1bd e4e1 e9bd 78b2 48bf 7466 edbd
00000160: c411 f2bd d387 92be ad01 bc3e 38af 23bc
00000170: 5aac 033e 8f0c 6fbd 17a2 e2be 1a1f d63d
00000180: 2f88 18be bad6 713f a683 ef3c de65 aabe
00000190: 22a9 babf 4b7f 8fbe 6062 a5bf 0359 c2be
000001a0: c7ec d73d a9ed 9a3d b6eb 0c3f 79df b8bb
000001b0: 99ee 9f3f 429e 243e 99cd 553e a998 38bf
000001c0: 8bfd ab3d 9c24 b33e d834 f63e fb42 263f
000001d0: a339 af3e ea3d 57bf ded0 223e 8e13 b9bd
000001e0: e6cb f6be 8c38 06bf 1d51 633e 0679 d2be
000001f0: 9796 62be 2ab5 9abe 55ee 20bf 0f8e b6bf
00000200: 17b5 29bf fce1 2c3f aa22 14bf cd04 2bbe
00000210: ef20 24bf ae29 a3bd 69ad f7bd 2135 ba3e
00000220: a450 013f 6b67 833e 0c30 d93e b150 41be
00000230: 346f c8be 4449 be3e afe0 6e3f 3219 193f
00000240: 39c4 683e d8f0 4a3f dd6d 05bf 47e6 173f
00000250: 3c32 c4be f4c9 933f 0a58 e53e e54f 2cbf
00000260: b398 33be af79 a13e 3de2 943e 35e9 c1be
00000270: 415b f6bd c725 8cbe 9aef bbbe cf88 973d
00000280: 6874 dfbc 9ee1 653e 295c ad3e c508 f73e
00000290: 9fe7 2bbf 3fb0 d53e ac1e c6be d822 db3e
000002a0: 499b 463e f0fd e5be e818 243f fd89 f7be
000002b0: 145d 39be 48ee de3c a967 1d3b b1b2 f5bc
000002c0: 101b 3abf 7b66 423e 1413 873d 478c 0c3f
000002d0: 96a9 dd3e 1f21 423d f4f8 6ebf 8c42 22bf
000002e0: 513a 04be 6a5e a83f ea4c 833f b87b ec3e
000002f0: e460 4cbf e9a6 db3d 6546 b7be d5d3 81bf
00000300: dfb8 963e 00c9 c63f 2409 743d 0a0e a2be
00000310: 6547 333e 1311 853e 2038 22bf 2311 363e
00000320: 0305 81bd b349 513f b4fd 153f 2c42 efbe
00000330: 6e22 b63e 4694 9cbd a1f2 633e 9b55 10bf
00000340: 2dea ab3c e13f afbe 9a5b 993e 112e 883d
00000350: 5359 163e 0ef3 a0be 1264 4c3e c95a 0f3f
00000360: c467 623e 776f c0be bee0 38be f6f2 103f
00000370: 6107 84bd 524f b23e c2f6 d7bd 55fb 97be
00000380: e2a6 a8be f786 c13e 4be6 5cbd 0ce2 01be
00000390: b293 953e 77e3 6d3e cd2c debe 2110 0f3e
000003a0: f058 9d3d bfad 583e f58c 2e3f b24c 0a3f
000003b0: f7cf 9cbe a7b3 933c c550 5fbf 7048 e93d
000003c0: ca97 573d ee0b dbbe 03a7 e63d 5b91 37bf
000003d0: 5cea eebe 4870 0a3f 3e22 083f d80a d0bc
000003e0: 28bb 5dbf 4cb8 59be 3ec4 d93e 69ad a13d
000003f0: 6393 463e 0d81 47bf 41ea ec3e fe84 fa3e

encoder.egnn.layers.0.edge_mlp.0.weight f4 [32, 33]
-0.034945022 0.14356093 0.07883755 -0.15732431 0.079899736 -0.060664944 -0.120575815 -0.072548315
-0.08508813 0.10161334 0.07006301 0.210871 -0.07664903 0.17815746 7.298166e-05 -0.11348853
-0.04898562 0.01554465 0.061598096 -0.19955666 0.17941652 0.0020006087 0.098863795 0.20190075
-0.016005604 -0.11154097 -0.07725264 0.10616606 0.14187297 0.102708094 -0.016360167 0.16785222
-0.12392657 -0.17411694 -0.1392445 0.051556572 -0.06765954 0.15748103 -0.13891979 -0.13744546
0.052419577 -0.018379238 0.055956703 -0.12016813 -0.022654094 0.09569804 0.14290114 0.062428698
-0.032637753 -0.048869297 -0.032484572 0.04977915 0.13191345 -0.13240065 -0.049756728 -0.07688821
0.15285036 -0.016185457 0.08567075 -0.11511012 0.17513637 0.19908406 -0.113105774 -0.042868294
-0.04984228 0.26546118 -0.091283835 -0.07990705 -0.033882476 0.026179995 -0.0006187737 0.15993322
0.032066777 -0.061381496 0.010186925 0.14865072 0.026424387 -0.053123273 0.022431355 0.13179396
0.038810164 0.022005608 0.080020286 0.022816824 -0.08429512 0.068485945 -0.040158447 -0.08933951
-0.12733313 0.2410742 0.078638665 -0.22425452 0.15734501 0.0020781842 0.15808035 0.0007660844
0.12768699 0.25888333 0.28788733 -0.15952802 0.1278701 -0.047966633 -0.10770788 0.13597754
-0.20348814 0.0013809003 -0.09810902 -0.18486527 -0.06265243 -0.029491166 -0.08851824 0.054895855
-0.14000306 -0.21613751 0.07057582 -0.11223657 -0.11326052 -0.053573113 -0.1391206 0.09793181
-0.045969598 -0.21042123 0.18057923 0.026658492 -0.1561122 0.18402882 -0.096591316 -0.25512847
0.29172748 0.18848574 0.18223697 -0.016894553 -0.0033500628 0.17983805 0.05323201 0.18373235
0.07300258 0.15490818 0.09705203 -0.06641441 0.13515228 -0.10163397 0.1590675 -0.0043936307
-0.03831499 -0.20983727 -0.085053325 -0.002942898 0.1113802 -0.07037867 -0.005947338 0.14704874
0.10044 -0.07444736 0.038824774 -0.06827806 0.07694988 0.08485659 0.18443234 0.06984929
-0.007757462 -0.015335027 0.12804814 -0.16038482 0.19430427 -0.055799913 0.024206638 -0.07495242
0.06349517 -0.22271226 -0.23050907 -0.18879507 -0.09714281 0.1604833 0.029093303 0.07345078
0.10590612 -0.04410834 -0.05135219 0.07269038 0.0481485 0.025215374 -0.034059424 0.21617548
-0.092956744 -0.05204822 0.038906794 0.05005748 -0.07777403 -0.03276389 0.06311273 0.19236381
-0.04339687 0.005012885 -0.22625616 -0.104348585 -0.005990581 -0.4579354 0.2457652 0.13344455
-0.11358388 0.050540693 -0.055434804 0.15861937 0.14361303 -0.10109634 0.046901852 0.020922713
-0.19916262 -0.15842275 0.017461691 -0.06927574 -0.093364164 -0.111217424 0.0067460416 0.0286713
-0.026630698 -0.07128951 -0.0037322652 0.010097837 -0.16883442 0.16169573 -0.035992492 -0.11692544
-0.0171218 0.056662124 0.003319822 -0.099869065 0.021382842 0.15836346 -0.046399165 0.120310195
0.066263884 0.07021232 0.09785417 -0.07756962 -0.07557716 0.05689139 -0.018260952 -0.08872712
-0.14457437 -0.055787843 0.05117054 -0.19165187 0.15906231 0.16075791 -0.16604716 0.04874492
-0.17739002 0.21670516 -0.21989994 0.20297675 0.13826486 0.12972312 0.11967291 0.0814397
00000000: 8322 0fbd a301 133e 9575 a13d a019 21be
00000010: 79a2 a33d ce7b 78bd 74f0 f6bd 3694 94bd
00000020: af42 aebd a81a d03d 327d 8f3d 91ee 573e
00000030: 2bfa 9cbd e96e 363e bb0d 9938 ad6c e8bd
00000040: 25a5 48bd fdae 7e3c 494e 7c3d 9558 4cbe
00000050: f7b8 373e a51c 033b 1a79 ca3d 12bf 4e3e
00000060: 2f1e 83bc 986f e4bd a236 9ebd 976d d93d
00000070: 2647 113e 9f58 d23d c205 86bc 74e1 2b3e
00000080: 37cd fdbd b64b 32be 1c96 0ebe fc2c 533d
00000090: 1691 8abd b542 213e fd40 0ebe 81be 0cbe
000000a0: e9b5 563d 0e90 96bc db32 653d b51a f6bd
000000b0: 1495 b9bc 56fd c33d ad54 123e 3cb5 7f3d
000000c0: 2aaf 05bd 2c2b 48bd 8b0e 05bd 39e5 4b3d
000000d0: 5214 073e 0994 07be b6cd 4bbd 9177 9dbd
000000e0: ce84 1c3e 5d97 84bc 2574 af3d dbbe ebbd
000000f0: f356 333e b1dc 4b3e 00a4 e7bd aa96 2fbd
00000100: 6b27 4cbd 87ea 873e 05f3 babd 4fa6 a3bd
00000110: 5ac8 0abd 6e77 d63c 3335 22ba 89c5 233e
00000120: 7458 033d 2a6b 7bbd 0fe7 263c e537 183e
00000130: f577 d83c ca97 59bd f6c1 b73c fff4 063e
00000140: 68f7 1e3d 1b45 b43c ade1 a33d 59ea ba3c
00000150: eba2 acbd 5c42 8c3d 2f7d 24bd a2f7 b6bd
00000160: 9e63 02be 28dc 763e 4f0d a13d faa2 65be
00000170: 0d1f 213e 2532 083b d1df 213e 0ed3 483a
00000180: 61c0 023e 5b8c 843e f865 933e 505b 23be
00000190: 61f0 023e a978 44bd f395 dcbd b23d 0b3e
000001a0: 325f 50be 53ff b43a 62ed c8bd 524d 3dbe
000001b0: eb4f 80bd 7597 f1bc 0d49 b5bd 7ada 603d
000001c0: f65c 0fbe 2753 5dbe 0e8a 903d 49dc e5bd
000001d0: 22f5 e7bd 7b6f 5bbd a175 0ebe 7990 c83d
000001e0: 9e4a 3cbd aa78 57be c3e9 383e e962 da3c
000001f0: e0db 1fbe 0d72 3c3e abd1 c5bd 33a0 82be
00000200: 4e5d 953e 6802 413e 549c 3a3e 7266 8abc
00000210: ba8c 5bbb 7727 383e cf09 5a3d 5524 3c3e
00000220: 6082 953d 40a0 1e3e 37c3 c63d 4704 88bd
00000230: 5c65 0a3e 7925 d0bd 97e2 223e 72f8 8fbb
00000240: 2ef0 1cbd 95df 56be 7030 aebd a3dd 40bb
00000250: 4d1b e43d b122 90bd e3e1 c2bb f293 163e
00000260: 7db3 cd3d dc77 98bd ba06 1f3d 5ed5 8bbd
00000270: e697 9d3d 4bc9 ad3d d5db 3c3e 250d 8f3d
00000280: 4f32 febb c43f 7bbc 0d1f 033e eb3b 24be
00000290: b3f7 463e 738e 64bd 004d c63c a880 99bd
000002a0: c109 823d af0e 64be 920a 6cbe 7f53 41be
000002b0: cff2 c6bd bc55 243e 1455 ee3c 5d6d 963d
000002c0: 4fe5 d83d f2aa 34bd ad56 52bd b2de 943d
000002d0: 5d37 453d 7990 ce3c e581 0bbd 1b5d 5d3e
000002e0: 1b60 bebd 8430 55bd bb5c 1f3d 1209 4d3d
000002f0: fe47 9fbd 6e33 06bd 3f41 813d 05fb 443e
00000300: ebc0 31bd 2143 a43b b2af 67be b6b4 d5bd
00000310: a34c c4bb 8276 eabe dfa9 7b3e b0a5 083e
00000320: aa9e e8bd c203 4f3d 9b0f 63bd 1e6d 223e
00000330: 4b0f 133e 990b cfbd 281c 403d 1c66 ab3c
00000340: 49f1 4bbe 9339 22be d20b 8f3c 70e0 8dbd
00000350: b635 bfbd f6c5 e3bd e60d dd3b 13e0 ea3c
00000360: 9f28 dabc 3c00 92bd 0599 74bb 6671 253c
00000370: eee2 2cbe 9193 253e dd6c 13bd 9b76 efbd
00000380: 0443 8cbc 8b16 683d 5f91 593b 2788 ccbd
00000390: 122b af3c 082a 223e 0d0d 3ebd 3165 f63d
000003a0: 5cb5 873d 7acb 8f3d c467 c83d d2dc 9ebd
000003b0: 33c8 9abd f206 693d fe97 95bc 90b6 b5bd
000003c0: 4e0b 14be cb81 64bd 3398 513d 6340 44be
000003d0: 3be1 223e b99d 243e 4408 2abe c1a8 473d
000003e0: bba5 35be f5e7 5d3e 732d 61be 23d9 4f3e
000003f0: 4e95 0d3e 23d6 043e 1217 f53d dcc9 a63d

encoder.egnn.layers.0.edge_mlp.0.bias f4 [32]
0.0052014794 0.13966137 -0.06257531 -0.053530212 0.04864433 -0.14282016 -0.063659854 -0.07637017
0.039615612 -0.11008292 -0.014339678 -0.051534902 0.03843645 0.02544358 -0.13994165 0.053493228
0.08362339 -0.018968439 0.055170316 0.073649436 -0.07755485 0.016354473 0.07948315 0.01532291
-0.09882197 0.07694115 0.022169469 0.076499395 -0.0031378495 0.014131634 -0.011415498 -0.14176387
00000000: 2c71 aa3b 6403 0f3e 7c27 80bd 7f42 5bbd
00000010: 473f 473d 733f 12be 1960 82bd f767 9cbd
00000020: fb43 223d 2773 e1bd f8f0 6abc 4316 53bd
00000030: 8a6f 1d3d 0e6f d03c dd4c 0fbe b71b 5b3d
00000040: bd42 ab3d b363 9bbc 45fa 613d 84d5 963d
00000050: 14d5 9ebd d1f9 853c 10c8 a23d f10c 7b3c
00000060: 2c63 cabd 5293 9d3d bf9c b53c b7ab 9c3d
00000070: 61a4 4dbb 5e88 673c 1208 3bbc 8c2a 11be

encoder.egnn.layers.0.edge_mlp.2.weight f4 [32, 32]
-0.07851395 -0.12529357 -0.039391562 0.068031535 0.15628242 -0.01692735 0.106500104 -0.111590646
0.20086212 0.040349677 -0.026742846 -0.111035675 -0.011458403 0.20535454 0.152644 -0.116260484
0.20150279 0.03435427 0.0831907 0.21191406 -0.087016426 0.15356725 0.1965825 -0.19361804
-0.084491104 -0.017586602 -0.1854601 -0.03512783 0.19960476 0.12135464 0.080686525 -0.07286157
0.05327929 -0.037497405 -0.19746129 -0.03738486 -0.025374878 0.0076957867 -0.06606251 0.03496274
-0.077771485 0.098159075 -0.06618856 -0.063243836 0.09238691 0.1369614 -0.13994652 0.062752336
-0.08663087 0.012222335 0.13055913 -0.12363836 0.12603548 0.18787113 0.07749021 -0.015118179
-0.17240378 -0.051388014 -0.15188716 0.12622425 0.05792574 0.11905717 0.23420867 0.048915926
0.11416236 -0.006102266 -0.15135844 0.10125402 -0.15482536 -0.06077192 -0.062405206 0.1891587
-0.16778275 -0.14195238 0.12973097 -0.0022363507 0.027195767 0.072315805 -0.053483296 0.12866773
-0.1591054 -0.11737569 -0.13221599 -0.24889554 0.14567742 -0.058764618 0.15154567 0.14593805
-0.057934783 -0.13577586 -0.16112234 0.012127382 -0.03321437 0.10228236 0.10536257 -0.0931679
0.06420995 -0.06789007 -0.05035399 -0.057218473 0.07810447 0.107412666 0.14432067 0.15558599
-0.2037612 -0.060185667 0.19275345 0.2158001 -0.23205514 -0.104838446 -0.13157278 -0.0136560695
0.06528996 -0.2143973 -0.09412897 0.05901512 0.20098864 0.14965853 -0.07396537 -0.022888334
-0.025680032 -0.044638667 -0.09432911 -0.0063523 -0.19733267 0.10290821 0.22239597 -0.011236847
-0.07371839 -0.11464167 0.0875363 -0.13880326 -0.009901078 -0.07793123 -0.104744524 0.0683773
0.09264296 0.10058016 0.03944268 -0.0058626733 -0.22679694 0.0013902272 -0.015970277 -0.11863818
-0.13995785 -0.25765795 0.010602961 -0.21961406 0.18289919 -0.170022 0.27813205 0.027868215
-0.06160865 0.0757449 -0.24367873 -0.0036641418 0.14555286 0.03532831 0.25884965 -0.21592444
0.14011283 0.15450647 -0.030969955 -0.13668299 -0.04108274 0.06893317 -0.09302202 0.05931577
-0.0152830845 -0.078161694 -0.035505343 -0.14016142 0.07955416 -0.16952094 0.115225725 -0.17682728
-0.14207767 -0.16582547 0.18224512 -0.24800012 0.09876599 0.19841568 -0.1260075 0.102792926
-0.19298053 -0.07629452 0.028334457 -0.15264992 0.15507291 0.07710653 0.24537937 0.02591859
-0.014407527 -0.01668561 0.20751302 0.23718232 -0.08685827 0.09755985 0.09733028 -0.16240938
0.08313946 0.20492065 0.1313059 0.08973883 0.013461581 0.0015103922 -0.05607985 -0.02527157
0.073237896 -0.014475362 0.025680391 0.042326156 0.01297093 -0.10626341 -0.019123154 -0.15997551
0.13911144 0.09293958 -0.17806593 -0.12348404 0.011962957 -0.010299248 0.08101975 0.0725293
0.02274352 -0.1544601 0.025691707 0.15790534 0.09543474 -0.12744041 -0.044737853 0.02367411
-0.08952906 0.035929397 -0.02032477 -0.21186484 0.04654251 -0.08845603 -0.12220732 0.13210747
-0.14415947 0.15047467 -0.13243216 0.09587831 -0.2513504 0.054148853 0.11389273 -0.15895411
0.2155367 0.14807571 -0.07280789 -0.09384875 0.001684752 -0.08963803 -0.12943935 -0.16989732
00000000: eccb a0bd f54c 00be 0c59 21bd 1e54 8b3d
00000010: 8008 203e 3aab 8abc ba1c da3d a389 e4bd
00000020: cdae 4d3e b445 253d d013 dbbc ac66 e3bd
00000030: 07bc 3bbc 7648 523e b54e 1c3e fa19 eebd
00000040: bf56 4e3e 10b7 0c3d e35f aa3d 0000 593e
00000050: ab35 b2bd bc40 1d3e ec4c 493e cf43 46be
00000060: ac09 adbd c711 90bc 41e9 3dbe 33e2 0fbd
00000070: 3165 4c3e c888 f83d fa3e a53d 7238 95bd
00000080: 633b 5a3d e196 19bd 4b33 4abe de20 19bd
00000090: fade cfbc f02c fc3b c84b 87bd 1735 0f3d
000000a0: a846 9fbd a007 c93d de8d 87bd fc85 81bd
000000b0: 5935 bd3d 9c3f 0c3e 244e 0fbe 4c84 803d
000000c0: 876b b1bd 3040 483c 4bb1 053e 1c36 fdbd
000000d0: 720f 013e 4a61 403e 30b3 9e3d 3db2 77bc
000000e0: 9e8a 30be 3d7c 52bd 4f88 1bbe ee40 013e
000000f0: 8a43 6d3d 3fd4 f33d 66d4 6f3e 115c 483d
00000100: f5cd e93d 84f5 c7bb b5fd 1abe 455e cf3d
00000110: 8a8a 1ebe faeb 78bd 9a9c 7fbd d1b2 413e
00000120: 3ecf 2bbe f75b 11be 32d8 043e bd8f 12bb
00000130: a8c9 de3c 4f1a 943d 4d11 5bbd 79c1 033e
00000140: 87ec 22be aa62 f0bd a163 07be 79de 7ebe
00000150: 762c 153e 2bb3 70bd ca2e 1b3e c970 153e
00000160: 064d 6dbd d408 0bbe 41fd 24be edb1 463c
00000170: cb0b 08bd 6a79 d13d 55c8 d73d d0ce bebd
00000180: 8280 833d f309 8bbd fc3f 4ebd eb5d 6abd
00000190: 3df5 9f3d 2cfb db3d ccc8 133e ef51 1f3e
000001a0: c7a6 50be 3f85 76bd 2961 453e b4fa 5c3e
000001b0: dd9f 6dbe 8ab5 d6bd 04bb 06be b5bd 5fbc
000001c0: beb6 853d f78a 5bbe b0c6 c0bd d7b9 713d
000001d0: f7cf 4d3e 1640 193e 287b 97bd 5180 bbbc
000001e0: ee5e d2bc 09d7 36bd 9f2f c1bd f426 d0bb
000001f0: 9311 4abe 8ac1 d23d c5bb 633e c11a 38bc
00000200: abf9 96bd 40c9 eabd 3b46 b33d 7122 0ebe
00000210: 2238 22bc 699a 9fbd 4c84 d6bd 6609 8c3d
00000220: 98bb bd3d f9fc cd3d a68e 213d ab1b c0bb
00000230: 753d 68be 4938 b63a 19d4 82bc 93f8 f2bd
00000240: 1c51 0fbe beeb 83be 0bb8 2d3c 82e2 60be
00000250: ed49 3b3e 3f1a 2ebe 5367 8e3e e24b e43c
00000260: 5a59 7cbd 2420 9b3d eb86 79be 1922 70bb
00000270: cf0b 153e 6bb4 103d f187 843e 4c1b 5dbe
00000280: bd79 0f3e f236 1e3e b4b4 fdbc a0f6 0bbe
00000290: 6046 28bd d52c 8d3d 5482 bebd 18f5 723d
000002a0: e765 7abc 3d13 a0bd 0d6e 11bd 7a86 0fbe
000002b0: 4bed a23d e696 2dbe 77fb eb3d 3612 35be
000002c0: cf7c 11be 27ce 29be 779e 3a3e bef3 7dbe
000002d0: d345 ca3d 7b2d 4b3e 1c08 01be 1985 d23d
000002e0: b09c 45be 4d40 9cbd aa1d e83c 4350 1cbe
000002f0: 6fcb 1e3e 07ea 9d3d bb44 7b3e 3953 d43c
00000300: 8c0d 6cbc 43b0 88bc 4b7e 543e ecdf 723e
00000310: c0e2 b1bd 75cd c73d 1955 c73d a54e 26be
00000320: 0545 aa3d b8d6 513e 0e75 063e fec8 b73d
00000330: f78d 5c3c 5af8 c53a fcb3 65bd 5306 cfbc
00000340: c0fd 953d 122a 6dbc af5f d23c 315e 2d3d
00000350: 0684 543c a1a0 d9bd 29a8 9cbc 9fd0 23be
00000360: 3b73 0e3e 1b57 be3d ea56 36be 33e5 fcbd
00000370: 4700 443c 2dbe 28bc afed a53d 3e8a 943d
00000380: 9e50 ba3c ca2a 1ebe 6a77 d23c f0b1 213e
00000390: 4a73 c33d bd7f 02be 0a3f 37bd 35f0 c13c
000003a0: 035b b7bd b42a 133d 2280 a6bc 19f3 58be
000003b0: 5ca3 3e3d 6f28 b5bd d547 fabd 2e47 073e
000003c0: 8a9e 13be 0816 1a3e 4c9c 07be d95b c43d
000003d0: 00b1 80be 30cb 5d3d 9740 e93d dec4 22be
000003e0: a7b5 5c3e 29a1 173e 4e1c 95bd c633 c0bd
000003f0: e5d2 dc3a 2594 b7bd c08b 04be 90f9 2dbe

encoder.egnn.layers.0.edge_mlp.2.bias f4 [32]
0.0038671903 0.17671214 0.059271026 0.1384677 -0.17922525 0.1449086 0.113892466 0.13420868
0.09065038 0.09330677 0.15088063 -0.021292835 -0.06516958 -0.24673383 0.01610014 0.009270363
0.085481815 0.14084968 0.16354658 0.022503577 0.086450875 0.053201046 -0.011539101 0.0025711714
-0.037399855 -0.10251619 0.1449116 -0.09433121 -0.1538846 0.1415522 0.039635606 -0.123681255
00000000: b070 7d3b 07f4 343e 2dc6 723d 7aca 0d3e
00000010: d386 37be ec62 143e 7440 e93d 006e 093e
00000020: e8a6 b93d 9f17 bf3d 7480 1a3e 506e aebc
00000030: a177 85bd cba7 7cbe 71e4 833c b8e2 173c
00000040: 1711 af3d e63a 103e c178 273e 6c59 b83c
00000050: 280d b13d 57e9 593d 7f0e 3dbc 1981 283b
00000060: 9730 19bd 02f4 d1bd b563 143e b930 c1bd
00000070: ed93 1dbe 0ff3 103e f258 223d 994c fdbd

encoder.egnn.layers.0.node_mlp.0.weight f4 [32, 48]
0.15406433 0.13184394 -0.14153868 0.064030364 -0.21037415 -0.10342388 0.055793058 -0.037497282
0.0476041 -0.05721805 -0.118872 -0.004011817 0.04770193 -0.042251166 -0.0036934621 -0.117022045
-0.087091655 0.108791985 0.027032778 0.2164602 -0.07587004 -0.17545362 0.08963715 -0.05027618
-0.0019721685 0.098984644 -0.14650838 -0.09855937 -0.11719042 -0.05297704 -0.10086579 0.0026357253
0.037188314 -0.13776584 0.017912414 -0.0069400645 0.1373076 0.020384075 0.0017736312 0.20251024
-0.027183289 -0.017333413 0.032743 0.031185968 0.069354355 -0.0057447865 0.03395892 0.0033493866
-0.022140639 0.06154687 -0.040416256 0.22960229 -0.06937672 -0.09462146 0.085440986 0.08455368
0.17473465 -0.05628117 0.025579177 -0.07318316 -0.089628614 -0.05083124 -0.049009185 0.14712341
-0.048636276 -0.20614147 -8.851758e-05 -0.07171694 -0.18550783 -0.14075083 -0.17391737 0.088287525
0.013030576 -0.13381104 0.0969772 0.03589588 0.08179815 0.11227836 0.036088567 -0.15881287
0.1318769 -0.03427511 0.09575068 0.044903357 -0.2631409 0.056234058 -0.07344704 -0.18935902
0.14439973 0.07015091 0.07402481 -0.18300919 0.20816912 -0.12693892 0.13341978 -0.060353186
-0.025056586 -0.21021998 -0.080503516 -0.0011062265 -0.20891884 -0.033562634 -0.11429397 -0.07849744
-0.09713615 -0.058651797 -0.10695278 -0.13046345 -0.040860787 -0.13819565 -0.213641 -0.0064873793
-0.021569835 -0.06197534 -0.041608524 0.015577963 0.12488111 0.0196762 -0.0070003173 -0.031066634
-0.050774608 -0.07037601 -0.10618101 -0.09698373 0.05294865 0.12472195 0.10051657 -0.10892268
-0.084371634 -0.15715337 -0.07344184 0.04801288 -0.028403869 -0.14034683 -0.054308873 -0.07314771
0.029762043 0.12683374 -0.013627808 0.1037024 -0.014620856 -0.073476136 -0.08735868 0.06011551
-0.076163754 -0.026456209 -0.11356291 0.13940187 -0.19669408 0.07839241 -0.086443745 0.0004125729
-0.14761518 -0.015352577 -0.0042225313 -0.16924804 -0.030528395 -0.19514455 -0.12061912 -0.09502596
0.05506546 0.30263543 0.11653494 0.07865181 0.11194462 0.09607329 0.06089697 0.026048362
0.075187445 0.21953759 0.11437511 0.11438698 -0.071297646 -0.21393296 0.01627551 -0.16432627
0.032533903 0.1590769 0.07744761 0.0011329358 0.016233785 -0.16150133 0.1062521 0.039729808
-0.04732018 0.09740672 0.16458322 -0.12231286 -0.09533906 0.095397666 -0.08127094 -0.16512145
0.08065564 -0.05317629 -0.052426945 -0.012297518 -0.17773318 -0.035064854 0.12104326 0.009581633
-0.12457641 -0.09032831 0.10504525 -0.08860044 0.1195686 -0.023130352 -0.08593511 0.03153213
-0.02130026 -0.06523251 -0.17148335 0.023428218 0.03921619 0.09432429 0.03834051 0.07172292
0.028205408 0.0443927 -0.06797642 -0.007049917 -0.10645328 -0.06342402 0.06635445 -0.15739505
-0.0021736587 -0.060589362 0.027198 -0.14589277 -0.18718016 0.02563182 0.15241946 -0.014740637
0.038878042 -0.12202042 0.060261067 -0.041841354 -0.05214473 -0.016373146 -0.019977577 -0.0053579165
0.079557545 0.052167766 -0.19485809 0.088394664 -0.15908425 -0.08067606 0.042231772 0.032675665
0.12987944 -0.02779796 -0.03245755 -0.081640765 0.15169157 0.016896535 -0.1789717 -0.07740525
00000000: 0ac3 1d3e 1902 073e 84ef 10be 5a22 833d
00000010: 526c 57be e6cf d3bd 4387 643d c096 19bd
00000020: 84fc 423d 795d 6abd 2a73 f3bd 8f75 83bb
00000030: 1963 433d 8f0f 2dbd 030e 72bb 41a9 efbd
00000040: 1c5d b2bd 55ce de3d d873 dd3c bea7 5d3e
00000050: c061 9bbd 1daa 33be af93 b73d 65ee 4dbd
00000060: 7f3f 01bb 76b8 ca3d 4b06 16be 7fd9 c9bd
00000070: 8801 f0bd 74fe 58bd b992 cebd 22bc 2c3b
00000080: c652 183d 7d12 0dbe 0ebd 923c 7b69 e3bb
00000090: 5d9a 0c3e 81fc a63c 3079 e83a d85e 4f3e
000000a0: 7daf debc cdfe 8dbc 861d 063d b779 ff3c
000000b0: a809 8e3d c33e bcbb 8218 0b3d 6281 5b3b
000000c0: 4960 b5bc 9218 7c3d 848b 25bd dd1c 6b3e
000000d0: 6215 8ebd e5c8 c1bd affb ae3d 7b2a ad3d
000000e0: a4ed 323e 1687 66bd 6c8b d13c 0de1 95bd
000000f0: 358f b7bd 6b34 50bd dbbd 48bd 85a7 163e
00000100: d536 47bd c016 53be 84a2 b9b8 55e0 92bd
00000110: c4f5 3dbe fc20 10be 6517 32be 17d0 b43d
00000120: 327e 553c c305 09be fb9b c63d 8f07 133d
00000130: ca85 a73d 32f2 e53d 9bd1 133d d79f 22be
00000140: bd0a 073e 0f64 0cbd ef18 c43d 95ec 373d
00000150: 67ba 86be af55 663d 676b 96bd 55e7 41be
00000160: 86dd 133e 48ab 8f3d 529a 973d c366 3bbe
00000170: 492a 553e 47fc 01be 329f 083e e734 77bd
00000180: 7843 cdbc e843 57be 07df a4bd cdfe 90ba
00000190: d2ee 55be f978 09bd f512 eabd 44c3 a0bd
000001a0: 51ef c6bd de3c 70bd 0f0a dbbd 3698 05be
000001b0: a45d 27bd 2983 0dbe b5c4 5abe 1594 d4bb
000001c0: 39b3 b0bc dbd9 7dbd b36d 2abd b63a 7f3c
000001d0: abc1 ff3d fb2f a13c eb62 e5bb 747f febc
000001e0: 09f9 4fbd 4c21 90bd 6e75 d9bd 689f c6bd
000001f0: afe0 583d 396e ff3d a2db cd3d db12 dfbd
00000200: 09cb acbd d0ec 20be ad68 96bd 27a9 443d
00000210: 3baf e8bc 14b7 0fbe fb72 5ebd 77ce 95bd
00000220: 87cf f33c b4e0 013e 2b47 5fbc ed61 d43d
00000230: 518c 6fbc a87a 96bd 1ce9 b2bd ae3b 763d
00000240: befb 9bbd b1ba d8bc ac93 e8bd 5dbf 0e3e
00000250: 2c6a 49be 338c a03d 6b09 b1bd 994e d839
00000260: 6f28 17be 6089 7bbc 295d 8abb 5c4f 2dbe
00000270: af16 fabc f9d3 47be 2807 f7bd f89c c2bd
00000280: 528c 613d 08f3 9a3e dfa9 ee3d 3314 a13d
00000290: 3943 e53d 13c2 c43d 1a6f 793d 6063 d53c
000002a0: e0fb 993d 76ce 603e 7f3d ea3d b943 ea3d
000002b0: 8004 92bd 3e11 5bbe 3854 853c 2545 28be
000002c0: 4542 053d 0ee5 223e da9c 9e3d 047f 943a
000002d0: b7fc 843c 9b60 25be b39a d93d b9bb 223d
000002e0: ced2 41bd 2d7d c73d 8188 283e 2a7f fabd
000002f0: 2041 c3bd da5f c33d 6171 a6bd 9915 29be
00000300: c92e a53d 62cf 59bd a3bd 56bd 877b 49bc
00000310: b0ff 35be 2aa0 0fbd 87e5 f73d 48fc 1c3c
00000320: eb21 ffbd 0dfe b8bd f721 d73d 2674 b5bd
00000330: 62e0 f43d dd7b bdbc bffe afbd d627 013d
00000340: e27d aebc 9f98 85bd 5599 2fbe 89ec bf3c
00000350: 28a1 203d 182d c13d f00a 1d3d 77e3 923d
00000360: 070f e73c 1fd5 353d 3937 8bbd fd02 e7bb
00000370: 2d04 dabd 74e4 81bd d8e4 873d 2b2c 21be
00000380: f173 0ebb 8d2c 78bd 57ce de3c ea64 15be
00000390: 28ac 3fbe d3f9 d13c d913 1c3e b682 71bc
000003a0: 953e 1f3d d8e5 f9bd 4fd4 763d d761 2bbd
000003b0: b695 55bd fa20 86bc 04a8 a3bc 7691 afbb
000003c0: 11ef a23d dead 553d e188 47be 4308 b53d
000003d0: fbe6 22be 7d39 a5bd 39fb 2c3d ebd6 053d
000003e0: 1eff 043e 8cb8 e3bc 35f2 04bd 4633 a7bd
000003f0: 0955 1b3e 9a6a 8a3c 5b44 37be a586 9ebd

encoder.egnn.layers.0.node_mlp.0.bias f4 [32]
-0.007890845 0.18719248 -0.10427258 0.040161658 0.07490076 0.08723351 -0.07038247 0.16406648
-0.025558274 -0.027552841 -0.099342614 0.030980963 -0.008418445 0.08727299 -0.049291 0.22772604
0.16282219 -0.1329198 0.0044870577 -0.02736574 -0.13471842 -0.053022474 -0.07854626 -0.06722408
0.088443406 -0.015135288 -0.05378431 -0.12667556 0.011446632 -0.047787227 -0.12130481 0.00015224903
00000000: 9a48 01bc 63af 3f3e dd8c d5bd 8d80 243d
00000010: 9265 993d 7ca7 b23d af24 90bd 0b01 283e
00000020: 965f d1bc 7fb6 e1bc 2474 cbbd cacb fd3c
00000030: 84ed 09bc 2ebc b23d 5ce5 49bd 0431 693e
00000040: dcba 263e 211c 08be 2b08 933b 1e2e e0bc
00000050: a0f3 09be 182e 59bd dddc a0bd c7ac 89bd
00000060: d121 b53d 00fa 77bc f04c 5cbd 3db7 01be
00000070: a88a 3b3c 8abc 43bd a86e f8bd 0aa5 1f39

encoder.egnn.layers.0.node_mlp.2.weight f4 [16, 32]
0.009010067 0.056836575 -0.08110455 -0.13371307 0.07045692 -0.08793123 0.09478388 -0.033820774
-0.15495183 0.040349502 0.08886543 -0.043704823 0.007392105 -0.09732282 0.19938909 0.23354697
-0.13018472 0.15678187 -0.009441419 0.05160666 0.11101248 0.066437155 -0.14117837 -0.060302366
-0.022300009 -0.18525782 0.05797004 0.19656546 -0.12781523 0.1739531 -0.11679273 -0.12651204
-0.10086283 -0.19543786 0.06597209 -0.14293776 -0.1231213 0.05136971 -0.036671568 -0.06713975
-0.08947079 -0.1288863 -0.17583542 0.02449696 -0.16669513 0.111489885 0.07951724 0.0014170604
0.072148256 0.036570687 0.032487668 0.1386056 0.09515742 0.14418526 0.041191585 0.054179743
0.026153313 -0.13166744 -0.05717255 -0.048436232 0.03138026 0.19562867 0.24247286 -0.014246211
-0.12160389 -0.06031706 -0.124496624 -0.18154277 -0.06158572 0.06540717 -0.017057933 -0.13964643
-0.23362848 -0.13827938 0.13811946 0.07388328 0.11471349 -0.20156628 -0.0038804512 -0.070966706
-0.124250926 0.19456485 0.15912767 0.015054235 -0.050927512 0.02908684 -0.1009358 0.005185462
-0.1858131 -0.028632874 0.018208588 0.05920662 -0.07425338 -0.15038335 0.090269834 0.15130986
0.024503736 0.19189626 0.14514467 0.0498977 0.09866726 0.10802393 0.23666589 0.15047202
-0.007269264 0.00022816278 0.13929603 0.07854932 -0.1455296 0.15809284 -0.0012863792 -0.1472172
0.07011222 -0.003546218 -0.007314724 0.16575272 -0.14119591 0.16824986 -0.09281143 0.052628517
0.16508316 -0.051215705 0.077404305 0.1442265 0.03889977 -0.15368213 0.1531935 0.13752925
-0.05615316 -0.14714381 -0.05167013 -0.14799052 -0.014366473 0.08830892 -0.1997627 0.13063996
0.009832197 -0.09026411 0.16366409 0.16519149 0.018114278 0.17773968 0.0941767 -0.007412342
-0.015707372 -0.1194915 0.17043225 0.105484165 -0.09312156 0.10262751 -0.0011012058 -0.13170427
0.06675941 0.08633489 -0.14477038 0.11798017 -0.053056642 -0.0381071 -0.06698309 -0.014548585
0.2552616 -0.11428438 -0.1945444 -0.057928644 -0.011186042 -0.0005072712 -0.19510113 -0.2057973
-0.056792334 0.12308202 -0.09646093 0.12681958 0.091380194 -0.23564662 -0.012723066 -0.085107125
0.049974926 -0.04614245 0.057774145 0.007765292 0.078002684 0.2230505 0.19740985 0.066312894
-0.15511112 -0.11624422 0.21264069 0.16778995 0.15536396 -0.008180184 -0.14057538 -0.1358157
0.097338274 0.16131675 -0.010838937 -0.053508226 -0.057591293 0.21552064 -0.010526823 0.050379656
-0.08903884 0.08259507 0.041869003 0.07407188 -0.10131478 0.050302688 0.2335954 0.009510664
-0.094186455 -0.027320115 -0.26786628 0.11181174 -0.12635362 -0.14162327 -0.08030237 -0.17460938
0.23867835 0.027260995 -0.044361107 -0.17635697 -0.15798113 0.06388914 0.13118091 0.1671833
0.0867916 -0.0017807054 -0.043141257 0.115078114 -0.043991346 0.18816042 -0.016005987 -0.08454045
0.22353715 0.057131935 -0.10320461 0.12607725 0.00020038185 0.06573432 -0.07089198 -0.159363
0.02726943 0.0009325748 0.08491488 0.0042109494 0.08486326 -0.11713226 0.1292051 0.07991202
0.08509995 -0.09072328 -0.070967585 -0.09048994 0.179573 0.1320115 -0.05679068 0.041981127
00000000: f69e 133c 78cd 683d 241a a6bd 14ec 08be
00000010: b84b 903d 4a15 b4bd 0d1e c23d a787 0abd
00000020: b1ab 1ebe 8545 253d 14ff b53d d403 33bd
00000030: 7939 f23b 3051 c7bd a72c 4c3e f026 6f3e
00000040: 254f 05be 6d8b 203e 2eb0 1abc 8161 533d
00000050: 835a e33d 3410 883d 1091 10be 9dff 76bd
00000060: 82ae b6bc 3ab4 3dbe fe71 6d3d 7548 493e
00000070: ffe1 02be c320 323e 0731 efbd 5f8c 01be
00000080: 2c91 cebd dd20 48be 601c 873d 475e 12be
00000090: 0527 fcbd 0c69 523d ed34 16bd 9180 89bd
000000a0: 763c b7bd c5fa 03be 330e 34be d9ad c83c
000000b0: 21b2 2abe cf54 e43d efd9 a23d a8bc b93a
000000c0: 77c2 933d 25cb 153d ca11 053d a0ee 0d3e
000000d0: e5e1 c23d 4da5 133e 82b8 283d 94eb 5d3d
000000e0: 793f d63c d4d3 06be c42d 6abd 1265 46bd
000000f0: 9688 003d e252 483e ce4a 783e f168 69bc
00000100: 760b f9bd 060f 77bd 16f8 febd 59e6 39be
00000110: 4f41 7cbd 32f4 853d 14bd 8bbc 79ff 0ebe
00000120: 4e3c 6fbe 1c99 0dbe 306f 0d3e 1e50 973d
00000130: e8ee ea3d 6467 4ebe 2b4f 7ebb fe56 91bd
00000140: 4577 febd 023c 473e 5df2 223e 0aa6 763c
00000150: 5e99 50bd 8647 ee3c 6eb7 cebd cfea a93b
00000160: ca45 3ebe 7d8f eabc 2d2a 953c a482 723d
00000170: 2812 98bd 18fe 19be 64df b83d f9f0 1a3e
00000180: 0fbc c83c 7480 443e cea0 143e 8861 4c3d
00000190: 0f12 ca3d a63b dd3d 8b58 723e 5615 1a3e
000001a0: 0233 eebb fb3e 6f39 9ea3 0e3e 77de a03d
000001b0: b605 15be 17e3 213e b99b a8ba 1bc0 16be
000001c0: ff96 8f3d aa67 68bb 5ab0 efbb 15bb 293e
000001d0: a995 10be b149 2c3e eb13 bebd 0091 573d
000001e0: 8f0b 293e 8fc7 51bd 2686 9e3d 1db0 133e
000001f0: 5d55 1f3d d95e 1dbe c2de 1c3e 78d4 0c3e
00000200: db00 66bd deac 16be 0fa4 53bd d48a 17be
00000210: 5b61 6bbc 4fdb b43d 988e 4cbe 7bc6 053e
00000220: 3917 213c 64dc b8bd 8f97 273e f527 293e
00000230: 6564 943c 6401 363e b7df c03d 3be3 f2bb
00000240: bfac 80bc f6b7 f4bd cb85 2e3e 1508 d83d
00000250: 84b6 bebd 5f2e d23d 5656 90ba 7cdd 06be
00000260: 28b9 883d 59d0 b03d b03e 14be 969f f13d
00000270: ec51 59bd 3116 1cbd 6e2e 89bd 305d 6ebc
00000280: a6b1 823e ee0d eabd a636 47be 9646 6dbd
00000290: a945 37bc 65fa 04ba 97c8 47be 87bc 52be
000002a0: 149f 68bd 6d12 fc3d 4f8d c5bd fedc 013e
000002b0: 8a25 bb3d 594d 71be 6874 50bc a54c aebd
000002c0: 82b2 4c3d deff 3cbd 95a4 6c3d fe73 fe3b
000002d0: dfbf 9f3d 5a67 643e cf25 4a3e 0ecf 873d
000002e0: 73d5 1ebe 7311 eebd 7bbe 593e 21d1 2b3e
000002f0: bb17 1f3e 2e06 06bc fef2 0fbe 4513 0bbe
00000300: 4a59 c73d 3830 253e cc95 31bc 712b 5bbd
00000310: d9e4 6bbd 71b1 5c3e b278 2cbc e65a 4e3d
00000320: ff59 b6bd 9b27 a93d d57e 2b3d ffb2 973d
00000330: 207e cfbd 310a 4e3d a233 6f3e 9ed2 1b3c
00000340: d4e4 c0bd 6fce dfbc c525 89be 8efd e43d
00000350: d862 01be b105 11be 9275 a4bd cdcc 32be
00000360: 1968 743e 7352 df3c feb3 35bd ec96 34be
00000370: cec5 21be 4fd8 823d 4a54 063e 1932 2b3e
00000380: cbbf b13d 8f66 e9ba e3b4 30bd 13ae eb3d
00000390: 4530 34bd 20ad 403e fd1e 83bc 8b23 adbd
000003a0: ece6 643e 2d03 6a3d f05c d3bd 651a 013e
000003b0: 981d 5239 b79f 863d d02f 91bd 0e30 23be
000003c0: 2464 df3c 0978 743a dae7 ad3d 01fc 893b
000003d0: cacc ad3d 0ae3 efbd 574e 043e eaa8 a33d
000003e0: e248 ae3d 21cd b9bd 7457 91bd ca52 b9bd
000003f0: fce1 373e 062e 073e 589d 68bd 67f4 2b3d

encoder.egnn.layers.0.node_mlp.2.bias f4 [16]
2.9089636e-06 1.9065378e-06 8.2282423e-07 -5.3063177e-06 2.5247514e-06 3.2798407e-06 -1.400736e-06 -1.396042e-06
-1.8022145e-06 -6.018282e-06 -2.0162965e-06 1.8947171e-08 2.3860655e-06 -1.8422271e-06 -2.1132018e-06 -5.9390304e-06
00000000: 9d37 4336 24e4 ff35 0de0 5c35 ec0c b2b6
00000010: e66e 2936 3c1b 5c36 ec00 bcb5 a35f bbb5
00000020: 9ee3 f1b5 a6f0 c9b6 b64f 07b6 45c1 a232
00000030: 4b20 2036 7142 f7b5 88d0 0db6 e247 c7b6

encoder.egnn.layers.0.coord_mlp.0.weight f4 [32, 32]
0.17143641 -0.12278737 0.06099981 0.039930865 -0.03951938 -0.1950626 0.03227505 0.034621507
0.005071237 0.22192532 0.061492488 -0.17821881 -0.19764324 -0.009513187 -0.25916702 -0.15312096
-0.098449536 -0.047524814 -0.055385645 0.047064062 -0.29136124 0.060513478 -0.3100537 -0.15487386
0.038689956 -0.04149202 0.122824594 -0.2080405 0.16890743 0.17239699 0.13315605 -0.119060546
0.15663658 -0.044211324 0.0014281258 0.04167839 0.0871553 -0.18635038 0.029877793 0.22841857
0.06865165 0.10371358 -0.12580884 -0.25020757 -0.12225821 -0.0002512484 -0.30976352 -0.18951237
-0.022646284 0.0063448325 0.18228738 -0.12044634 -0.18048537 0.03801975 -0.3139174 -0.09808376
0.10195503 0.12049357 -0.09478129 -0.25351858 0.03443282 0.10491364 0.07205216 0.083999276
0.0621094 0.15771212 -0.12102671 0.16271622 -0.091452934 0.11960951 -0.113176726 -0.07380188
-0.07566827 -0.31942743 0.19711845 0.30379546 0.21117859 0.098435216 0.22528331 0.08130771
0.018279288 -0.08989677 0.0042838017 0.083687596 0.10127815 -0.010291304 0.37196094 0.21182303
-0.18596128 0.07684797 0.16232641 0.3182142 -0.22284798 0.01216233 -0.02735561 -0.08268628
0.10130611 -0.103762686 0.10291732 -0.0078110034 -0.1347077 -0.09200385 0.21145447 0.10037039
0.16221778 0.0313562 -0.0011122482 -0.34340143 -0.14061916 0.034234136 -0.20040204 -0.3934999
-0.26473838 -0.1548017 0.097954966 0.041979652 -0.31577086 0.13440143 -0.11619032 -0.30211246
-0.0763365 0.0022661868 0.16607387 -0.129546 0.1680219 0.124370456 0.108078316 0.06454843
0.06334522 -0.0395267 0.0047471626 0.23151739 0.11432624 0.14723559 -0.21724483 -0.16808961
-0.030662887 -0.2179444 0.056801632 0.14756714 0.112312116 -0.10502841 0.19205528 0.14689063
0.06424418 -0.05478324 -0.0029626994 -0.0070198867 0.22085983 -0.033392355 0.23207484 0.1833086
-0.11607023 -0.12597962 -0.008022021 0.22459738 -0.033361867 -0.07190833 -0.0515817 -0.061645936
0.0073910104 0.014847795 -0.061139353 -0.11079932 -0.027137814 -0.0019314999 0.062904894 0.12793723
0.11679212 0.08790291 0.007847005 -0.032311935 -0.058319844 -0.048721403 -0.08266755 -0.03831824
0.0035301358 -0.033819593 0.044314753 0.034643408 -0.15623076 0.034000214 -0.13205756 -0.013249377
0.05719493 0.07752065 -0.07578038 -0.1150084 0.14826305 0.119249515 0.018985849 -0.109959416
-0.0399869 -0.02723174 0.09477643 -0.01972872 0.055219173 0.09118509 -0.05279629 0.00034209827
-0.07154287 -0.021852933 0.067004085 0.09438351 0.049353175 -0.12259331 0.06576741 0.08781802
0.0057308855 0.060305774 0.005748006 0.021865493 0.046815295 -0.043806948 0.11171698 0.0036076154
-0.09311589 0.019222422 -0.03710555 0.052064355 0.033517987 -0.08791724 -0.035665978 0.07265837
0.15418641 0.04357541 -0.1929401 -0.16483127 0.12184983 1.7436882e-05 0.2404797 -0.02248999
-0.015017079 0.22331122 -0.1198192 -0.14656882 -0.15790787 -0.059098583 -0.29406995 -0.19537108
-0.09117876 -0.045017913 -0.07759821 -0.15020478 -0.24900906 0.12620443 -0.27616107 -0.017199602
0.10521053 -0.010405001 -0.11899073 -0.18275215 0.11669 0.06924587 0.1610515 -0.084869914
00000000: 078d 2f3e f277 fbbd f0da 793d 8c8e 233d
00000010: 13df 21bd 7dbe 47be d832 043d 48cf 0d3d
00000020: 9f2c a63b 6440 633e 8cdf 7b3d fe7e 36be
00000030: fd62 4abe 33dd 1bbc 8ab1 84be becb 1cbe
00000040: e99f c9bd 61a9 42bd 0fdc 62bd 3fc6 403d
00000050: 4d2d 95be fbdc 773d 5cbf 9ebe 4197 1ebe
00000060: 5c79 1e3d 89f3 29bd 768b fb3d 9208 55be
00000070: 12f6 2c3e d688 303e 0f5a 083e 04d6 f3bd
00000080: 5765 203e ef16 35bd f32f bb3a f6b6 2a3d
00000090: 7a7e b23d a2d2 3ebe 46c2 f43c 8fe6 693e
000000a0: 3c99 8c3d c967 d43d 08d4 00be 351b 80be
000000b0: 8362 fabd fdb9 83b9 5399 9ebe 880f 42be
000000c0: b384 b9bc 50e8 cf3b 8ba9 3a3e 92ac f6bd
000000d0: 28d1 38be 99ba 1b3d c8b9 a0be 23e0 c8bd
000000e0: cccd d03d 55c5 f63d b11c c2bd 30cd 81be
000000f0: 6e09 0d3d f6dc d63d 1590 933d d007 ac3d
00000100: 6d66 7e3d 497f 213e dadc f7bd 159f 263e
00000110: ad4b bbbd d5f5 f43d 33c9 e7bd 7125 97bd
00000120: f7f7 9abd fe8b a3be 6bd9 493e 148b 9b3e
00000130: 333f 583e 6798 c93d abb0 663e a884 a63d
00000140: 72be 953c cc1b b8bd 225f 8c3b 6764 ab3d
00000150: eb6a cf3d dc9c 28bc aa71 be3e 23e8 583e
00000160: a26c 3ebe 7862 9d3d e538 263e f9ec a23e
00000170: 4332 64be 8244 473c df18 e0bc 6d57 a9bd
00000180: 9479 cf3d 8881 d4bd 51c6 d23d 72f3 ffbb
00000190: d1f0 09be 846c bcbd 8587 583e fe8e cd3d
000001a0: 6b1c 263e 5c6f 003d dbc8 91ba 50d2 afbe
000001b0: 78fe 0fbe 1839 0c3d 3136 4dbe d278 c9be
000001c0: ca8b 87be 5684 1ebe 9d9c c83d dbf2 2b3d
000001d0: b8ac a1be 87a0 093e 31f5 edbd 7cae 9abe
000001e0: 5056 9cbd 4e84 143b 450f 2a3e b5a7 04be
000001f0: ef0d 2c3e f0b5 fe3d 2a58 dd3d f831 843d
00000200: 24bb 813d c0e6 21bd 168e 9b3b e512 6d3e
00000210: e023 ea3d edc4 163e 6e75 5ebe af1f 2cbe
00000220: bc30 fbbc d12c 5fbe d4a8 683d d71b 173e
00000230: e503 e63d 2319 d7bd 24aa 443e 7f6a 163e
00000240: 7492 833d 6464 60bd d929 42bb 1407 e6bb
00000250: 1429 623e 6cc6 08bd 07a5 6d3e 40b5 3b3e
00000260: 3bb6 edbd cd00 01be cb6e 03bc dbfc 653e
00000270: 74a6 08bd ad44 93bd 5547 53bd 7380 7cbd
00000280: 4a30 f23b 2a44 733c 426d 7abd c1ea e2bd
00000290: 1f50 debc 622a fdba 48d4 803d fa01 033e
000002a0: b530 ef3d 7106 b43d b990 003c 8559 04bd
000002b0: cae0 6ebd 1890 47bd 9b4d a9bd 96f3 1cbd
000002c0: da59 673b 6a86 0abd 6383 353d 3fe6 0d3d
000002d0: f5fa 1fbe cf43 0b3d 193a 07be ea13 59bc
000002e0: 3b45 6a3d 26c3 9e3d be32 9bbd 8689 ebbd
000002f0: 45d2 173e 1739 f43d 3688 9b3c 6732 e1bd
00000300: 4ec9 23bd 1915 dfbc 251a c23d 209e a1bc
00000310: 802d 623d 40bf ba3d ec40 58bd a75b b339
00000320: 1185 92bd ec04 b3bc 7039 893d 244c c13d
00000330: 8e26 4a3d 3412 fbbd 10b1 863d efd9 b33d
00000340: 27ca bb3b 3003 773d c559 bc3b 431f b33c
00000350: 65c1 3f3d ea6e 33bd dfcb e43d be6d 6c3b
00000360: 8bb3 bebd 5778 9d3c fdfb 17bd 6f41 553d
00000370: 284a 093d f40d b4bd 7d16 12bd e9cd 943d
00000380: 0be3 1d3e 217c 323d 1792 45be 87c9 28be
00000390: 678c f93d 6b45 9237 4f40 763e ed3c b8bc
000003a0: 320a 76bc b2ab 643e c563 f5bd 2316 16be
000003b0: 9ab2 21be 5b11 72bd 5690 96be 5b0f 48be
000003c0: eebb babd b464 38bd cfeb 9ebd 48cf 19be
000003d0: 3bfc 7ebe bc3b 013e fc64 8dbe 2ee6 8cbc
000003e0: 9e78 d73d bd79 2abc 69b1 f3bd 6123 3bbe
000003f0: 2bfb ee3d c7d0 8d3d afea 243e 47d0 adbd

encoder.egnn.layers.0.coord_mlp.0.bias f4 [32]
-0.029699557 0.0110636065 -0.04859681 -0.049208887 -0.035657488 0.16274738 -0.16089535 0.119458735
0.073579535 0.12831533 0.14898796 -0.10206667 0.092107736 -0.062359303 -0.096110836 -0.12538972
-0.013246223 -0.03129366 -0.06324906 -0.042623654 -0.028047528 -0.0036029841 0.13074172 0.11297319
-0.10101969 0.023593219 -0.044054314 0.04507989 -0.07355234 0.16677767 0.04125779 0.072179794
00000000: 7c4c f3bc 2144 353c 730d 47bd 428f 49bd
00000010: 960d 12bd 40a7 263e c0c1 24be c8a6 f43d
00000020: deb0 963d 1865 033e 4d90 183e 5508 d1bd
00000030: fba2 bc3d 786c 7fbd c2d5 c4bd 2a66 00be
00000040: b006 59bc c82d 00bd b988 81bd 2496 2ebd
00000050: eec3 e5bc 0b20 6cbb 28e1 053e 7d5e e73d
00000060: 69e3 cebd 9146 c13c 4c72 34bd b1a5 383d
00000070: 9ca2 96bd c4c7 2a3e eefd 283d 00d3 933d

encoder.egnn.layers.0.coord_mlp.2.weight f4 [1, 32]
-0.20367594 -0.2810751 0.23112808 -0.19825843 0.15343873 -0.040628728 0.037452884 -0.3063725
0.06023075 -0.15541466 -0.19877632 -0.02526354 -0.08033265 0.13613446 0.10988341 0.09425535
-0.06446313 -0.15102695 -0.028821442 0.15883492 0.16020283 0.14104414 -0.08592874 -0.15689091
0.25558499 0.089622006 -0.076642804 -0.0656687 -0.0540695 -0.09071385 -0.14425974 -0.1460998
00000000: 6d90 50be 13e9 8fbe d7ac 6c3e 4204 4bbe
00000010: 0b1f 1d3e 4f6a 26bd 3268 193d dbdc 9cbe
00000020: 85b4 763d 0525 1fbe 058c 4bbe 7cf5 cebc
00000030: 7285 a4bd d566 0b3e 8e0a e13d f308 c13d
00000040: 3f05 84bd cfa6 1abe f21a ecbc 9fa5 223e
00000050: 360c 243e e06d 103e 68fb afbd 03a8 20be
00000060: 09dc 823e be8b b73d e7f6 9cbd 507d 86bd
00000070: fb77 5dbd 2fc8 b9bd d3b8 13be 309b 15be

exp_avg f4 [32, 33]
-6.10051e-06 1.5807076e-06 -1.4282611e-05 -2.1092721e-05 -1.8605482e-05 6.5475026e-05 -0.000117928896 -1.9543202e-06
-1.8339726e-05 -4.3733864e-05 1.6509439e-05 -4.1742333e-05 -5.4157717e-05 -1.8302411e-05 -2.6176251e-06 5.0989945e-07
-1.2993277e-05 -1.1302465e-05 -1.3552598e-05 -3.6987818e-05 -6.180723e-06 4.323192e-05 -7.217399e-05 -6.7466485e-06
-1.37154775e-05 -2.6969128e-05 1.6949602e-06 -2.7895392e-05 -1.9614261e-05 -1.2416123e-05 -1.7780949e-05 5.6525994e-07
-5.3604537e-05 3.3208905e-06 -5.813716e-05 -4.1857093e-05 -2.2600563e-05 -2.8167178e-05 4.4819917e-05 -1.0415085e-05
-1.8112129e-05 -1.5895525e-06 -1.8174787e-05 -6.8740464e-06 -3.138478e-05 1.7230697e-06 -4.8053593e-05 -8.194757e-05
-1.8507819e-05 -4.1947746e-06 -2.7618382e-05 -2.012745e-05 -2.662715e-05 -3.6823338e-05 -1.413065e-05 -6.2232425e-06
-1.49882935e-05 1.3164585e-06 -1.4556926e-05 -1.5623436e-05 -1.0530969e-05 8.849346e-06 -2.3523267e-05 -4.5135093e-05
-2.3862076e-05 -5.0605922e-05 4.0076306e-05 -4.545348e-05 -8.1973216e-05 2.8178594e-05 -6.7560104e-05 9.97311e-05
-3.0165182e-05 1.8886923e-05 4.0278235e-05 -8.165709e-05 3.02625e-05 5.621481e-06 3.922108e-05 -3.275211e-05
-9.3819035e-05 2.4237643e-05 2.6911246e-05 -1.3467521e-05 -5.399432e-06 2.10158e-06 -3.8115893e-05 -1.6877231e-05
3.6050275e-05 7.3415667e-06 3.0129908e-05 -1.8632123e-05 7.936093e-06 3.334794e-05 4.867894e-05 5.921155e-06
-3.321604e-05 1.56876e-07 1.2613069e-05 2.1243932e-05 1.8807206e-05 -1.8001048e-05 -9.8290075e-06 -4.276313e-05
0.0001115813 -0.00016708895 1.904843e-05 1.0829453e-05 -9.0477915e-05 4.439207e-05 -2.9302035e-05 -4.1515264e-05
-3.0710796e-06 -6.7235346e-06 3.394822e-05 5.1742923e-06 -7.4339614e-06 -9.87107e-07 -4.267553e-06 8.4609206e-07
1.3619865e-05 -5.2615337e-06 -3.2793018e-06 1.0235896e-05 -1.3216803e-05 1.1329956e-05 5.3452354e-06 9.146838e-06
-2.8673642e-07 -1.1794126e-05 1.1094889e-05 1.6120863e-05 3.0645333e-05 8.58167e-06 2.339087e-06 -1.0905274e-05
-6.453803e-06 0.0001059481 -0.00011823521 -2.5173634e-07 1.1259678e-05 -5.1828847e-05 3.989447e-05 -3.8792852e-05
-3.3654414e-05 -2.6358028e-05 -2.0420946e-05 3.0335634e-05 1.636733e-05 -6.2964577e-06 -7.779516e-06 -2.0987214e-05
-4.2747583e-06 2.698526e-05 -3.264565e-05 -5.4655347e-06 2.6935732e-05 -4.5692327e-06 1.4364659e-05 -2.5830388e-06
-4.862002e-06 -3.5988394e-06 -2.1951696e-06 1.4401654e-05 7.1187064e-06 -5.1948096e-05 4.429711e-05 3.551966e-05
-1.2373324e-05 3.5352565e-05 -0.00013555241 5.5393564e-05 -1.6295562e-05 -5.4949545e-05 4.4050998e-05 -6.602037e-05
1.3615586e-06 -2.4695657e-05 1.2706318e-05 8.066594e-05 -3.4559547e-05 -3.5710134e-05 7.913828e-06 -3.7171403e-06
-1.345925e-05 6.846016e-06 -7.598484e-06 -3.4294353e-05 -6.447396e-06 -4.5663743e-05 -1.5417825e-05 -2.0376707e-05
-3.0884035e-05 -3.857663e-05 -1.3909583e-05 1.424977e-05 -1.7967628e-05 -1.5589985e-05 -8.213347e-06 1.2996078e-05
6.8104905e-06 3.0100147e-05 8.7714725e-06 -8.309969e-05 8.7429944e-05 -8.7736834e-07 7.586456e-06 3.850161e-05
-1.733561e-05 3.5948717e-05 3.140001e-05 2.7619526e-05 3.1665255e-05 -1.4403252e-05 3.858439e-07 1.585419e-05
2.5377338e-05 2.5252408e-05 1.4247755e-05 -5.0895705e-05 5.330267e-05 8.061002e-06 -4.4468243e-06 2.0994497e-05
-9.275334e-06 2.9077475e-05 1.5352003e-05 1.6381597e-05 3.1894928e-05 -1.2621747e-06 2.5343985e-05 -4.5062596e-05
-4.8797756e-06 2.3550863e-06 2.3939944e-07 9.95912e-06 -0.00018210978 0.00010499413 -3.9761322e-05 -3.618439e-05
2.6416748e-05 -7.671982e-05 2.131625e-05 1.3138822e-06 -2.4232277e-06 2.7260225e-05 -4.7938232e-05 -3.8199476e-05
-2.0940446e-05 -2.9126246e-05 -3.9824845e-05 -1.3443814e-05 2.8621464e-05 -9.601355e-05 -1.6994452e-05 -4.5954435e-05
00000000: fbb2 ccb6 b328 d435 599f 6fb7 46f0 b0b7
00000010: f812 9cb7 a34f 8938 9850 f7b8 f726 03b6
00000020: 43d8 99b7 e16e 37b8 c07d 8a37 7d14 2fb8
00000030: 6827 63b8 2188 99b7 75aa 2fb6 06e0 0835
00000040: b3fd 59b7 b89f 3db7 f75f 63b7 5e23 1bb8
00000050: 0264 cfb6 ec53 3538 1e5c 97b8 4561 e2b6
00000060: 871b 66b7 c33b e2b7 647e e335 e600 eab7
00000070: 4e89 a4b7 d84e 50b7 4c28 95b7 5ebc 1735
00000080: 6fd5 60b8 77dc 5e36 4dd8 73b8 b68f 2fb8
00000090: 5796 bdb7 8e48 ecb7 05fd 3b38 73bc 2eb7
000000a0: 80ef 97b7 9c58 d5b5 0f76 98b7 9ca7 e6b6
000000b0: 27a3 03b8 3944 e735 278d 49b8 44db abb8
000000c0: 3d41 9bb7 d7c0 8cb6 06ae e7b7 5fd7 a8b7
000000d0: 5f5d dfb7 c272 1ab8 ae12 6db7 3fd1 d0b6
000000e0: 3b76 7bb7 2bb1 b035 8539 74b7 130f 83b7
000000f0: 2bae 30b7 a777 1437 d553 c5b7 704f 3db8
00000100: 6b2b c8b7 b241 54b8 9b17 2838 4da5 3eb8
00000110: 09e9 abb8 1261 ec37 0eaf 8db8 ba26 d138
00000120: 3c0b fdb7 5c6f 9e37 6df0 2838 513f abb8
00000130: 39dc fd37 27a0 bc36 5081 2438 4f5f 09b8
00000140: b6c0 c4b8 f151 cb37 76bf e137 90f2 61b7
00000150: c52c b5b6 df08 0d36 a1de 1fb8 9493 8db7
00000160: b034 1738 9457 f636 7cbf fc37 2e4c 9cb7
00000170: 4325 0537 14df 0b38 9d2c 4c38 56ae c636
00000180: 7451 0bb8 bf71 2834 b89c 5337 ff34 b237
00000190: 2bc4 9d37 f500 97b7 44e7 24b7 905c 33b8
000001a0: c100 ea38 9934 2fb9 31ca 9f37 25b0 3537
000001b0: f6be bdb8 9f31 3a38 a4cd f5b7 ad20 2eb8
000001c0: bf18 4eb6 b99a e1b6 a063 0e38 d59e ad36
000001d0: 3e71 f9b6 bd7c 84b5 0032 8fb6 011f 6335
000001e0: e080 6437 3b8c b0b6 fa11 5cb6 d7ba 2b37
000001f0: bdbd 5db7 ca15 3e37 395b b336 5f75 1937
00000200: c1f0 99b4 63df 45b7 2f24 3a37 4a3b 8737
00000210: 2d89 0038 fef9 0f37 35f9 1c36 ccf5 36b7
00000220: bf8d d8b6 7430 de38 0cf5 f7b8 6126 87b4
00000230: f3e7 3c37 cd62 59b8 5c54 2738 82b5 22b8
00000240: 2728 0db8 6f1b ddb7 a64d abb7 4779 fe37
00000250: 934c 8937 2946 d3b6 c484 02b7 b30d b0b7
00000260: e56f 8fb6 685e e237 00ed 08b8 9664 b7b6
00000270: 0bf4 e137 6951 99b6 beff 7037 4558 2db6
00000280: 4724 a3b6 9783 71b6 ba50 13b6 a29e 7137
00000290: 39dd ee36 d8e2 59b8 a9cb 3938 f2fa 1438
000002a0: 0697 4fb7 8747 1438 1323 0eb9 6356 6838
000002b0: 74b2 88b7 a079 66b8 66c3 3838 6b74 8ab8
000002c0: ccbe b635 8529 cfb7 382d 5537 322b a938
000002d0: 08f4 10b8 77c7 15b8 a2c5 0437 fc73 79b6
000002e0: 0acf 61b7 d4b6 e536 7bf6 feb6 48d7 0fb8
000002f0: b656 d8b6 1287 3fb8 8755 81b7 a5ee aab7
00000300: 7b89 01b8 57cd 21b8 345d 69b7 4c12 6f37
00000310: 30b9 96b7 3dc7 82b7 0fcc 09b7 bb09 5a37
00000320: ab85 e436 937f fc37 3029 1337 ce45 aeb8
00000330: 985a b738 4b84 6bb5 298f fe36 ca7c 2138
00000340: f06b 91b7 a4c7 1638 81b3 0338 7bb0 e737
00000350: 4fd0 0438 7fa5 71b7 fb25 cf34 9dfe 8437
00000360: 6be1 d437 22d5 d337 a409 6f37 d978 55b8
00000370: 4e91 5f38 bd3d 0737 ee35 95b6 571d b037
00000380: 429d 1bb7 67eb f337 2dc8 8037 366b 8937
00000390: ebc6 0538 fe67 a9b5 cb99 d437 9801 3db8
000003a0: f4bc a3b6 130c 1e36 cf86 8034 1816 2737
000003b0: b9f4 3eb9 4b30 dc38 65c5 26b8 b1c4 17b8
000003c0: 8999 dd37 a4e4 a0b8 4cd0 b237 a658 b035
000003d0: bc9e 22b6 e3ac e437 4911 49b8 6038 20b8
000003e0: 44a9 afb7 2354 f4b7 9a09 27b8 be8c 61b7
000003f0: 2018 f037 e25a c9b8 4f8f 8eb7 33bf 40b8
