log/geometric_graph/grid/checkpoints/best_model-step=26783.ckpt (torch, 102290 bytes, 35 tensors)

target_coord f4 [256, 2]
0	0xbfd040d4	-1.6269784
1	0x3fd040d4	1.6269784
2	0xbfb47c74	-1.410048
3	0x3fd040d4	1.6269784
4	0xbf98b813	-1.1931175
5	0x3fd040d4	1.6269784
6	0xbf79e765	-0.97618705
7	0x3fd040d4	1.6269784
8	0xbf425ea4	-0.7592566
9	0x3fd040d4	1.6269784
10	0xbf0ad5e3	-0.54232615
11	0x3fd040d4	1.6269784
12	0xbea69a43	-0.32539567
13	0x3fd040d4	1.6269784
14	0xbdde2305	-0.10846523
15	0x3fd040d4	1.6269784
16	0x3dde2305	0.10846523
17	0x3fd040d4	1.6269784
18	0x3ea69a43	0.32539567
19	0x3fd040d4	1.6269784
20	0x3f0ad5e3	0.54232615
21	0x3fd040d4	1.6269784
22	0x3f425ea4	0.7592566
23	0x3fd040d4	1.6269784
24	0x3f79e765	0.97618705
25	0x3fd040d4	1.6269784
26	0x3f98b813	1.1931175
27	0x3fd040d4	1.6269784
28	0x3fb47c74	1.410048
29	0x3fd040d4	1.6269784
30	0x3fd040d4	1.6269784
31	0x3fd040d4	1.6269784
32	0xbfd040d4	-1.6269784
33	0x3fb47c74	1.410048
34	0xbfb47c74	-1.410048
35	0x3fb47c74	1.410048
36	0xbf98b813	-1.1931175
37	0x3fb47c74	1.410048
38	0xbf79e765	-0.97618705
39	0x3fb47c74	1.410048
40	0xbf425ea4	-0.7592566
41	0x3fb47c74	1.410048
42	0xbf0ad5e3	-0.54232615
43	0x3fb47c74	1.410048
44	0xbea69a43	-0.32539567
45	0x3fb47c74	1.410048
46	0xbdde2305	-0.10846523
47	0x3fb47c74	1.410048
48	0x3dde2305	0.10846523
49	0x3fb47c74	1.410048
50	0x3ea69a43	0.32539567
51	0x3fb47c74	1.410048
52	0x3f0ad5e3	0.54232615
53	0x3fb47c74	1.410048
54	0x3f425ea4	0.7592566
55	0x3fb47c74	1.410048
56	0x3f79e765	0.97618705
57	0x3fb47c74	1.410048
58	0x3f98b813	1.1931175
59	0x3fb47c74	1.410048
60	0x3fb47c74	1.410048
61	0x3fb47c74	1.410048
62	0x3fd040d4	1.6269784
63	0x3fb47c74	1.410048
64	0xbfd040d4	-1.6269784
65	0x3f98b813	1.1931175
66	0xbfb47c74	-1.410048
67	0x3f98b813	1.1931175
68	0xbf98b813	-1.1931175
69	0x3f98b813	1.1931175
70	0xbf79e765	-0.97618705
71	0x3f98b813	1.1931175
72	0xbf425ea4	-0.7592566
73	0x3f98b813	1.1931175
74	0xbf0ad5e3	-0.54232615
75	0x3f98b813	1.1931175
76	0xbea69a43	-0.32539567
77	0x3f98b813	1.1931175
78	0xbdde2305	-0.10846523
79	0x3f98b813	1.1931175
80	0x3dde2305	0.10846523
81	0x3f98b813	1.1931175
82	0x3ea69a43	0.32539567
83	0x3f98b813	1.1931175
84	0x3f0ad5e3	0.54232615
85	0x3f98b813	1.1931175
86	0x3f425ea4	0.7592566
87	0x3f98b813	1.1931175
88	0x3f79e765	0.97618705
89	0x3f98b813	1.1931175
90	0x3f98b813	1.1931175
91	0x3f98b813	1.1931175
92	0x3fb47c74	1.410048
93	0x3f98b813	1.1931175
94	0x3fd040d4	1.6269784
95	0x3f98b813	1.1931175
96	0xbfd040d4	-1.6269784
97	0x3f79e765	0.97618705
98	0xbfb47c74	-1.410048
99	0x3f79e765	0.97618705
100	0xbf98b813	-1.1931175
101	0x3f79e765	0.97618705
102	0xbf79e765	-0.97618705
103	0x3f79e765	0.97618705
104	0xbf425ea4	-0.7592566
105	0x3f79e765	0.97618705
106	0xbf0ad5e3	-0.54232615
107	0x3f79e765	0.97618705
108	0xbea69a43	-0.32539567
109	0x3f79e765	0.97618705
110	0xbdde2305	-0.10846523
111	0x3f79e765	0.97618705
112	0x3dde2305	0.10846523
113	0x3f79e765	0.97618705
114	0x3ea69a43	0.32539567
115	0x3f79e765	0.97618705
116	0x3f0ad5e3	0.54232615
117	0x3f79e765	0.97618705
118	0x3f425ea4	0.7592566
119	0x3f79e765	0.97618705
120	0x3f79e765	0.97618705
121	0x3f79e765	0.97618705
122	0x3f98b813	1.1931175
123	0x3f79e765	0.97618705
124	0x3fb47c74	1.410048
125	0x3f79e765	0.97618705
126	0x3fd040d4	1.6269784
127	0x3f79e765	0.97618705
128	0xbfd040d4	-1.6269784
129	0x3f425ea4	0.7592566
130	0xbfb47c74	-1.410048
131	0x3f425ea4	0.7592566
132	0xbf98b813	-1.1931175
133	0x3f425ea4	0.7592566
134	0xbf79e765	-0.97618705
135	0x3f425ea4	0.7592566
136	0xbf425ea4	-0.7592566
137	0x3f425ea4	0.7592566
138	0xbf0ad5e3	-0.54232615
139	0x3f425ea4	0.7592566
140	0xbea69a43	-0.32539567
141	0x3f425ea4	0.7592566
142	0xbdde2305	-0.10846523
143	0x3f425ea4	0.7592566
144	0x3dde2305	0.10846523
145	0x3f425ea4	0.7592566
146	0x3ea69a43	0.32539567
147	0x3f425ea4	0.7592566
148	0x3f0ad5e3	0.54232615
149	0x3f425ea4	0.7592566
150	0x3f425ea4	0.7592566
151	0x3f425ea4	0.7592566
152	0x3f79e765	0.97618705
153	0x3f425ea4	0.7592566
154	0x3f98b813	1.1931175
155	0x3f425ea4	0.7592566
156	0x3fb47c74	1.410048
157	0x3f425ea4	0.7592566
158	0x3fd040d4	1.6269784
159	0x3f425ea4	0.7592566
160	0xbfd040d4	-1.6269784
161	0x3f0ad5e3	0.54232615
162	0xbfb47c74	-1.410048
163	0x3f0ad5e3	0.54232615
164	0xbf98b813	-1.1931175
165	0x3f0ad5e3	0.54232615
166	0xbf79e765	-0.97618705
167	0x3f0ad5e3	0.54232615
168	0xbf425ea4	-0.7592566
169	0x3f0ad5e3	0.54232615
170	0xbf0ad5e3	-0.54232615
171	0x3f0ad5e3	0.54232615
172	0xbea69a43	-0.32539567
173	0x3f0ad5e3	0.54232615
174	0xbdde2305	-0.10846523
175	0x3f0ad5e3	0.54232615
176	0x3dde2305	0.10846523
177	0x3f0ad5e3	0.54232615
178	0x3ea69a43	0.32539567
179	0x3f0ad5e3	0.54232615
180	0x3f0ad5e3	0.54232615
181	0x3f0ad5e3	0.54232615
182	0x3f425ea4	0.7592566
183	0x3f0ad5e3	0.54232615
184	0x3f79e765	0.97618705
185	0x3f0ad5e3	0.54232615
186	0x3f98b813	1.1931175
187	0x3f0ad5e3	0.54232615
188	0x3fb47c74	1.410048
189	0x3f0ad5e3	0.54232615
190	0x3fd040d4	1.6269784
191	0x3f0ad5e3	0.54232615
192	0xbfd040d4	-1.6269784
193	0x3ea69a43	0.32539567
194	0xbfb47c74	-1.410048
195	0x3ea69a43	0.32539567
196	0xbf98b813	-1.1931175
197	0x3ea69a43	0.32539567
198	0xbf79e765	-0.97618705
199	0x3ea69a43	0.32539567
200	0xbf425ea4	-0.7592566
201	0x3ea69a43	0.32539567
202	0xbf0ad5e3	-0.54232615
203	0x3ea69a43	0.32539567
204	0xbea69a43	-0.32539567
205	0x3ea69a43	0.32539567
206	0xbdde2305	-0.10846523
207	0x3ea69a43	0.32539567
208	0x3dde2305	0.10846523
209	0x3ea69a43	0.32539567
210	0x3ea69a43	0.32539567
211	0x3ea69a43	0.32539567
212	0x3f0ad5e3	0.54232615
213	0x3ea69a43	0.32539567
214	0x3f425ea4	0.7592566
215	0x3ea69a43	0.32539567
216	0x3f79e765	0.97618705
217	0x3ea69a43	0.32539567
218	0x3f98b813	1.1931175
219	0x3ea69a43	0.32539567
220	0x3fb47c74	1.410048
221	0x3ea69a43	0.32539567
222	0x3fd040d4	1.6269784
223	0x3ea69a43	0.32539567
224	0xbfd040d4	-1.6269784
225	0x3dde2305	0.10846523
226	0xbfb47c74	-1.410048
227	0x3dde2305	0.10846523
228	0xbf98b813	-1.1931175
229	0x3dde2305	0.10846523
230	0xbf79e765	-0.97618705
231	0x3dde2305	0.10846523
232	0xbf425ea4	-0.7592566
233	0x3dde2305	0.10846523
234	0xbf0ad5e3	-0.54232615
235	0x3dde2305	0.10846523
236	0xbea69a43	-0.32539567
237	0x3dde2305	0.10846523
238	0xbdde2305	-0.10846523
239	0x3dde2305	0.10846523
240	0x3dde2305	0.10846523
241	0x3dde2305	0.10846523
242	0x3ea69a43	0.32539567
243	0x3dde2305	0.10846523
244	0x3f0ad5e3	0.54232615
245	0x3dde2305	0.10846523
246	0x3f425ea4	0.7592566
247	0x3dde2305	0.10846523
248	0x3f79e765	0.97618705
249	0x3dde2305	0.10846523
250	0x3f98b813	1.1931175
251	0x3dde2305	0.10846523
252	0x3fb47c74	1.410048
253	0x3dde2305	0.10846523
254	0x3fd040d4	1.6269784
255	0x3dde2305	0.10846523

init_coord f4 [256, 2]
0	0xbf29408b	-0.6611411
1	0x3dcfcc26	0.1014636
2	0xbe924f97	-0.28576347
3	0xbf92c745	-1.1467062
4	0x3d9734be	0.07383107
5	0xbf8a43dc	-1.0801959
6	0x3f10fbf8	0.56634474
7	0x3e9ac9b8	0.30232024
8	0x3ebc0106	0.3671953
9	0x3e98cb4a	0.29842597
10	0xbeef4ee3	-0.46739873
11	0x3ebc89c4	0.36823857
12	0xbeb55dae	-0.35423034
13	0x3f4491c5	0.76784927
14	0xbf2c26f0	-0.67246914
15	0xbe46a635	-0.1939934
16	0xbe8e9d4b	-0.2785438
17	0xbe7560a7	-0.23962651
18	0xbeab6fc8	-0.3348372
19	0xbeeaef3d	-0.4588565
20	0x3e8773c4	0.2645551
21	0x3eb03e79	0.34422663
22	0xbfbb734a	-1.4644558
23	0x3eee0ddf	0.46494958
24	0x3efe50e4	0.4967109
25	0xbf16ca51	-0.5890246
26	0xbf69c714	-0.91319394
27	0x3e9e935a	0.30971795
28	0xbef1dd62	-0.47239214
29	0xbea32c9f	-0.3186998
30	0x3db337a1	0.08750845
31	0x3eb6b0d9	0.356818
32	0x3f117878	0.56824446
33	0xbf0844d0	-0.5323
34	0x3e387e0c	0.18016833
35	0x3e9383f2	0.28811604
36	0xbe5c9269	-0.21540226
37	0xbe9551d5	-0.29163995
38	0x3d869bec	0.065727085
39	0xbf0d01e5	-0.55081016
40	0xbe9318b7	-0.28729793
41	0xbe3aa6c5	-0.1822768
42	0x3e971c44	0.29513752
43	0x3d399e8a	0.04531721
44	0x3e9f0c9f	0.31064317
45	0x3f28b2c0	0.6589775
46	0x3f4feebb	0.8122365
47	0xbecc422e	-0.3989424
48	0xbbd49f56	-0.006488721
49	0xbeb2cce0	-0.34921932
50	0x3dda272f	0.10652005
51	0x3e186f01	0.14886095
52	0x3df38034	0.11889687
53	0xbf2a4d32	-0.6652404
54	0xbed8b21b	-0.42323384
55	0xbf193550	-0.59846973
56	0xbecbd843	-0.39813432
57	0x3e7eb294	0.2487281
58	0xbe8b4edb	-0.272086
59	0x3f109fca	0.5649382
60	0x3e3231c5	0.17401798
61	0x3f0d7a5f	0.5526485
62	0xbe1f5e0e	-0.15563223
63	0x3e9ea9af	0.30988833
64	0x3ed91b5c	0.42403686
65	0x3f18f819	0.59753567
66	0xbf5c75bc	-0.8611715
67	0xbe4be2e5	-0.19910772
68	0x3f160f6f	0.586173
69	0x3c9b6e7c	0.018973581
70	0x3f7a525e	0.9778193
71	0x3ebd2b7a	0.36947232
72	0xbda70c7e	-0.081566796
73	0x3db9f70f	0.09080326
74	0xbe2252a7	-0.15851842
75	0xbf79f1df	-0.9763469
76	0xbf50daf5	-0.815841
77	0xbf01896a	-0.506003
78	0xbf11076a	-0.5665194
79	0xbe96a560	-0.29423046
80	0xbdfdd539	-0.123941846
81	0x3e563a0a	0.20920578
82	0x3f72005b	0.9453179
83	0x3f5f15a8	0.8714242
84	0x3e8c20ad	0.2736868
85	0x3eb50376	0.35354203
86	0x3e3aeae8	0.18253672
87	0x3f80ab52	1.0052283
88	0xbf79b290	-0.9753809
89	0xbef2f3e9	-0.47451714
90	0x3f2a56fe	0.6653899
91	0xbec3cc70	-0.3824191
92	0xbf47ddc7	-0.7807278
93	0xbf305f3d	-0.6889532
94	0x3f4d51c4	0.8020289
95	0xbed4d91d	-0.41571894
96	0xbf31ea81	-0.6949845
97	0xbea94d21	-0.33066657
98	0xbf1a6c18	-0.6032119
99	0x3f1fa998	0.62368155
100	0x3f07709c	0.52906203
101	0x3e3209a8	0.17386496
102	0xbd95e715	-0.07319466
103	0xbf1e5820	-0.6185322
104	0x3e9842c1	0.2973843
105	0x3dea8f59	0.11453123
106	0xbec358ca	-0.38153678
107	0xbcf2474e	-0.029575016
108	0x3f78bd42	0.97163785
109	0xbe51536c	-0.20441979
110	0x3f0476de	0.51743877
111	0x3e5375ea	0.2065045
112	0x3f8593c3	1.0435718
113	0xbeba1038	-0.363405
114	0x3f80ee02	1.0072634
115	0xbee03fb0	-0.4379859
116	0xbf2a14bb	-0.6643788
117	0xbcf5d537	-0.030008895
118	0xbf1b4568	-0.6065278
119	0x3e61ad48	0.22038758
120	0xbe96a197	-0.29420158
121	0x3f3ddb22	0.74162495
122	0x3ea34a3a	0.31892568
123	0x3e70672b	0.23476855
124	0xbee1910a	-0.4405597
125	0xbe732f6d	-0.2374856
126	0x3bf775cf	0.0075518857
127	0x3f0b28a8	0.5435891
128	0xbe27402b	-0.16333072
129	0xbef1c443	-0.47220048
130	0xbf28d4b9	-0.6594959
131	0xbf277493	-0.65412253
132	0xbddbc346	-0.10730605
133	0xbeb2043d	-0.3476886
134	0xbcc68044	-0.024231084
135	0x3e788943	0.24271111
136	0x3e9e7ef1	0.30956224
137	0xbe24cb10	-0.16093087
138	0xbed5f578	-0.4178884
139	0x3ed6e676	0.41972703
140	0x3e4d376b	0.20040672
141	0xbea57af4	-0.32320368
142	0xbe9db553	-0.30802402
143	0xbf02e198	-0.5112548
144	0x3ec2c2a7	0.38039133
145	0xbd45ffe4	-0.04833974
146	0xbd77a009	-0.060455356
147	0xbf7e6e56	-0.9938711
148	0x3e3828e2	0.17984346
149	0x3f095f70	0.5366125
150	0xbead7ef9	-0.33885935
151	0x3cfd180c	0.030895256
152	0x3ccb0e1b	0.024787
153	0xbd82facc	-0.06395492
154	0x3eaa1654	0.3322016
155	0xbed993d2	-0.4249559
156	0xbf07b55a	-0.53011096
157	0xbe7ae96f	-0.2450311
158	0xbad3db2a	-0.0016163338
159	0xbeaaf86b	-0.33392653
160	0xbf3cbe2e	-0.7372769
161	0xbda11b9d	-0.07866595
162	0xbdd7ce01	-0.10537339
163	0xbee7930b	-0.45229372
164	0xbe121321	-0.1426511
165	0xbeeccc9a	-0.4624985
166	0x3e9f6250	0.31129694
167	0xbe2aa805	-0.16665657
168	0xbf0ab142	-0.54176724
169	0xbdcebaeb	-0.100942455
170	0x3da840a4	0.08215454
171	0x3edb5a62	0.42842394
172	0x3f584f42	0.8449594
173	0xbe10e63a	-0.14150324
174	0xbe3724a8	-0.17885077
175	0xbe6fd441	-0.23420812
176	0x3f3ea46d	0.74469644
177	0xbed5bee1	-0.41747192
178	0xbe7983b4	-0.24366647
179	0x3f437a2e	0.76358306
180	0xbf03928a	-0.51395476
181	0x3ed0e20b	0.40797457
182	0x3f16d7be	0.58922946
183	0x3ee67206	0.45008868
184	0x3e07983e	0.1324167
185	0x3ec1df4d	0.37865677
186	0xbe89c58c	-0.2690853
187	0x3f5e6499	0.8687225
188	0xbf15667e	-0.58359516
189	0x3e30a6be	0.17251107
190	0xbf2cebf7	-0.67547554
191	0xbebf5f2f	-0.37377307
192	0xbc006ebc	-0.007838901
193	0x3f2f7483	0.6853716
194	0xbf12f762	-0.57408726
195	0x3da496fc	0.080366105
196	0x3cf4845e	0.029848274
197	0x3e16e3df	0.14735363
198	0xbccdd329	-0.025125103
199	0x3de3d266	0.11124115
200	0xbd24207d	-0.040070046
201	0xbea0324b	-0.3128837
202	0x3f476083	0.7788164
203	0x3f219b84	0.63127923
204	0x3e86682b	0.2625135
205	0xbee87cb0	-0.4540763
206	0xbf10c29f	-0.5654697
207	0xbf38a960	-0.72133446
208	0x3e80075a	0.2500561
209	0xbf0dde8b	-0.554177
210	0x3e9f4f0f	0.31115004
211	0x3f629a62	0.8851682
212	0xbdb484f8	-0.08814424
213	0x3cc93482	0.02456117
214	0x3ca5d4f1	0.02024314
215	0x3ee5895c	0.4483136
216	0x3ed374cc	0.41300046
217	0xbef8cae9	-0.48592308
218	0xbf761747	-0.9612927
219	0xbf1f08ba	-0.6212269
220	0xbe006e1e	-0.12542006
221	0xbe8d0a32	-0.2754684
222	0x3d99da01	0.07512284
223	0x3f461470	0.77374935
224	0x3d3ae5ba	0.04562924
225	0xbe7f7b12	-0.24949291
226	0xbf042512	-0.51619065
227	0xbb8ec5f1	-0.0043570925
228	0x3f75621d	0.95852834
229	0x3f4ac6f0	0.79209805
230	0xbeef32c7	-0.46718428
231	0x3ecc5cf8	0.3991468
232	0x3ea420c6	0.32056254
233	0x3f044587	0.5166859
234	0xbdcb104b	-0.09915217
235	0xbe5739e5	-0.21018179
236	0xbe8292f4	-0.2550274
237	0x3f3b5860	0.73181725
238	0xbeb2655f	-0.34842965
239	0xbf208ba0	-0.6271305
240	0xbe95a8cf	-0.29230353
241	0x3e576523	0.21034674
242	0xbd6fbb16	-0.05852803
243	0xbecd8765	-0.4014236
244	0xbeb4dabb	-0.35323128
245	0x3f1524b6	0.5825914
246	0xbd863891	-0.06553758
247	0xbf51d915	-0.81971866
248	0xbe7da091	-0.24768282
249	0x3e68cda8	0.22734702
250	0x3ecef10b	0.40418276
251	0xbf068b5b	-0.5255639
252	0x3ed95b1e	0.4245233
253	0x3e8b4535	0.27201238
254	0xbe9459b3	-0.28974685
255	0x3df622bf	0.12018346

encoder.egnn.layers.0.edge_mlp.0.weight f4 [32, 33]
0	0xbd19cfcd	-0.03755169
1	0xbe1e7363	-0.15473704
2	0xbda4a862	-0.08039929
3	0x3dfc9bca	0.12334402
4	0xbd0b390d	-0.033989955
5	0x3e18e2bb	0.14930241
6	0x3d889c5b	0.066704474
7	0x3db2b980	0.087267876
8	0xbd6cf99b	-0.05785523
9	0x3df594f7	0.119913034
10	0x3e06906e	0.13141033
11	0x3e5f3ab5	0.21799739
12	0xbd742996	-0.059609972
13	0x3ca4860c	0.02008345
14	0xbe36646c	-0.17811745
15	0xbd2cc743	-0.04218222
16	0xbcd1ff6e	-0.025634494
17	0xbe19cc55	-0.15019353
18	0xbbdbb75f	-0.006705209
19	0x3e094993	0.13406973
20	0x3e22968d	0.15877743
21	0xbd4c2a8e	-0.04984527
22	0x3e070f8f	0.13189529
23	0xbe315bd1	-0.17320181
24	0x3d997d6f	0.07494628
25	0xbe0547ae	-0.13015625
26	0x3a96461f	0.001146499
27	0xbdd1e1a4	-0.10248116
28	0x3c9b4de1	0.018958034
29	0x3e5e5da9	0.21715416
30	0x3df85d5d	0.12127183
31	0x3d884a3b	0.06654783
32	0xbe29f67c	-0.16597933
33	0xbd55be67	-0.052183535
34	0x3db50d1c	0.08840391
35	0x3dbea344	0.09308484
36	0xbe0c8967	-0.1372429
37	0x3dbebc6c	0.09313282
38	0x3e0954eb	0.134113
39	0x3db906f1	0.09034527
40	0x3e07727e	0.13227269
41	0x3e02ade4	0.12761647
42	0x3dea2188	0.11432177
43	0xbd868664	-0.06568602
44	0xbe4df5ee	-0.20113346
45	0x3d3cff50	0.046141922
46	0xbd79787d	-0.060905922
47	0x3db0dd52	0.086359635
48	0x3dc2bef1	0.095090754
49	0xbab4b9b5	-0.0013788255
50	0xbe1c0857	-0.15237556
51	0xbe459288	-0.19294178
52	0x3e1519ca	0.14560619
53	0xbe39967f	-0.18123816
54	0x3d6ab27f	0.057299133
55	0x3dd889d7	0.10573166
56	0xbe4d1c6e	-0.20030376
57	0x3e107a6b	0.14109199
58	0x3e290ffa	0.16510001
59	0xbdad30f0	-0.084566
60	0xbdceae66	-0.100918576
61	0xbc026d5c	-0.007960644
62	0xbe712cec	-0.23552293
63	0xbd493cc8	-0.04913023
64	0xbc5e81a6	-0.013580715
65	0xbe82f0ed	-0.25574437
66	0x3d3fafc1	0.04679847
67	0x3def637c	0.11688897
68	0x3e19abab	0.15006892
69	0x3dd0a9f2	0.101886645
70	0x3dd81fb9	0.105529256
71	0xbe5af82b	-0.21383731
72	0x3dea77d7	0.11448639
73	0xbe14dc48	-0.14537156
74	0xbe141b13	-0.14463453
75	0xbe25d568	-0.1619469
76	0x3ddd9ec0	0.10821295
77	0x3c756176	0.01497685
78	0x3dfc4f16	0.12319772
79	0x3bc795b2	0.006090843
80	0x3d4d929a	0.05018864
81	0xbc18b984	-0.009321574
82	0xbe50c36f	-0.20387052
83	0xbe45b0c2	-0.19305709
84	0x3b460084	0.003021271
85	0xbd28abcb	-0.04117946
86	0xbe004f5a	-0.1253027
87	0xbb5e63ff	-0.0033934114
88	0xbe14f130	-0.1454513
89	0xbd41f3e0	-0.047351718
90	0x3d14fea0	0.03637564
91	0xbdae8fa9	-0.08523495
92	0xbd825fa9	-0.06365902
93	0x3dca32da	0.098729804
94	0xbe18e3ca	-0.14930645
95	0x3e2a1bce	0.16612169
96	0xbe489aba	-0.19590273
97	0xbded637b	-0.1159124
98	0xbc82c9b6	-0.015965324
99	0xbdbcd39e	-0.0922005
100	0x3d875e1c	0.06609747
101	0xbd8e274d	-0.0694109
102	0xbdbe2804	-0.09284976
103	0xbe52a2b9	-0.20569886
104	0xbd45b98f	-0.048272666
105	0xbb207e9d	-0.002448953
106	0xbda6f1e6	-0.08151607
107	0xbd324e88	-0.043531924
108	0xbe32d979	-0.17465772
109	0x3d7042e2	0.058657534
110	0x3e17ea7f	0.14835547
111	0xbe55841a	-0.20851174
112	0x3d225fe6	0.039642237
113	0xbdea2da8	-0.114344895
114	0xbde65db6	-0.11248343
115	0xbe3f8acb	-0.18705289
116	0xbde12f7c	-0.10995385
117	0x3e23e0e2	0.16003755
118	0x3ddb684f	0.10713255
119	0xbc7be5de	-0.015374629
120	0xbd22cb11	-0.03974444
121	0xbce4de86	-0.027938139
122	0xbe6ce5ca	-0.23134533
123	0xbe51c7ef	-0.20486425
124	0xbe114a97	-0.1418861
125	0x3e310e4c	0.1729061
126	0x3d133044	0.0359347
127	0x3d72debf	0.05929446
128	0x3e4bee17	0.19915043
129	0x3b23e226	0.002500662
130	0xbd361021	-0.044448975
131	0x3d97611b	0.07391568
132	0x3de3cd01	0.11123086
133	0x3e1aaca2	0.15104917
134	0x3cb51c75	0.022108296
135	0xbe340c2a	-0.17582765
136	0x3d939866	0.07206802
137	0xbe0c7686	-0.13717088
138	0xbe13d6b8	-0.14437377
139	0xbdf6a923	-0.12043979
140	0xbd768684	-0.060186878
141	0x3e07a71f	0.13247345
142	0xbddef0a6	-0.10885744
143	0xbe42d0f2	-0.19025019
144	0xbc5be0d2	-0.013420301
145	0x3d0c631b	0.0342742
146	0x3e18d1c4	0.14923769
147	0xbd9ad8bd	-0.07560871
148	0xbd8cb8cf	-0.06871187
149	0xbe43d359	-0.19123591
150	0xbe2e2c7c	-0.17009157
151	0x3d30c79d	0.043159116
152	0xbdf4a5c9	-0.119456835
153	0x3e745790	0.23861527
154	0xbe995d12	-0.2995382
155	0xbd8cece5	-0.068811215
156	0x3e8e8e0b	0.27842745
157	0x3deaea8c	0.114705175
158	0x3d9198de	0.07109235
159	0x3db6ae14	0.089199215
160	0x3e662bbc	0.22477621
161	0xbdc5badb	-0.096547805
162	0xbc427446	-0.011868542
163	0x3ce14471	0.027498456
164	0xbcccd873	-0.025005555
165	0xbc7cae50	-0.015422419
166	0x3e217684	0.15767866
167	0x3cbcc4b4	0.023043014
168	0x3d0d9b35	0.034571845
169	0x3e3f8c41	0.18705846
170	0xbe06cd8a	-0.13164344
171	0xbd6a8961	-0.05725992
172	0x3ce1676d	0.027515138
173	0xbe2366bf	-0.15957163
174	0x3db657f4	0.089034945
175	0x3ce58486	0.028017294
176	0xbdec72e8	-0.11545354
177	0xbe1115a0	-0.14168406
178	0x3cd53d27	0.026030136
179	0xbd1900df	-0.037354346
180	0xbe3e66ee	-0.18593952
181	0xbdad877f	-0.084731095
182	0x3dc7938c	0.09744939
183	0xbe1c27f8	-0.15249622
184	0xbe3e9599	-0.18611754
185	0xbe1f6735	-0.15566714
186	0xbc434fff	-0.011920928
187	0xbe63628e	-0.22205564
188	0x3ce4d5e0	0.027934015
189	0xbe194d68	-0.14970934
190	0x3dff5a21	0.124683626
191	0xbda3d8f7	-0.08000367
192	0x3def7ed2	0.11694111
193	0xbe3925f8	-0.1808089
194	0x3da8fb04	0.082510024
195	0xbda46be7	-0.08028393
196	0x3d4707c4	0.04859139
197	0xbe1055f2	-0.14095286
198	0x3eb7d1d0	0.35902262
199	0xbd089019	-0.033340547
200	0xbd3c5349	-0.045977864
201	0x3d0aa494	0.03384836
202	0x3e0b0fbd	0.13580222
203	0xbe313c55	-0.17308171
204	0xbe1e7ba6	-0.15476856
205	0xbe032e1e	-0.12810561
206	0xbd321857	-0.043480244
207	0xbeacec41	-0.33773997
208	0x3e754d43	0.23955254
209	0xbe3d8074	-0.18506032
210	0xbc51e467	-0.012810803
211	0x3e0fcf95	0.1404403
212	0xbcf07fd1	-0.029357823
213	0xbd46058e	-0.04834514
214	0x3e947f1e	0.29003233
215	0xbcb100a5	-0.021606753
216	0x3e890a27	0.26765558
217	0xbe3051b3	-0.17218666
218	0xbe23c50a	-0.15993133
219	0xbe10c63c	-0.1413812
220	0x3e01e7ef	0.12686132
221	0xbdafd8d8	-0.085862815
222	0xbe0c058c	-0.13673991
223	0xbd9bafdb	-0.07601901
224	0x3e20455f	0.15651463
225	0x3e5972bf	0.21235178
226	0x3e354b85	0.1770459
227	0xbbdadf3b	-0.006679443
228	0x3b22467d	0.0024761253
229	0x3dd07be4	0.1017988
230	0x3eb149f4	0.34626734
231	0x3dc9440b	0.09827431
232	0x3c25a932	0.01011114
233	0xbdc2391f	-0.09483551
234	0xbc66c0e8	-0.014084078
235	0x3bf7e4c9	0.007565115
236	0x3c884d98	0.016638562
237	0x3e453c46	0.19261274
238	0xbdf98314	-0.12183204
239	0x3e1a18fc	0.15048593
240	0xbdf192d4	-0.11795583
241	0x3c0a9665	0.008458708
242	0x3cacf282	0.02111173
243	0x3e19e395	0.15028222
244	0x3d374975	0.04474779
245	0x3ca21b3a	0.019788373
246	0xbdcba4e7	-0.09943562
247	0xbda32262	-0.079655424
248	0xbe424b21	-0.18973972
249	0xbd16ffb3	-0.036864948
250	0xbd861a6f	-0.065480106
251	0xbd53214f	-0.051545437
252	0xbde9f153	-0.11422982
253	0xbdb646f0	-0.08900249
254	0xbd47786a	-0.04869882
255	0x3e026779	0.12734784

encoder.egnn.layers.0.edge_mlp.0.bias f4 [32]
0	0x3d26ba83	0.040705215
1	0xbd1eb214	-0.038744047
2	0x3ce326c2	0.027728442
3	0xbe043bc3	-0.12913422
4	0x3da5c7ec	0.08094773
5	0xbd8b4a29	-0.06801254
6	0x3da99c9a	0.082818225
7	0xbe10757e	-0.1410732
8	0x3dc27124	0.09494236
9	0x3c55e941	0.0130561
10	0xbe38cdde	-0.18047282
11	0xbda96fc2	-0.08273269
12	0xbdae0d4d	-0.08498631
13	0x3e13bd51	0.14427687
14	0x3e1acc88	0.15117085
15	0xbc8e6b5f	-0.017385183
16	0xbe0fc6d5	-0.14040692
17	0x3e2fb4f4	0.17158872
18	0xbd6c45c8	-0.057683736
19	0x3df2e54e	0.11860143
20	0xbe047ec6	-0.12938985
21	0xbdd076d2	-0.10178913
22	0x3d9b889c	0.075944155
23	0xbca36af3	-0.019948458
24	0xbd2cc4a6	-0.042179726
25	0x3c209c85	0.009802942
26	0x3d864bd8	0.06557435
27	0xbb85559c	-0.0040690433
28	0x3d5dab3f	0.05411839
29	0xbe1ad734	-0.15121156
30	0xbc09569b	-0.008382465
31	0x3e0026f5	0.12514861

encoder.egnn.layers.0.edge_mlp.2.weight f4 [32, 32]
0	0x3d7edad8	0.062220424
1	0xbd54e172	-0.051972814
2	0x3d985732	0.07438506
3	0x3dd62144	0.10455564
4	0x3b1032d7	0.002200296
5	0xbe5d7359	-0.21626033
6	0x3e162787	0.14663516
7	0xbd7d72ee	-0.061877184
8	0x3cb20d88	0.021734968
9	0xbe055b4c	-0.13023108
10	0xbe200581	-0.156271
11	0xbcf336e9	-0.02968927
12	0xbda94760	-0.08265567
13	0x3e08c5bb	0.13356678
14	0x3dac11f6	0.08401863
15	0x3c3d6150	0.011558846
16	0xbdaeae7f	-0.08529376
17	0x3e6a0788	0.22854435
18	0x3dc049dc	0.093890876
19	0x3e429047	0.1900035
20	0xbda8d1ed	-0.08243165
21	0xbd89c16d	-0.06726346
22	0xbc2acef2	-0.010425316
23	0xbdcac699	-0.09901161
24	0xbe11ae1a	-0.1422657
25	0x3e5c987d	0.21542545
26	0xbdb3f984	-0.08787826
27	0xbddf130e	-0.10892306
28	0x3e0b3adf	0.13596676
29	0xbd93b7b3	-0.07212772
30	0x3e1bacee	0.15202686
31	0x3db266f9	0.08711047
32	0xbd48c2cb	-0.049013894
33	0xbe1345e3	-0.14382128
34	0x3dd9ddb0	0.10637987
35	0x3e190c75	0.14946158
36	0x3d280975	0.041024644
37	0x3e1132da	0.14179555
38	0x3dd4c89c	0.10389826
39	0xbdff658a	-0.12470539
40	0x3d14e96a	0.036355413
41	0xbe026d03	-0.12736897
42	0x3ea7d23a	0.32777578
43	0xbdcf676f	-0.1012715
44	0x3e9e5547	0.30924436
45	0xbe8c58f4	-0.27411616
46	0x3dd61ca4	0.104546815
47	0xbd0df0aa	-0.034653343
48	0x3db3e1c0	0.08783293
49	0x3c064331	0.008194731
50	0x3dedfefc	0.116209
51	0xbda20b86	-0.07912354
52	0x3e5c0593	0.21486501
53	0x3d83bfdc	0.06433079
54	0xbd83d2b5	-0.064366736
55	0xbdea9c1b	-0.11455556
56	0xbe500ae0	-0.20316648
57	0xbe114460	-0.14186239
58	0xbe11d789	-0.14242376
59	0xbe604008	-0.21899426
60	0x3c9fbe49	0.019499915
61	0xbd9bcf6b	-0.07607921
62	0xbd138993	-0.036019873
63	0x3e4c6c74	0.19963247
64	0x3dfc0941	0.123064525
65	0x3dbc8c27	0.092064194
66	0x3daaf92d	0.08348308
67	0x3d504e10	0.050855696
68	0xbe4e72f1	-0.20161034
69	0xbc9aba6c	-0.018887721
70	0x3dcc3a82	0.09972097
71	0xbe0567b0	-0.13027835
72	0x3e4c9ee9	0.19982494
73	0xbc94f8dd	-0.018185074
74	0x3dfd95d4	0.12382093
75	0x3e063bfa	0.13108817
76	0x3d458bd8	0.04822907
77	0xbb90178c	-0.0043973383
78	0xbe03eedb	-0.12884085
79	0x3d030769	0.03198949
80	0x3d5eade0	0.05436504
81	0x3d6b6764	0.057471648
82	0xbe02c16e	-0.127691
83	0xbd875a17	-0.0660898
84	0x3b900c2b	0.004395982
85	0xbe0faf33	-0.14031677
86	0x3d4cbe70	0.049986303
87	0x3dbe265f	0.092846625
88	0xbc82a89a	-0.015949536
89	0xbd9d8d65	-0.076929845
90	0x3df7b72d	0.12095485
91	0x3d738351	0.059451405
92	0x3db7df7b	0.089781724
93	0xbdbc64f2	-0.09198941
94	0x3cc3d170	0.023903579
95	0x3e01d85d	0.12680192
96	0x3dc5313d	0.09628532
97	0x3d6fc5d3	0.05853827
98	0x3dfcd543	0.12345364
99	0x3b4d3c9f	0.003131665
100	0xbd52c46c	-0.051456854
101	0x3b9446ba	0.004525033
102	0x3da6584b	0.08122309
103	0xbe23887c	-0.15970033
104	0xbe147c57	-0.14500557
105	0x3c9c5a69	0.01908608
106	0x3da0ed26	0.078577325
107	0xbe00dfa1	-0.12585308
108	0xbd2cbe53	-0.042173695
109	0x3d30bdc7	0.043149736
110	0xbd1caf24	-0.038252965
111	0x3e247f91	0.16064288
112	0xbe51169d	-0.20418783
113	0x3c90f8d4	0.017696775
114	0xbe650422	-0.22364858
115	0x3e643540	0.22285938
116	0xbe0ffb4e	-0.14060709
117	0x3e223b1c	0.15842861
118	0xbdc0bbd8	-0.09410828
119	0x3d7dd0b7	0.061966624
120	0xbcb1adc2	-0.0216893
121	0xbe1105d4	-0.1416238
122	0x3cf568cc	0.029957198
123	0x3e06fc94	0.13182288
124	0x3e002309	0.12513365
125	0x3d90b996	0.07066648
126	0xbe54c578	-0.20778453
127	0x3d9b966e	0.075970516
128	0xbd74adc0	-0.059736013
129	0x3dd997cb	0.10624655
130	0xbce8dffb	-0.028427115
131	0x3d88c7ec	0.06678757
132	0xbe24d32a	-0.16096178
133	0xbd40a0eb	-0.047028463
134	0x3d98b2b8	0.07455963
135	0xbe2889ac	-0.16458768
136	0x3e48f817	0.19625889
137	0xbae3abbd	-0.0017369908
138	0xbdb0d8bd	-0.086350895
139	0xbdb011d6	-0.08597152
140	0x3e122f3b	0.1427583
141	0x3ca7bf3c	0.02047693
142	0x3e04fb45	0.12986477
143	0x3da8d4ae	0.082436904
144	0xbe189213	-0.14899473
145	0x3d73ce4e	0.05952292
146	0x3ca84f68	0.020545676
147	0x3d694380	0.05694914
148	0xbe7b5648	-0.24544632
149	0x3e06b549	0.13155092
150	0xbe28e0f2	-0.1649206
151	0xbc3a0cba	-0.011355573
152	0x3df8ac2d	0.12142215
153	0xbdf45eb7	-0.11932128
154	0xbbcda551	-0.0062758108
155	0x3c142c67	0.0090437895
156	0x3e139f10	0.14416146
157	0x3e3ebf9b	0.18627779
158	0xbddf3728	-0.10899192
159	0xbe0a3d52	-0.13499954
160	0xbbfe7458	-0.007765334
161	0x3d675359	0.05647597
162	0xbd0ea1ac	-0.03482215
163	0x3b70290d	0.0036645562
164	0x3d1658e3	0.036705863
165	0x3e0aee14	0.13567382
166	0xbe4faaef	-0.2028005
167	0x3e32f510	0.17476296
168	0xbc63e87e	-0.013910411
169	0x3ddac1bd	0.10681484
170	0x3d5a3436	0.05327245
171	0xbc1f2753	-0.0097139655
172	0xbe53c3ae	-0.20680115
173	0x3ddb8626	0.10718946
174	0x3ba0f0c0	0.004911512
175	0x3d2a5309	0.041583095
176	0x3dec1489	0.11527354
177	0xbe74e561	-0.23915626
178	0x3cb530e8	0.022118047
179	0x3dd3fa91	0.10350526
180	0x3bb52628	0.00552823
181	0x3de92c66	0.113854215
182	0xbcaf4332	-0.021394346
183	0xbd1795cc	-0.03700809
184	0xbd9dafc2	-0.07699539
185	0xbccfeeaf	-0.025382368
186	0xbe2954b2	-0.16536215
187	0x3d815006	0.063140914
188	0x3c588c36	0.013217023
189	0xbe10fa82	-0.14158061
190	0xbda2a5e2	-0.07941796
191	0xbe26bc40	-0.16282749
192	0x3e0c2a14	0.13687927
193	0x3c342d0a	0.010997066
194	0x3dc6b6d3	0.0970284
195	0xbe10b482	-0.14131358
196	0x3df42ef1	0.11923016
197	0xbdf04338	-0.11731571
198	0x3e2fc9eb	0.1716687
199	0xbcfd0953	-0.030888235
200	0x3db4bade	0.088247046
201	0x3da2f9d0	0.07957804
202	0x3b5fac84	0.0034129927
203	0xbd3fdc03	-0.04684068
204	0xbe3ed836	-0.18637165
205	0x3d4fdb38	0.050746173
206	0xbd8efadf	-0.069814436
207	0xbd7cc954	-0.06171544
208	0x3dd6d3ec	0.1048964
209	0xbcadb27e	-0.021203276
210	0x3e11092e	0.14163658
211	0x3bcb0284	0.0061953682
212	0x3de48ba1	0.111594446
213	0xbe7e9ae1	-0.24863769
214	0xbdbd1ad7	-0.09233635
215	0x3d96f7fe	0.073715195
216	0xbde03812	-0.109481946
217	0x3c96e9a9	0.018421965
218	0xbdfcd8b2	-0.12346019
219	0x3d7efad4	0.062250927
220	0x3da31232	0.07962455
221	0xbe45d4d2	-0.19319466
222	0x3e06e9b9	0.13175096
223	0xbe0ed116	-0.13946947
224	0x3e022aac	0.1271159
225	0x3d482eec	0.048872873
226	0x3cf9f727	0.03051336
227	0x3d46e898	0.048561662
228	0xbe22bf6c	-0.15893334
229	0xbda93c86	-0.08263497
230	0xbe455312	-0.1926997
231	0xbe116301	-0.14197923
232	0x3c8aa264	0.016923137
233	0xbe054524	-0.13014656
234	0xbe3a806c	-0.18213052
235	0xbdf55dce	-0.119807824
236	0x3def8277	0.11694806
237	0x3e5c823a	0.21534052
238	0x3db1b5fa	0.086772874
239	0x3e1a3a17	0.15061222
240	0x3dec23ca	0.11530264
241	0x3de31672	0.110882655
242	0xbdcdbde3	-0.10045984
243	0x3e656ef2	0.22405604
244	0xbe08ec90	-0.13371491
245	0xbd23f0c9	-0.040024552
246	0xbca9a81a	-0.02071004
247	0x3e60256e	0.21889278
248	0x3da1f823	0.079086564
249	0x3e162231	0.1466148
250	0xbd223331	-0.0395996
251	0xbe4ead55	-0.20183308
252	0x3d04fed5	0.03246959
253	0x3dc057a1	0.09391714
254	0xbe125f75	-0.14294226
255	0xbdcfd252	-0.10147537

encoder.egnn.layers.0.edge_mlp.2.bias f4 [32]
0	0x3d8ff4d0	0.07029116
1	0x3d0479c8	0.032342702
2	0x3e3cbb7e	0.18430898
3	0xbe03aee2	-0.12859681
4	0xbc18392e	-0.009290976
5	0xbd9f7fc8	-0.07788044
6	0xbba0abe5	-0.004903304
7	0x3e040ae3	0.12894778
8	0xbdb299c2	-0.08720733
9	0x3dea33e0	0.114356756
10	0xbe1c7b5e	-0.15281436
11	0xbba7eeac	-0.0051248875
12	0x3e0de09f	0.13855217
13	0x3db5df61	0.08880497
14	0xbd4b9cd9	-0.04971013
15	0x3c78cd05	0.015185599
16	0xbdc98bd4	-0.09841123
17	0x3c5e2346	0.0135582145
18	0x3e32ba08	0.17453778
19	0xbe20721a	-0.15668526
20	0x3e14c364	0.1452766
21	0x3e5ecfa3	0.21758895
22	0x3dd98918	0.10621852
23	0x3e23bfb4	0.15991098
24	0x3dfcc5fe	0.123424515
25	0xbe16d407	-0.1472932
26	0xbda5cff7	-0.08096307
27	0x3d5491ba	0.05189679
28	0xbb35d341	-0.0027744325
29	0xbdf4661d	-0.11933539
30	0x3e18fa9f	0.14939354
31	0x3e0b0754	0.13577014

encoder.egnn.layers.0.node_mlp.0.weight f4 [32, 48]
0	0xb9aea8fe	-0.00033313775
1	0x3e1192c0	0.14216137
2	0x3a957369	0.0011402193
3	0xbe097ed3	-0.13427286
4	0x3e01b80c	0.12667865
5	0x3e1fe2bb	0.15613835
6	0x3bc8f98d	0.0061332644
7	0x3d776952	0.060403176
8	0x3d1f04a6	0.038822792
9	0xbdffddce	-0.12493478
10	0xbdb195ad	-0.086711265
11	0xbdeea6dd	-0.116529204
12	0x3d1dc84a	0.03852109
13	0xbc92783a	-0.017879594
14	0x3e2e3008	0.1701051
15	0x3d607574	0.054799512
16	0x3b43a051	0.0029850195
17	0x3bd436c7	0.0064762565
18	0x3e20786a	0.15670934
19	0xbcfb2047	-0.03065504
20	0xbe19d378	-0.15022075
21	0xbd056cf4	-0.03257461
22	0x3e01d608	0.12679303
23	0x3dcb9ed3	0.09942403
24	0x3e0f646f	0.14003156
25	0x3dc530e3	0.09628465
26	0xbe31a59a	-0.17348328
27	0x3d451c45	0.048122663
28	0x3d1e7d6b	0.038693827
29	0x3df49ce5	0.11943988
30	0x3ddb80d7	0.107179336
31	0xbba01395	-0.004885147
32	0x3d3dd20e	0.046342902
33	0x3d9ba9f9	0.07600779
34	0xbd17fb9c	-0.037105188
35	0xbde7c20b	-0.11316308
36	0x3dde85da	0.10865374
37	0x3dc0bce5	0.09411029
38	0x3d8732b6	0.06601469
39	0x3dc34349	0.09534318
40	0xbc970927	-0.018436981
41	0xbd82a705	-0.06379513
42	0xbdd18d1a	-0.10231991
43	0x3caad47a	0.02085327
44	0x3e0274d5	0.1273988
45	0x3ded3575	0.11582462
46	0x3e084887	0.13308917
47	0x3dbee807	0.093215995
48	0xbdc166ed	-0.0944346
49	0xbc36cd09	-0.011157283
50	0x3d97b4df	0.07407545
51	0xbd1ac0bd	-0.037781466
52	0x3e4d314b	0.20038335
53	0x3c86dd6e	0.016463008
54	0x3d781aea	0.060572542
55	0xbdb31de9	-0.08745939
56	0x3dfa7bf1	0.12230671
57	0xbd7d660c	-0.061864898
58	0x3e260e90	0.16216493
59	0xbe3ae094	-0.18249732
60	0xbdb71d1d	-0.089411
61	0xbcd69fa7	-0.026199175
62	0x3de61ebf	0.11236333
63	0x3dc7f1f2	0.09762944
64	0xbdf3dff7	-0.11907952
65	0x3db7c7fc	0.08973691
66	0x3d8fc18c	0.07019338
67	0xbde0b6f6	-0.10972397
68	0xbc04f33b	-0.008114631
69	0x3ce04ec9	0.027381318
70	0x3d8cb025	0.068695344
71	0xbd8bf5f0	-0.06834018
72	0xbdc45faf	-0.09588563
73	0x3d618903	0.055062305
74	0xbe150539	-0.14552774
75	0x3dc84fbd	0.09780834
76	0xbd2e9889	-0.042625938
77	0x3dd85d5c	0.10564682
78	0xbd5823a1	-0.052768353
79	0xbe1ef69e	-0.15523764
80	0x3c44d336	0.012013247
81	0x3d4d3aeb	0.050105017
82	0xbdfb5cef	-0.12273585
83	0x3becc0de	0.00722514
84	0xbdf25039	-0.118317075
85	0xbd054080	-0.032532215
86	0x3d4b22f2	0.049593873
87	0xbd96a139	-0.073549695
88	0x3d4d36f0	0.05010122
89	0x3da88965	0.08229331
90	0x3e16ee3e	0.1473932
91	0x3d919017	0.07107561
92	0x3e16e144	0.1473437
93	0xbe34ddce	-0.17662737
94	0x3da919f3	0.082569025
95	0xbd22d33e	-0.039752237
96	0xbd82b275	-0.06381694
97	0x3c1e942a	0.00967888
98	0xbce8f250	-0.028435856
99	0xbb5005f9	-0.0031741841
100	0x3d711def	0.058866438
101	0x3de963b0	0.11395967
102	0xbc486250	-0.012230471
103	0x3dd0e43c	0.10199782
104	0x3ddcdfdb	0.107848845
105	0x3bf12e39	0.0073602465
106	0xbe427b81	-0.18992426
107	0xbe379827	-0.17929135
108	0x3d0cff0d	0.034422923
109	0xbd99a8f4	-0.075029284
110	0xbd733fc1	-0.059386972
111	0xbe2832b5	-0.16425593
112	0xbd0cc880	-0.0343709
113	0x3cd565dd	0.026049549
114	0xbd3e35fd	-0.046438206
115	0x3cee9699	0.029124545
116	0xbd8d9aff	-0.06914329
117	0xbd5c7e16	-0.053831182
118	0x3cb5634c	0.022142075
119	0x3d5ce1e2	0.053926356
120	0xbd2816ec	-0.041037485
121	0xbe088daa	-0.1333529
122	0x3d51e0f6	0.05123993
123	0x3dd4d155	0.103914894
124	0xbca82f16	-0.020530265
125	0xbc31e817	-0.010858557
126	0x3d8a30a8	0.06747562
127	0xbd71693f	-0.05893826
128	0x3d6b0fd6	0.05738815
129	0x3dbed745	0.09318403
130	0x3dc7df4f	0.097593896
131	0xbe8ab384	-0.27090085
132	0xbe50b2e7	-0.20380746
133	0xbaf614ce	-0.0018774511
134	0x3e3eae8e	0.18621275
135	0xbe89ee7c	-0.26939762
136	0x3e3ca3ab	0.1842181
137	0x3c8cda43	0.017193919
138	0xbdd9f0d8	-0.106416404
139	0xbe2a3e01	-0.16625215
140	0x3c7f1c39	0.015570694
141	0x3beadf52	0.007167735
142	0xbe14dd43	-0.1453753
143	0x3e286ae4	0.16447026
144	0x3dc91dfb	0.098201714
145	0xbbcb268d	-0.006199664
146	0xba1e6c1e	-0.00060433324
147	0x3d79b8dc	0.06096731
148	0xbc297010	-0.010341659
149	0x3dc9b5fe	0.098491654
150	0xbdab447c	-0.08362672
151	0xbd19455c	-0.037419662
152	0x3c3b9ba3	0.011450681
153	0xbe0fa7e9	-0.14028896
154	0x3da5f595	0.08103482
155	0xbcfeea51	-0.03111759
156	0x3db7199c	0.089404315
157	0xbdbef53e	-0.0932412
158	0xbdea8408	-0.11450964
159	0xbabf8ad7	-0.0014613521
160	0x3b6e561e	0.0036367248
161	0xbe07c4b6	-0.13258633
162	0x3ba885a8	0.005142886
163	0xbdcabb6f	-0.09899031
164	0xbbc1e1a6	-0.005916792
165	0x39a5931b	0.00031580855
166	0x3c1cfe14	0.009582061
167	0x3d16a6bb	0.0367801
168	0xbe01cb97	-0.1267532
169	0xbd856c32	-0.06514777
170	0x3e41dad2	0.1893113
171	0x3de629a2	0.112384096
172	0x3e376997	0.17911373
173	0x3c23f72b	0.01000766
174	0x3e1a9a80	0.15098
175	0xbe398439	-0.18116845
176	0xbd33f186	-0.043931507
177	0x3de0cd2f	0.10976636
178	0xbc197621	-0.009366543
179	0x3d93515c	0.071932524
180	0x3d8e3638	0.06943935
181	0x3e19b216	0.1500934
182	0xbd12cbd2	-0.03583891
183	0xbdac7cd5	-0.08422247
184	0x3e444640	0.19167423
185	0xbd84f5c9	-0.06492192
186	0x3d107064	0.035263434
187	0xbd2461c8	-0.040132314
188	0x3e11da11	0.14243342
189	0xbe2c10fc	-0.16803354
190	0xbc58a8fc	-0.013223883
191	0xbd2e7ad4	-0.042597607
192	0xbdbdd767	-0.092696
193	0x3c42e994	0.01189651
194	0x3e84031c	0.25783622
195	0xbdbde543	-0.09272244
196	0xbda2418e	-0.0792266
197	0x3d8ed2d1	0.06973804
198	0x3d924751	0.07142509
199	0x3e02f89f	0.12790154
200	0x3db37a1e	0.087635264
201	0xbcb40d5c	-0.021979026
202	0xbe08c3b9	-0.13355912
203	0x3cc01147	0.023445738
204	0x3db98de8	0.090602696
205	0xbd86213c	-0.06549308
206	0x3d8628f8	0.06550783
207	0xb9fc688d	-0.00048143082
208	0x3e4f5210	0.20246148
209	0xbc291f3c	-0.010322388
210	0x3d89e097	0.0673229
211	0x3e362b89	0.17790045
212	0xbd5c0fd1	-0.05372602
213	0xbe6f4f67	-0.23370133
214	0xbe0cc885	-0.13748367
215	0xbc9a8c2e	-0.018865671
216	0xbd3806e4	-0.044928446
217	0x3dc7de7e	0.09759234
218	0xbd30d0be	-0.043167822
219	0x3dcdb593	0.10044398
220	0xbe4b9369	-0.19880451
221	0xbdcd37eb	-0.10020431
222	0xbca04022	-0.01956183
223	0xbd04f535	-0.03246041
224	0x3e14d086	0.1453267
225	0xbdd9b4bd	-0.10630176
226	0x3dcdbae5	0.10045413
227	0x3d0a9ef4	0.033842996
228	0x3e28e9c0	0.16495419
229	0x3e1f9183	0.15582852
230	0x3c53399e	0.012892155
231	0xbe223b09	-0.15842833
232	0xbcf9b5ae	-0.03048214
233	0x3e2005c9	0.15627207
234	0xbda61948	-0.08110291
235	0xbdebd877	-0.11515897
236	0x3dd52b19	0.10408611
237	0xbd965824	-0.0734103
238	0x3e2690a1	0.16266109
239	0x3b1b7ecb	0.0023726698
240	0x3e303f1e	0.17211577
241	0x3d4c9a0c	0.049951598
242	0x3ddc3bb5	0.10753576
243	0xbe03e4e3	-0.12880282
244	0xbd9c087c	-0.07618806
245	0xbdb74884	-0.08949378
246	0x3dee5f0a	0.11639221
247	0xbd2bcc73	-0.041943025
248	0x3df3440d	0.11878214
249	0x3d6e496c	0.05817549
250	0x3dc90bab	0.098166786
251	0xbd6496f2	-0.055808015
252	0x3d6bc29d	0.057558645
253	0x3c2a4674	0.010392774
254	0x3d3dc311	0.046328608
255	0x3d082bfa	0.033245064

encoder.egnn.layers.0.node_mlp.0.bias f4 [32]
0	0x3da7b02e	0.081879005
1	0x3dddf438	0.10837597
2	0x3e2bc6a0	0.16774988
3	0xbd9ae9cd	-0.07564125
4	0x3de782e3	0.113042615
5	0x3ca05d65	0.019575784
6	0x3d4ba254	0.049715355
7	0x3b27df09	0.0025615117
8	0x3ce0cc6b	0.027441224
9	0xbe1914a9	-0.14949287
10	0xbcc9ee37	-0.024649723
11	0x3e0639d9	0.13108005
12	0x3daf7941	0.08568049
13	0xbdc06ce2	-0.09395768
14	0x3cd510e4	0.02600903
15	0xbe0bd5f6	-0.13655838
16	0x3dafb853	0.08580079
17	0x3e39b396	0.18134913
18	0xbd84ee4e	-0.064907655
19	0xbd2f0402	-0.04272843
20	0x3e160368	0.14649737
21	0xbdcfcc5d	-0.10146401
22	0xbdd43343	-0.1036134
23	0x3e1bf53b	0.15230267
24	0xbb5cc8f8	-0.0033689123
25	0xbd4e0f62	-0.05030764
26	0xbde40d0e	-0.111353025
27	0x3d1cf331	0.038317863
28	0xbcf7d04a	-0.030250687
29	0xbe261583	-0.16219144
30	0x3ca9e35f	0.020738302
31	0x3c5a3c31	0.013320015

encoder.egnn.layers.0.node_mlp.2.weight f4 [16, 32]
0	0x3e209044	0.15680033
1	0x3d5c1632	0.053732105
2	0xbc225711	-0.009908454
3	0x3d2ea221	0.042635087
4	0x3e09405b	0.13403456
5	0x3d955cd5	0.07293097
6	0x3da0d365	0.0785282
7	0x3e02ee30	0.12786174
8	0xbe266ba8	-0.16252005
9	0xbe2ba6ac	-0.16762799
10	0xbe75c997	-0.24002682
11	0xbbb769c6	-0.005597326
12	0xbe5e9d13	-0.21739607
13	0x3c9f63fd	0.019456858
14	0xbdc55b45	-0.09636549
15	0xbc98ddec	-0.018660508
16	0x3dfdec53	0.12398591
17	0x3df55ac8	0.11980206
18	0xbe3dfab5	-0.18552668
19	0xbd67d717	-0.05660161
20	0xbde330ea	-0.11093314
21	0xbe2c44b6	-0.16823086
22	0xbbf87cc8	-0.0075832345
23	0x3d55e602	0.052221306
24	0x3d5a6469	0.053318415
25	0xbdeb50d4	-0.11490026
26	0x3dd9a10e	0.10626422
27	0xbe17345f	-0.14766072
28	0xbd9141c8	-0.07092625
29	0xbd933535	-0.07187883
30	0x3e3c80f1	0.18408562
31	0x3cfe712b	0.031059822
32	0xbda88a6f	-0.08229529
33	0x3d9e4b3e	0.07729195
34	0x3e0f31b6	0.13983807
35	0x3e2d6da1	0.16936351
36	0xbe5a0057	-0.21289192
37	0x3da257bd	0.07926891
38	0xbe4ad50e	-0.19807836
39	0x3d27b7f6	0.040946923
40	0xbe12cbf5	-0.14335616
41	0x3dc3fd1e	0.09569763
42	0x3e23d35c	0.15998596
43	0x3c8cc038	0.0171815
44	0xbe965840	-0.29364204
45	0xbde4bb56	-0.11168544
46	0x3e098bfc	0.13432306
47	0x3da3f772	0.08006181
48	0x3e595fb0	0.21227908
49	0xbd8430f0	-0.064546466
50	0xbd1d1a7d	-0.03835534
51	0xbe3cf752	-0.1845372
52	0xbe66956c	-0.22517937
53	0xbd034fc7	-0.032058503
54	0xbda30880	-0.079606056
55	0xbd1535dc	-0.036428317
56	0xbe7365d0	-0.23769307
57	0x3e2f7971	0.1713617
58	0xbe61ffef	-0.22070287
59	0xbe005272	-0.1253145
60	0x3c97ebc5	0.01854504
61	0xbdbb14eb	-0.09134849
62	0xbe465ad9	-0.19370593
63	0xbe6b8ace	-0.23002169
64	0xbd82a1e8	-0.063785374
65	0xbdbaed68	-0.09127313
66	0x3d54d40c	0.051960036
67	0x3d486ad6	0.04893001
68	0x3dc0e196	0.09418027
69	0x3e073878	0.13205135
70	0xbddff40c	-0.1093522
71	0xbdac856e	-0.08423887
72	0xbd9cd379	-0.07657523
73	0x3e370a8f	0.17875122
74	0x3cbba6e5	0.02290673
75	0x3dc136c9	0.094342776
76	0xbd9133b5	-0.070899405
77	0x3df22502	0.11823465
78	0x3d96a611	0.073558934
79	0x3e055980	0.13022423
80	0x3d508fe2	0.050918467
81	0xbdacd964	-0.084399015
82	0x3d1403e1	0.03613651
83	0xbdc943c3	-0.09827378
84	0xbd3ec078	-0.04657027
85	0xbe1e64a6	-0.15468082
86	0x3d8f6f88	0.07003695
87	0xbd1b539c	-0.037921533
88	0xbd1ccef4	-0.038283303
89	0x3e6c4d4a	0.23076358
90	0xbe2d01af	-0.16895173
91	0x3e037021	0.12835743
92	0xbe096b7e	-0.13419911
93	0x3c69d4f0	0.01427196
94	0xbd788c33	-0.06068058
95	0xbd7575b4	-0.059926704
96	0xbcd609af	-0.026127664
97	0xbe0ba1d5	-0.13635953
98	0x3cbc22a9	0.022965746
99	0x3d263672	0.040579267
100	0xbe394264	-0.18091732
101	0x3c4ce8e0	0.012506694
102	0x3d612eb0	0.054976165
103	0x3e030816	0.12796053
104	0x36a845a6	5.0148983e-06
105	0x3d403649	0.04692677
106	0xbb533555	-0.0032227833
107	0x3dfb155a	0.12259932
108	0xbbe4c0f0	-0.0069810078
109	0x3e10c64f	0.14138149
110	0x3e050fbc	0.12994283
111	0xbde69376	-0.11258595
112	0xbd8fb68c	-0.0701724
113	0xbcab362e	-0.020899858
114	0x3ce386b7	0.027774198
115	0x3d9f8222	0.07788493
116	0xbd1458aa	-0.03621737
117	0x3e0c3f1a	0.13695946
118	0xbd8e7f6d	-0.06957898
119	0xbdda4edb	-0.10659572
120	0xbde489f1	-0.11159123
121	0xbe527922	-0.20554021
122	0x3e2f6677	0.17128931
123	0xbdd25ea5	-0.10271958
124	0x3dbd9f39	0.09258885
125	0xbc24718f	-0.01003684
126	0xbe0d2875	-0.13784964
127	0xbe318143	-0.17334466
128	0xbb682baa	-0.0035426416
129	0x3e0f8b7d	0.14018054
130	0x3e1c5d9e	0.15270087
131	0x3e39abfb	0.18132012
132	0xbe12ad0b	-0.14323823
133	0x3b5ac2b2	0.0033380208
134	0x3caa3c4f	0.02078071
135	0x3d8c7d44	0.0685983
136	0x3de71700	0.11283684
137	0xbe2c5b0d	-0.16831608
138	0x3e04a40d	0.12953205
139	0x3e44b5e3	0.1921001
140	0x3e568f05	0.20952995
141	0xbd81266a	-0.06306155
142	0x3ded3907	0.11583143
143	0xbd49a98d	-0.04923396
144	0x3de62641	0.11237765
145	0x3e1cf77b	0.15328781
146	0x3e15711a	0.14593926
147	0x3c8845e1	0.016634883
148	0x3d296134	0.041352466
149	0xbd42f826	-0.047599934
150	0xbe3aeba0	-0.18253946
151	0x3e3fa834	0.18716508
152	0xbde475fa	-0.11155315
153	0x3de16027	0.11004668
154	0xbe0202d6	-0.12696394
155	0x3d89285d	0.06697152
156	0x3e2fcc43	0.17167763
157	0x3cbd2ff4	0.023094155
158	0xbe50c214	-0.20386535
159	0xbe1a1af4	-0.15049344
160	0x3e1be3cd	0.15223618
161	0x3db2d193	0.08731379
162	0x3e1a2b75	0.1505564
163	0xbe2d42a8	-0.16919959
164	0xbcf84633	-0.030306911
165	0x3e291bcd	0.16514511
166	0xbce97752	-0.02849928
167	0xbdf834ae	-0.12119423
168	0xbaa8a116	-0.001286539
169	0xbdd2038d	-0.102545835
170	0xbde47a68	-0.1115616
171	0xbd9e2340	-0.07721567
172	0x3d8e18f3	0.069383524
173	0xbd9c6a4b	-0.07637461
174	0x3d96c665	0.073620595
175	0xbded253b	-0.11579367
176	0xbe1f8453	-0.15577821
177	0x3e215142	0.15753654
178	0x3dbae6b4	0.091260344
179	0x3e077ff0	0.13232398
180	0x3d7f9136	0.062394343
181	0x3c464b98	0.012102984
182	0xbdd60493	-0.10450091
183	0x3cb434e2	0.021997873
184	0x3ba8fc7f	0.005157053
185	0xbdd62690	-0.10456574
186	0x3e55345c	0.20820755
187	0x3df79daa	0.12090619
188	0x3e1f62dd	0.15565057
189	0x3cfea493	0.031084334
190	0x3d709370	0.058734357
191	0x3e6dd6ae	0.23226425
192	0xbd221432	-0.03957004
193	0x3d2f940a	0.04286579
194	0x3c7108a3	0.014711532
195	0xbd848ea3	-0.06472518
196	0xbd430501	-0.047612194
197	0xbd849f2a	-0.06475671
198	0xbe12a7b7	-0.1432179
199	0x3e63ddfa	0.22252646
200	0x3e14805b	0.14502089
201	0x3d5c4034	0.053772166
202	0x3d6f3770	0.05840248
203	0xbcb3ecca	-0.021963496
204	0x3ccefe78	0.025267825
205	0x3df86235	0.121281065
206	0xbe457285	-0.19281967
207	0xbd504963	-0.050851237
208	0xbdc35ae5	-0.09538821
209	0x3e3efbed	0.1865079
210	0xbdc15e29	-0.09441788
211	0xbc8bcdc3	-0.017065888
212	0xbd92b69e	-0.07163738
213	0x3d96c7ba	0.073623136
214	0x3ccba67d	0.024859661
215	0x3d81c3db	0.063361846
216	0x3e1cd6f4	0.15316373
217	0xbc6dafaa	-0.014507214
218	0xbe237fab	-0.1596667
219	0xbdc6d6c3	-0.09708931
220	0xbdf47ae2	-0.119375005
221	0xbb5a4372	-0.003330436
222	0xbe12e5dc	-0.14345497
223	0xbe49d1b6	-0.19708905
224	0x3dd88fc3	0.10574295
225	0x3e0c7ada	0.13718739
226	0xbe39311c	-0.1808514
227	0xbcc2f244	-0.023797162
228	0xbd5ac5d8	-0.053411335
229	0x3d9ef566	0.0776165
230	0xbdc4d1f1	-0.09610356
231	0x3e657b7a	0.22410384
232	0x3e03f453	0.12886171
233	0x3da88d6f	0.08230101
234	0x3d8e7902	0.06956674
235	0x3dd9fd7a	0.1064405
236	0x3d337d62	0.043820746
237	0xbcd34845	-0.025791297
238	0x3c16e2c6	0.00920934
239	0x3d6d159c	0.057881936
240	0xbe1138b7	-0.14181791
241	0x3e4ec983	0.20194058
242	0xbe695fe5	-0.22790487
243	0x3d9a71b6	0.0754122
244	0x3e2ef956	0.17087302
245	0xbc3d9232	-0.0115705
246	0xbda536f8	-0.08067125
247	0xbd9182a4	-0.07104996
248	0xbc1da07d	-0.009620783
249	0xbd62162b	-0.055196922
250	0xbd873b19	-0.06603069
251	0xbd35b9a2	-0.044366486
252	0xbdba814f	-0.09106695
253	0xbe223685	-0.1584111
254	0xbde6f562	-0.11277272
255	0xbd50a0e2	-0.05093468

encoder.egnn.layers.0.node_mlp.2.bias f4 [16]
0	0x36ef56c2	7.132855e-06
1	0xb796fef9	-1.8000124e-05
2	0x381b48ea	3.7022786e-05
3	0x377cc620	1.50665e-05
4	0x375dfad4	1.3231027e-05
5	0xb79e9fc5	-1.8909466e-05
6	0x36f8d594	7.4158397e-06
7	0xb6958916	-4.456505e-06
8	0x36994545	4.5678194e-06
9	0x380e1096	3.3870885e-05
10	0x377e42f3	1.5155168e-05
11	0xb7e855e0	-2.7696544e-05
12	0xb5a3ad64	-1.219491e-06
13	0x36ff0954	7.600678e-06
14	0xb6458eae	-2.9438338e-06
15	0x37e7f014	2.7649141e-05

encoder.egnn.layers.0.coord_mlp.0.weight f4 [32, 32]
0	0x3e479fa5	0.19494493
1	0xbe507e09	-0.20360579
2	0x3d4995a5	0.049214978
3	0x3d2235a9	0.039601956
4	0xbc192333	-0.009346771
5	0x3bcb23ce	0.0061993366
6	0x3de21c11	0.110405095
7	0x3e373299	0.17890395
8	0xbcb3bcc2	-0.021940593
9	0x3e0f0bde	0.1396937
10	0xbc8d9ba6	-0.017286133
11	0x3d86e275	0.06586162
12	0xbe0bdbd3	-0.13658075
13	0xbde4fd19	-0.11181087
14	0xbe8adabb	-0.27120003
15	0x3e227d3b	0.15868084
16	0xbc6fb958	-0.014631592
17	0x3d168b5e	0.036754005
18	0x3e830fe1	0.25598052
19	0x3c27edfb	0.01024961
20	0x3dea670f	0.11445438
21	0x3e57f357	0.2108892
22	0x3dee0002	0.11621095
23	0xbe55d4bd	-0.20881934
24	0x3dca26e2	0.098706976
25	0x3d975ca3	0.07390716
26	0xbea93841	-0.3305073
27	0x3daf5688	0.085614264
28	0x3d57b19a	0.05265961
29	0xbda74cd1	-0.081689484
30	0x3e3ddf74	0.18542272
31	0xbd33d442	-0.043903597
32	0x3c507c74	0.012724984
33	0xbe0f393e	-0.1398668
34	0xbd2d189e	-0.042259805
35	0xbd868b9f	-0.06569599
36	0x3d069c2f	0.032863792
37	0xbcb92b4b	-0.022603652
38	0xbdceb95b	-0.100939475
39	0x3e3558dc	0.17709678
40	0x3e416267	0.18885194
41	0x3ea731b4	0.32655108
42	0x3d5a36d6	0.053274952
43	0xbe259105	-0.16168602
44	0xbe503128	-0.20331252
45	0x3d752afe	0.059855454
46	0xbe9789c6	-0.295973
47	0x3e050d64	0.1299339
48	0x3c1bc914	0.00950839
49	0x3d2b294f	0.04178744
50	0x3e8d49b4	0.27595294
51	0x3e242e44	0.16033274
52	0xbd9d5929	-0.076830216
53	0xbdeb089e	-0.11476253
54	0x3e218f67	0.1577736
55	0xbd87b1e5	-0.066257276
56	0x3e444e6b	0.19170539
57	0xbe4e1f2b	-0.20129077
58	0xbe9a0237	-0.30079815
59	0xbcb7bef3	-0.022429919
60	0xbe4db33f	-0.20087908
61	0x3d2a15a3	0.04152454
62	0x3e418fa8	0.18902457
63	0xbdb3a22a	-0.08771165
64	0x3d3786e0	0.04480636
65	0xbe54e5d1	-0.20790793
66	0x3cc5be0e	0.024138477
67	0x3cd58196	0.026062768
68	0x3d671619	0.05641756
69	0x3e0b9825	0.13632257
70	0xbe3a9dae	-0.18224213
71	0xbe00db92	-0.1258376
72	0xbdefab0e	-0.11702548
73	0x3e4c2440	0.19935703
74	0x3e1ec7d4	0.15505916
75	0xbe0d3758	-0.13790643
76	0xbdc8a1f9	-0.09796519
77	0xbe4c5f48	-0.19958222
78	0xbd9de16c	-0.077090114
79	0xbce9b96b	-0.028530797
80	0x3e06865a	0.13137189
81	0x3dae3ca5	0.08507661
82	0x3e3959f0	0.18100715
83	0x3dc9e3f5	0.098579325
84	0xbe0f5651	-0.13997771
85	0x3e03ac1a	0.1285862
86	0x3cf06997	0.029347224
87	0xbe166b8e	-0.14689466
88	0x3e2f5973	0.17123966
89	0xbe2c09aa	-0.16800562
90	0xbe41c62b	-0.18923251
91	0xbe4b4f60	-0.19854498
92	0xbc633a5c	-0.013868894
93	0xbdeee932	-0.11665572
94	0x3dd2d60f	0.10294735
95	0xbc65d35e	-0.014027445
96	0x3e615147	0.22003661
97	0x3daff8fb	0.08592411
98	0x3e2240e6	0.1584507
99	0x3e4de8af	0.20108293
100	0x3e122ccf	0.14274906
101	0xbdf08018	-0.11743182
102	0xbcd8b985	-0.02645565
103	0x3e1a39dc	0.15061134
104	0x3d8cded9	0.06878442
105	0x3e894a2d	0.26814404
106	0xbd04228a	-0.0322595
107	0xbd9cd8b7	-0.076585226
108	0xbd8b775b	-0.068098746
109	0xbd8b834a	-0.06812151
110	0xbd21eeeb	-0.03953449
111	0xbe020bfc	-0.12699884
112	0x3d52e6ba	0.05148957
113	0xbe436481	-0.19081308
114	0x3e779fcc	0.24182051
115	0x3e0da71f	0.13833283
116	0x3dba81bf	0.09106778
117	0x3e0e3510	0.13887429
118	0xbd50435a	-0.05084548
119	0xbe4287d8	-0.18997133
120	0x3e42747d	0.18989749
121	0xbd522eb5	-0.051314075
122	0xbca1b18e	-0.019737985
123	0x3ddee31f	0.10883164
124	0x3dde806f	0.108643405
125	0x3d63ec77	0.055645432
126	0x3e351e29	0.17687286
127	0xbe39a0f6	-0.18127808
128	0x3e1fe1b7	0.15613447
129	0xbdaa8e9e	-0.08327983
130	0xbd8d1463	-0.06888654
131	0x3d6bb57f	0.057546135
132	0xbc9abcab	-0.018888792
133	0xbdedd920	-0.11613679
134	0xbc1de2ef	-0.009636625
135	0xbd32bed0	-0.043639004
136	0x3e48b158	0.19598901
137	0x3ecab4b0	0.3959098
138	0xbd0b85c8	-0.03406313
139	0xbdf7effc	-0.1210632
140	0xbd0a47c5	-0.03375985
141	0x3c05a04d	0.0081558945
142	0xbe6cc6bf	-0.2312269
143	0x3e0501f0	0.1298902
144	0x3e07ac9e	0.13249442
145	0xbd845f3d	-0.06463478
146	0x3e3250c4	0.17413622
147	0x3e2313f7	0.15925585
148	0xbc98a118	-0.018631503
149	0x3e4c72a4	0.19965607
150	0x3d412756	0.047156654
151	0xbceaf87c	-0.02868294
152	0x3d8e4d5f	0.06948351
153	0x3e0e5213	0.13898496
154	0xbe940a23	-0.28913984
155	0xbe0b15d6	-0.13582548
156	0x3d8bbe1f	0.06823372
157	0xbda8bc0f	-0.08238994
158	0xbca385d5	-0.019961277
159	0xbd3b505d	-0.045730937
160	0xbc184304	-0.0092933215
161	0xbd924d7d	-0.07143686
162	0x3e12e556	0.14345297
163	0xbd965f46	-0.07342391
164	0x3e236ee5	0.15960272
165	0xbcec6d69	-0.028860765
166	0xbd7172d7	-0.05894741
167	0x3c5456cc	0.012960147
168	0x3e0dbfdb	0.13842718
169	0x3e737b7a	0.23777571
170	0x3e094c5b	0.13408034
171	0xbd0e6932	-0.03476829
172	0xbd01ba1b	-0.031671625
173	0xbde48362	-0.11157872
174	0xbd8794b9	-0.066201635
175	0xbddd3ad4	-0.10802236
176	0xbce19372	-0.027536128
177	0xbdccde0f	-0.10003292
178	0x3e31d43c	0.17366117
179	0x3dc2f649	0.095196314
180	0x3cfbfa4a	0.030758996
181	0x3e35f4d8	0.17769182
182	0x3e4ace84	0.19805342
183	0x3c9dd381	0.019265892
184	0xbdb6b6bc	-0.089215726
185	0x3d80812f	0.0627464
186	0xbd28563d	-0.04109787
187	0x3da89fc8	0.08233601
188	0xbdfeb668	-0.12437135
189	0xbd77e6e0	-0.060522914
190	0x3d6bb288	0.057543308
191	0xbd4f80a8	-0.050659806
192	0xbdea1f3b	-0.11431738
193	0xbe04684a	-0.12930408
194	0x3a8834c1	0.0010391698
195	0x3dd147f6	0.102188036
196	0x3e1db003	0.15399174
197	0x3e13dcb4	0.1443966
198	0x3d0c4cbd	0.03425287
199	0x3e2bb908	0.16769803
200	0xbdbdacea	-0.09261496
201	0x3ddb2b53	0.10701623
202	0x3e208ecb	0.15679471
203	0x3db43228	0.08798629
204	0xbd5591c6	-0.052140974
205	0xbc74a8e7	-0.014932848
206	0xbea67127	-0.32508203
207	0xbd591ceb	-0.053006094
208	0x3d643086	0.055710338
209	0xbe452fc6	-0.19256505
210	0x3eab541f	0.33462617
211	0x3d69437c	0.056949124
212	0xbd908f45	-0.070585765
213	0x3b0a431c	0.002109713
214	0x3e81a98b	0.25324664
215	0xbe247070	-0.16058517
216	0x3e0fb020	0.1403203
217	0xbd95bab4	-0.073110014
218	0xbe6f8a44	-0.23392588
219	0xbd8c8d5d	-0.068629004
220	0xbde16a0b	-0.11006554
221	0xbe5166ab	-0.20449321
222	0xbd77bfcb	-0.060485642
223	0xbda7879f	-0.081801645
224	0x3d93e453	0.07221284
225	0xbd0291d1	-0.031877343
226	0x3b6dd93f	0.003629282
227	0xbd7c15d3	-0.06154425
228	0x3c028597	0.007966421
229	0x3dceba67	0.10094147
230	0xbd6a54d6	-0.057209812
231	0x3d8de2d7	0.06928032
232	0x3e02bbc4	0.1276694
233	0x3d949e12	0.07256712
234	0x3dba6e58	0.09103078
235	0x3d98a480	0.07453251
236	0xbdc906ac	-0.09815726
237	0xbe05e54d	-0.13075753
238	0xbe290b24	-0.16508156
239	0xbd90f238	-0.070774496
240	0x3d6e48af	0.058174785
241	0x3dc82215	0.09772126
242	0xb75b8864	-1.3085173e-05
243	0xbbaf5243	-0.0053503825
244	0x3ce2ff96	0.027709763
245	0xbd7e91e8	-0.062150866
246	0x3dd85c14	0.105644375
247	0xbe0da2a0	-0.13831568
248	0x3ddf7462	0.1091087
249	0x3c941c63	0.018079942
250	0xbdac86f5	-0.084241785
251	0xbb3809ea	-0.002808208
252	0xbc1d9571	-0.009618149
253	0xbd523ca2	-0.051327355
254	0x3d09ee3f	0.033674475
255	0x3d99cbec	0.07509598
