log/geometric_graph/grid/checkpoints/last_model.ckpt (torch, 101714 bytes, 35 tensors)

target_coord f4 [256, 2]
00000000: d440 d0bf d440 d03f 747c b4bf d440 d03f
00000010: 13b8 98bf d440 d03f 65e7 79bf d440 d03f
00000020: a45e 42bf d440 d03f e3d5 0abf d440 d03f
00000030: 439a a6be d440 d03f 0523 debd d440 d03f
00000040: 0523 de3d d440 d03f 439a a63e d440 d03f
00000050: e3d5 0a3f d440 d03f a45e 423f d440 d03f
00000060: 65e7 793f d440 d03f 13b8 983f d440 d03f
00000070: 747c b43f d440 d03f d440 d03f d440 d03f
00000080: d440 d0bf 747c b43f 747c b4bf 747c b43f
00000090: 13b8 98bf 747c b43f 65e7 79bf 747c b43f
000000a0: a45e 42bf 747c b43f e3d5 0abf 747c b43f
000000b0: 439a a6be 747c b43f 0523 debd 747c b43f
000000c0: 0523 de3d 747c b43f 439a a63e 747c b43f
000000d0: e3d5 0a3f 747c b43f a45e 423f 747c b43f
000000e0: 65e7 793f 747c b43f 13b8 983f 747c b43f
000000f0: 747c b43f 747c b43f d440 d03f 747c b43f
00000100: d440 d0bf 13b8 983f 747c b4bf 13b8 983f
00000110: 13b8 98bf 13b8 983f 65e7 79bf 13b8 983f
00000120: a45e 42bf 13b8 983f e3d5 0abf 13b8 983f
00000130: 439a a6be 13b8 983f 0523 debd 13b8 983f
00000140: 0523 de3d 13b8 983f 439a a63e 13b8 983f
00000150: e3d5 0a3f 13b8 983f a45e 423f 13b8 983f
00000160: 65e7 793f 13b8 983f 13b8 983f 13b8 983f
00000170: 747c b43f 13b8 983f d440 d03f 13b8 983f
00000180: d440 d0bf 65e7 793f 747c b4bf 65e7 793f
00000190: 13b8 98bf 65e7 793f 65e7 79bf 65e7 793f
000001a0: a45e 42bf 65e7 793f e3d5 0abf 65e7 793f
000001b0: 439a a6be 65e7 793f 0523 debd 65e7 793f
000001c0: 0523 de3d 65e7 793f 439a a63e 65e7 793f
000001d0: e3d5 0a3f 65e7 793f a45e 423f 65e7 793f
000001e0: 65e7 793f 65e7 793f 13b8 983f 65e7 793f
000001f0: 747c b43f 65e7 793f d440 d03f 65e7 793f
00000200: d440 d0bf a45e 423f 747c b4bf a45e 423f
00000210: 13b8 98bf a45e 423f 65e7 79bf a45e 423f
00000220: a45e 42bf a45e 423f e3d5 0abf a45e 423f
00000230: 439a a6be a45e 423f 0523 debd a45e 423f
00000240: 0523 de3d a45e 423f 439a a63e a45e 423f
00000250: e3d5 0a3f a45e 423f a45e 423f a45e 423f
00000260: 65e7 793f a45e 423f 13b8 983f a45e 423f
00000270: 747c b43f a45e 423f d440 d03f a45e 423f
00000280: d440 d0bf e3d5 0a3f 747c b4bf e3d5 0a3f
00000290: 13b8 98bf e3d5 0a3f 65e7 79bf e3d5 0a3f
000002a0: a45e 42bf e3d5 0a3f e3d5 0abf e3d5 0a3f
000002b0: 439a a6be e3d5 0a3f 0523 debd e3d5 0a3f
000002c0: 0523 de3d e3d5 0a3f 439a a63e e3d5 0a3f
000002d0: e3d5 0a3f e3d5 0a3f a45e 423f e3d5 0a3f
000002e0: 65e7 793f e3d5 0a3f 13b8 983f e3d5 0a3f
000002f0: 747c b43f e3d5 0a3f d440 d03f e3d5 0a3f
00000300: d440 d0bf 439a a63e 747c b4bf 439a a63e
00000310: 13b8 98bf 439a a63e 65e7 79bf 439a a63e
00000320: a45e 42bf 439a a63e e3d5 0abf 439a a63e
00000330: 439a a6be 439a a63e 0523 debd 439a a63e
00000340: 0523 de3d 439a a63e 439a a63e 439a a63e
00000350: e3d5 0a3f 439a a63e a45e 423f 439a a63e
00000360: 65e7 793f 439a a63e 13b8 983f 439a a63e
00000370: 747c b43f 439a a63e d440 d03f 439a a63e
00000380: d440 d0bf 0523 de3d 747c b4bf 0523 de3d
00000390: 13b8 98bf 0523 de3d 65e7 79bf 0523 de3d
000003a0: a45e 42bf 0523 de3d e3d5 0abf 0523 de3d
000003b0: 439a a6be 0523 de3d 0523 debd 0523 de3d
000003c0: 0523 de3d 0523 de3d 439a a63e 0523 de3d
000003d0: e3d5 0a3f 0523 de3d a45e 423f 0523 de3d
000003e0: 65e7 793f 0523 de3d 13b8 983f 0523 de3d
000003f0: 747c b43f 0523 de3d d440 d03f 0523 de3d
-1.6269784 1.6269784 -1.410048 1.6269784 -1.1931175 1.6269784 -0.97618705 1.6269784
-0.7592566 1.6269784 -0.54232615 1.6269784 -0.32539567 1.6269784 -0.10846523 1.6269784
0.10846523 1.6269784 0.32539567 1.6269784 0.54232615 1.6269784 0.7592566 1.6269784
0.97618705 1.6269784 1.1931175 1.6269784 1.410048 1.6269784 1.6269784 1.6269784
-1.6269784 1.410048 -1.410048 1.410048 -1.1931175 1.410048 -0.97618705 1.410048
-0.7592566 1.410048 -0.54232615 1.410048 -0.32539567 1.410048 -0.10846523 1.410048
0.10846523 1.410048 0.32539567 1.410048 0.54232615 1.410048 0.7592566 1.410048
0.97618705 1.410048 1.1931175 1.410048 1.410048 1.410048 1.6269784 1.410048
-1.6269784 1.1931175 -1.410048 1.1931175 -1.1931175 1.1931175 -0.97618705 1.1931175
-0.7592566 1.1931175 -0.54232615 1.1931175 -0.32539567 1.1931175 -0.10846523 1.1931175
0.10846523 1.1931175 0.32539567 1.1931175 0.54232615 1.1931175 0.7592566 1.1931175
0.97618705 1.1931175 1.1931175 1.1931175 1.410048 1.1931175 1.6269784 1.1931175
-1.6269784 0.97618705 -1.410048 0.97618705 -1.1931175 0.97618705 -0.97618705 0.97618705
-0.7592566 0.97618705 -0.54232615 0.97618705 -0.32539567 0.97618705 -0.10846523 0.97618705
0.10846523 0.97618705 0.32539567 0.97618705 0.54232615 0.97618705 0.7592566 0.97618705
0.97618705 0.97618705 1.1931175 0.97618705 1.410048 0.97618705 1.6269784 0.97618705
-1.6269784 0.7592566 -1.410048 0.7592566 -1.1931175 0.7592566 -0.97618705 0.7592566
-0.7592566 0.7592566 -0.54232615 0.7592566 -0.32539567 0.7592566 -0.10846523 0.7592566
0.10846523 0.7592566 0.32539567 0.7592566 0.54232615 0.7592566 0.7592566 0.7592566
0.97618705 0.7592566 1.1931175 0.7592566 1.410048 0.7592566 1.6269784 0.7592566
-1.6269784 0.54232615 -1.410048 0.54232615 -1.1931175 0.54232615 -0.97618705 0.54232615
-0.7592566 0.54232615 -0.54232615 0.54232615 -0.32539567 0.54232615 -0.10846523 0.54232615
0.10846523 0.54232615 0.32539567 0.54232615 0.54232615 0.54232615 0.7592566 0.54232615
0.97618705 0.54232615 1.1931175 0.54232615 1.410048 0.54232615 1.6269784 0.54232615
-1.6269784 0.32539567 -1.410048 0.32539567 -1.1931175 0.32539567 -0.97618705 0.32539567
-0.7592566 0.32539567 -0.54232615 0.32539567 -0.32539567 0.32539567 -0.10846523 0.32539567
0.10846523 0.32539567 0.32539567 0.32539567 0.54232615 0.32539567 0.7592566 0.32539567
0.97618705 0.32539567 1.1931175 0.32539567 1.410048 0.32539567 1.6269784 0.32539567
-1.6269784 0.10846523 -1.410048 0.10846523 -1.1931175 0.10846523 -0.97618705 0.10846523
-0.7592566 0.10846523 -0.54232615 0.10846523 -0.32539567 0.10846523 -0.10846523 0.10846523
0.10846523 0.10846523 0.32539567 0.10846523 0.54232615 0.10846523 0.7592566 0.10846523
0.97618705 0.10846523 1.1931175 0.10846523 1.410048 0.10846523 1.6269784 0.10846523

init_coord f4 [256, 2]
00000000: 8b40 29bf 26cc cf3d 974f 92be 45c7 92bf
00000010: be34 973d dc43 8abf f8fb 103f b8c9 9a3e
00000020: 0601 bc3e 4acb 983e e34e efbe c489 bc3e
00000030: ae5d b5be c591 443f f026 2cbf 35a6 46be
00000040: 4b9d 8ebe a760 75be c86f abbe 3def eabe
00000050: c473 873e 793e b03e 4a73 bbbf df0d ee3e
00000060: e450 fe3e 51ca 16bf 14c7 69bf 5a93 9e3e
00000070: 62dd f1be 9f2c a3be a137 b33d d9b0 b63e
00000080: 7878 113f d044 08bf 0c7e 383e f283 933e
00000090: 6992 5cbe d551 95be ec9b 863d e501 0dbf
000000a0: b718 93be c5a6 3abe 441c 973e 8a9e 393d
000000b0: 9f0c 9f3e c0b2 283f bbee 4f3f 2e42 ccbe
000000c0: 569f d4bb e0cc b2be 2f27 da3d 016f 183e
000000d0: 3480 f33d 324d 2abf 1bb2 d8be 5035 19bf
000000e0: 43d8 cbbe 94b2 7e3e db4e 8bbe ca9f 103f
000000f0: c531 323e 5f7a 0d3f 0e5e 1fbe afa9 9e3e
00000100: 5c1b d93e 19f8 183f bc75 5cbf e5e2 4bbe
00000110: 6f0f 163f 7c6e 9b3c 5e52 7a3f 7a2b bd3e
00000120: 7e0c a7bd 0ff7 b93d a752 22be dff1 79bf
00000130: f5da 50bf 6a89 01bf 6a07 11bf 60a5 96be
00000140: 39d5 fdbd 0a3a 563e 5b00 723f a815 5f3f
00000150: ad20 8c3e 7603 b53e e8ea 3a3e 52ab 803f
00000160: 90b2 79bf e9f3 f2be fe56 2a3f 70cc c3be
00000170: c7dd 47bf 3d5f 30bf c451 4d3f 1dd9 d4be
00000180: 81ea 31bf 214d a9be 186c 1abf 98a9 1f3f
00000190: 9c70 073f a809 323e 15e7 95bd 2058 1ebf
000001a0: c142 983e 598f ea3d ca58 c3be 4e47 f2bc
000001b0: 42bd 783f 6c53 51be de76 043f ea75 533e
000001c0: c393 853f 3810 babe 02ee 803f b03f e0be
000001d0: bb14 2abf 37d5 f5bc 6845 1bbf 48ad 613e
000001e0: 97a1 96be 22db 3d3f 3a4a a33e 2b67 703e
000001f0: 0a91 e1be 6d2f 73be cf75 f73b a828 0b3f
00000200: 2b40 27be 43c4 f1be b9d4 28bf 9374 27bf
00000210: 46c3 dbbd 3d04 b2be 4480 c6bc 4389 783e
00000220: f17e 9e3e 10cb 24be 78f5 d5be 76e6 d63e
00000230: 6b37 4d3e f47a a5be 53b5 9dbe 98e1 02bf
00000240: a7c2 c23e e4ff 45bd 09a0 77bd 566e 7ebf
00000250: e228 383e 705f 093f f97e adbe 0c18 fd3c
00000260: 1b0e cb3c ccfa 82bd 5416 aa3e d293 d9be
00000270: 5ab5 07bf 6fe9 7abe 2adb d3ba 6bf8 aabe
00000280: 2ebe 3cbf 9d1b a1bd 01ce d7bd 0b93 e7be
00000290: 2113 12be 9acc ecbe 5062 9f3e 05a8 2abe
000002a0: 42b1 0abf ebba cebd a440 a83d 625a db3e
000002b0: 424f 583f 3ae6 10be a824 37be 41d4 6fbe
000002c0: 6da4 3e3f e1be d5be b483 79be 2e7a 433f
000002d0: 8a92 03bf 0be2 d03e bed7 163f 0672 e63e
000002e0: 3e98 073e 4ddf c13e 8cc5 89be 9964 5e3f
000002f0: 7e66 15bf bea6 303e f7eb 2cbf 2f5f bfbe
00000300: bc6e 00bc 8374 2f3f 62f7 12bf fc96 a43d
00000310: 5e84 f43c dfe3 163e 29d3 cdbc 66d2 e33d
00000320: 7d20 24bd 4b32 a0be 8360 473f 849b 213f
00000330: 2b68 863e b07c e8be 9fc2 10bf 60a9 38bf
00000340: 5a07 803e 8bde 0dbf 0f4f 9f3e 629a 623f
00000350: f884 b4bd 8234 c93c f1d4 a53c 5c89 e53e
00000360: cc74 d33e e9ca f8be 4717 76bf ba08 1fbf
00000370: 1e6e 00be 320a 8dbe 01da 993d 7014 463f
00000380: bae5 3a3d 127b 7fbe 1225 04bf f1c5 8ebb
00000390: 1d62 753f f0c6 4a3f c732 efbe f85c cc3e
000003a0: c620 a43e 8745 043f 4b10 cbbd e539 57be
000003b0: f492 82be 6058 3b3f 5f65 b2be a08b 20bf
000003c0: cfa8 95be 2365 573e 16bb 6fbd 6587 cdbe
000003d0: bbda b4be b624 153f 9138 86bd 15d9 51bf
000003e0: 91a0 7dbe a8cd 683e 0bf1 ce3e 5b8b 06bf
000003f0: 1e5b d93e 3545 8b3e b359 94be bf22 f63d
-0.6611411 0.1014636 -0.28576347 -1.1467062 0.07383107 -1.0801959 0.56634474 0.30232024
0.3671953 0.29842597 -0.46739873 0.36823857 -0.35423034 0.76784927 -0.67246914 -0.1939934
-0.2785438 -0.23962651 -0.3348372 -0.4588565 0.2645551 0.34422663 -1.4644558 0.46494958
0.4967109 -0.5890246 -0.91319394 0.30971795 -0.47239214 -0.3186998 0.08750845 0.356818
0.56824446 -0.5323 0.18016833 0.28811604 -0.21540226 -0.29163995 0.065727085 -0.55081016
-0.28729793 -0.1822768 0.29513752 0.04531721 0.31064317 0.6589775 0.8122365 -0.3989424
-0.006488721 -0.34921932 0.10652005 0.14886095 0.11889687 -0.6652404 -0.42323384 -0.59846973
-0.39813432 0.2487281 -0.272086 0.5649382 0.17401798 0.5526485 -0.15563223 0.30988833
0.42403686 0.59753567 -0.8611715 -0.19910772 0.586173 0.018973581 0.9778193 0.36947232
-0.081566796 0.09080326 -0.15851842 -0.9763469 -0.815841 -0.506003 -0.5665194 -0.29423046
-0.123941846 0.20920578 0.9453179 0.8714242 0.2736868 0.35354203 0.18253672 1.0052283
-0.9753809 -0.47451714 0.6653899 -0.3824191 -0.7807278 -0.6889532 0.8020289 -0.41571894
-0.6949845 -0.33066657 -0.6032119 0.62368155 0.52906203 0.17386496 -0.07319466 -0.6185322
0.2973843 0.11453123 -0.38153678 -0.029575016 0.97163785 -0.20441979 0.51743877 0.2065045
1.0435718 -0.363405 1.0072634 -0.4379859 -0.6643788 -0.030008895 -0.6065278 0.22038758
-0.29420158 0.74162495 0.31892568 0.23476855 -0.4405597 -0.2374856 0.0075518857 0.5435891
-0.16333072 -0.47220048 -0.6594959 -0.65412253 -0.10730605 -0.3476886 -0.024231084 0.24271111
0.30956224 -0.16093087 -0.4178884 0.41972703 0.20040672 -0.32320368 -0.30802402 -0.5112548
0.38039133 -0.04833974 -0.060455356 -0.9938711 0.17984346 0.5366125 -0.33885935 0.030895256
0.024787 -0.06395492 0.3322016 -0.4249559 -0.53011096 -0.2450311 -0.0016163338 -0.33392653
-0.7372769 -0.07866595 -0.10537339 -0.45229372 -0.1426511 -0.4624985 0.31129694 -0.16665657
-0.54176724 -0.100942455 0.08215454 0.42842394 0.8449594 -0.14150324 -0.17885077 -0.23420812
0.74469644 -0.41747192 -0.24366647 0.76358306 -0.51395476 0.40797457 0.58922946 0.45008868
0.1324167 0.37865677 -0.2690853 0.8687225 -0.58359516 0.17251107 -0.67547554 -0.37377307
-0.007838901 0.6853716 -0.57408726 0.080366105 0.029848274 0.14735363 -0.025125103 0.11124115
-0.040070046 -0.3128837 0.7788164 0.63127923 0.2625135 -0.4540763 -0.5654697 -0.72133446
0.2500561 -0.554177 0.31115004 0.8851682 -0.08814424 0.02456117 0.02024314 0.4483136
0.41300046 -0.48592308 -0.9612927 -0.6212269 -0.12542006 -0.2754684 0.07512284 0.77374935
0.04562924 -0.24949291 -0.51619065 -0.0043570925 0.95852834 0.79209805 -0.46718428 0.3991468
0.32056254 0.5166859 -0.09915217 -0.21018179 -0.2550274 0.73181725 -0.34842965 -0.6271305
-0.29230353 0.21034674 -0.05852803 -0.4014236 -0.35323128 0.5825914 -0.06553758 -0.81971866
-0.24768282 0.22734702 0.40418276 -0.5255639 0.4245233 0.27201238 -0.28974685 0.12018346

encoder.egnn.layers.0.edge_mlp.0.weight f4 [32, 33]
00000000: 51cd 1bbd 9c49 1ebe f629 a5bd aaf3 fd3d
00000010: a376 0abd 9a21 193e 1b4f 883d 6331 b23d
00000020: 7632 6cbd 96df f53d 5002 083e 5b24 5f3e
00000030: 2605 76bd 6627 ac3c 6fd8 36be fc55 2cbd
00000040: 26b5 cfbc ce8e 19be 65ab cfbb 0ab2 093e
00000050: cef3 223e 6b86 4abd 0e25 073e 6b14 30be
00000060: dc5e 9a3d b51c 05be 786b 083b 6f2c ccbd
00000070: 02d8 9b3c afaa 5e3e 7673 f83d 6e53 893d
00000080: 4db4 29be 116e 5cbd 2880 b53d 01d8 bc3d
00000090: 0a01 0bbe 5eb8 c33d 77e8 093e 7bb7 b43d
000000a0: c104 073e af6f 033e 9247 eb3d 0f60 86bd
000000b0: 9576 4ebe 963c 3d3d 3d68 7abd 1c0e ae3d
000000c0: e9bb c03d c89a 27bb b328 1cbe 892c 46be
000000d0: dc53 153e a686 39be 34e7 693d 3213 d73d
000000e0: 5620 4ebe 3cb1 103e a352 293e 5b8a acbd
000000f0: 75af d1bd eb88 08bc 406a 71be 1044 4dbd
00000100: f517 64bc f598 82be 3437 3f3d 87e9 ee3d
00000110: 7eb3 193e 9998 d13d ed72 d73d d74b 5bbe
00000120: ef49 eb3d 8510 15be ef67 14be 5eeb 25be
00000130: bca2 dd3d c5e4 693c 3882 f93d dc50 c23b
00000140: 503d 4e3d 7c52 14bc 78a5 4fbe d677 47be
00000150: 9b62 8f3b 2d8c 32bd 6b0d 02be 215f b1bb
00000160: 6dbc 12be 1425 41bd bb51 0f3d b7cb b0bd
00000170: 1bda 81bd a2d8 c93d 99b2 1abe f9f9 293e
00000180: 1be2 47be a25a e9bd ad81 82bc 1df7 bbbd
00000190: d27b 873d d0f3 8dbd 81f5 bdbd 56fe 52be
000001a0: e714 47bd 62e4 0ebb 768d a7bd 3c0d 34bd
000001b0: 94b8 32be 5239 6e3d abc0 173e cddc 55be
000001c0: 83d6 213d d6ca e9bd 09ee e5bd 790d 3ebe
000001d0: 0b13 e2bd 0407 243e 08c7 d93d b6db 78bc
000001e0: 934b 23bd 67f8 dfbc 5d4d 6cbe e210 52be
000001f0: 1948 12be 58e5 313e 4464 173d 161d 713d
00000200: 9cb8 4c3e 5fac 023c 2f76 31bd 246f 943d
00000210: b42d e23d c445 1b3e 1b1f b53c 8449 33be
00000220: ae3e 943d 31eb 0cbe 62db 14be bba8 f8bd
00000230: 2b47 74bd 5b5a 083e 08e4 debd 5e88 43be
00000240: 93cc 5cbc cd9d 0b3d 57ec 173e 4912 9cbd
00000250: 1c08 8ebd 81af 43be 3ea3 2ebe 4a54 353d
00000260: ff84 f1bd f95a 743e 17d7 9abe f835 8ebd
00000270: a2c3 8e3e fd22 eb3d 041e 923d c077 b53d
00000280: 4718 673e 84d5 c5bd 16da 52bc c926 d83c
00000290: 5d10 cdbc 385d 78bc 474d 223e f9ca b73c
000002a0: caec 0f3d d849 403e b3fb 05be 1cc9 6bbd
000002b0: d31d e63c c10e 21be ac48 b83d efda e63c
000002c0: 88ce ebbd f5c8 10be acc5 d43c b8e4 19bd
000002d0: 4751 3ebe 9648 aebd e836 c83d ae1a 1dbe
000002e0: 8ec8 3dbe e2ab 1ebe 1741 33bc 101e 64be
000002f0: 173a e33c 73e6 16be 57bd 003e 9b10 a3bd
00000300: 2288 ef3d d82e 39be 6be0 a83d 5cb0 a5bd
00000310: 40eb 463d d82c 10be 4ea0 b73e 0a97 09bd
00000320: 49ce 3bbd d22b 0a3d 6c1a 0b3e 4526 31be
00000330: 9a47 1ebe 205c 03be b7a8 31bd 7108 adbe
00000340: 3be1 753e 96b6 3dbe b49b 55bc ad32 103e
00000350: a260 ecbc 3db2 45bd a692 943e 2fb9 aabc
00000360: 9fb6 883e be5b 30be 4c30 23be 8226 10be
00000370: 9d1d 023e 7e45 b1bd 6d89 0bbe 66fe 99bd
00000380: 4f3f 203e 79f6 583e 7875 353e 0a5c b5bb
00000390: 4e23 443b 4cc0 cf3d 018e b03e de3f cb3d
000003a0: 2035 273c 8f4e c0bd b012 65bc c219 f83b
000003b0: 81fc 843c e317 453e b04f f7bd 39fb 193e
000003c0: c61c f2bd d642 0f3c 94fd b83c f823 1a3e
000003d0: 7556 333d 663f 9e3c a451 cbbd bf2d a4bd
000003e0: 6321 42be 2ea4 18bd 478d 83bd db5c 4fbd
000003f0: 875a e9bd e266 b8bd be46 48bd 2c32 033e
-0.0380376 -0.15457767 -0.08064644 0.12399991 -0.033804547 0.14954224 0.06655713 0.08700826
-0.05766531 0.12005536 0.13282132 0.21791212 -0.060063504 0.02101488 -0.17856 -0.04207419
-0.025354933 -0.14995882 -0.0063375705 0.13446823 0.15913317 -0.049444597 0.13197729 -0.17195289
0.07537624 -0.12999232 0.002081601 -0.099694125 0.019023899 0.21744798 0.121313974 0.06705366
-0.16572686 -0.053815905 0.088623345 0.09220887 -0.13574615 0.095566496 0.13467585 0.088240586
0.13185407 0.12835573 0.1148826 -0.065612905 -0.20162423 0.046200357 -0.061134566 0.08498785
0.09410841 -0.0025574435 -0.152499 -0.19352926 0.14582771 -0.1811777 0.057105258 0.10501708
-0.20129523 0.1413011 0.1653543 -0.08424827 -0.10238544 -0.008333425 -0.23575687 -0.050113738
-0.013921727 -0.25507322 0.046683505 0.116656356 0.15009877 0.10234184 0.10519967 -0.2141565
0.11488711 -0.14557083 -0.14492773 -0.16203067 0.10822055 0.014275734 0.121830404 0.0059300493
0.05035144 -0.009052869 -0.20277965 -0.19479308 0.0043757684 -0.043590713 -0.12700431 -0.0054129516
-0.14329691 -0.0471545 0.034990054 -0.086326055 -0.063404284 0.098557726 -0.15107192 0.16599263
-0.19519846 -0.1139424 -0.015930975 -0.091779925 0.06615414 -0.06931269 -0.09275342 -0.20604834
-0.04860392 -0.0021803607 -0.081812784 -0.043957934 -0.17453223 0.058160134 0.14819591 -0.2088501
0.039511215 -0.11415641 -0.11227042 -0.18559827 -0.110387884 0.16018301 0.10633665 -0.015189102
-0.039866995 -0.027340127 -0.23076387 -0.20514253 -0.14285316 0.17372644 0.036960855 0.05886563
0.19992298 0.007975667 -0.0433256 0.07247761 0.110438734 0.15163332 0.022109559 -0.17508513
0.07238518 -0.13761593 -0.14536813 -0.12141558 -0.059638184 0.13315718 -0.10883337 -0.19094989
-0.013476509 0.034086037 0.1483625 -0.07620675 -0.069351405 -0.19109918 -0.1705446 0.044269837
-0.11792945 0.23862828 -0.30242226 -0.069438875 0.2788363 0.11481283 0.07134631 0.08860731
0.22567855 -0.096598655 -0.012869379 0.026385682 -0.025032217 -0.015158944 0.15849791 0.022435652
0.03513793 0.18778169 -0.13084297 -0.05756484 0.028090393 -0.15728284 0.08998236 0.028180568
-0.11514002 -0.14139159 0.025973164 -0.03757164 -0.18585692 -0.085099384 0.097760975 -0.15342209
-0.18533537 -0.15495256 -0.010940812 -0.22277093 0.02773766 -0.14736347 0.12572227 -0.079621516
0.11695887 -0.18084276 0.08245929 -0.080902785 0.048564196 -0.14079607 0.3586449 -0.033591308
-0.045851026 0.033733197 0.13584298 -0.17299755 -0.15457001 -0.12828112 -0.04337379 -0.33795503
0.240117 -0.18526682 -0.013037611 0.14081831 -0.028854672 -0.048265684 0.29018134 -0.020840256
0.2670183 -0.17222497 -0.15936393 -0.1407719 0.12706609 -0.08655833 -0.13626643 -0.07519226
0.1564915 0.21187772 0.17720592 -0.0055346536 0.002992827 0.101440996 0.3448334 0.09924291
0.010205537 -0.09389984 -0.013981506 0.00757143 0.016233684 0.19247393 -0.12075746 0.1503724
-0.11821894 0.008743962 0.022581853 0.15052783 0.043783624 0.01931734 -0.09927681 -0.08016538
-0.18958049 -0.03726595 -0.06423431 -0.050625663 -0.1139422 -0.09003998 -0.04889559 0.12812108

encoder.egnn.layers.0.edge_mlp.0.bias f4 [32]
00000000: b345 2a3d e41b 1dbd a721 e73c c607 05be
00000010: 23d3 a53d ddc6 8bbd 3c40 a93d 59ce 10be
00000020: 8399 c23d c80b 573c 442f 39be 33ee a9bd
00000030: e9bd afbd 16ce 133e 3966 1b3e adcc 8bbc
00000040: 482e 10be 4ced 2f3e a529 6cbd f470 f33d
00000050: 4de5 04be 31c2 cfbd d816 9b3d 1339 a3bc
00000060: 7d4b 2ebd 22fa 1e3c 89ac 863d 39a8 7ebb
00000070: 93ad 5e3d ae89 1abe b74e 01bc 361d 003e
0.041570377 -0.038356677 0.028214289 -0.12991247 0.08096912 -0.068250395 0.08264205 -0.14141215
0.09501936 0.013125367 -0.18084437 -0.08297386 -0.08581144 0.14434084 0.15175714 -0.01706537
-0.14080155 0.17180365 -0.057656903 0.118867785 -0.12978096 -0.10144461 0.075727165 -0.019924676
-0.04255246 0.009703191 0.06575877 -0.0038857593 0.054364752 -0.15091583 -0.007892302 0.12511143

encoder.egnn.layers.0.edge_mlp.2.weight f4 [32, 32]
00000000: 6f4f 7d3d 540b 56bd 28a1 973d 48fa d53d
00000010: 06ae d03a 3c61 5dbe da02 173e 9b2a 7fbd
00000020: 716e b53c f69a 05be 743e 20be 55ff f1bc
00000030: 0522 a9bd c4a3 083e 9945 ac3d 73b3 333c
00000040: 4184 afbd 6559 6a3e 33a1 bf3d 9985 423e
00000050: ab07 abbd 52da 88bd 88fd 30bc 6547 cabd
00000060: 5505 13be 6434 5d3e c5e0 b2bd 03fb e0bd
00000070: ebd4 0a3e e302 94bd 452f 1c3e 7935 b23d
00000080: c939 49bd adc8 13be d059 da3d 01d5 193e
00000090: 14cc 223d 7891 103e 3ceb d63d 3c2e ffbd
000000a0: 5398 0f3d bf91 02be c1d6 a73e 1adc cdbd
000000b0: 804f 9f3e 79dd 8cbe e3b6 d43d 6fb7 10bd
000000c0: 6bcf b53d dec0 e03b 88f5 ec3d c74b a3bd
000000d0: e87b 5b3e 5560 8a3d 3b72 85bd f173 ebbd
000000e0: 2f38 54be 2bae 11be 1923 12be dfc3 5fbe
000000f0: a8e3 983c cfde 9dbd ec26 0fbd b822 4c3e
00000100: 8537 fc3d 388b bb3d bdbb a93d 8d1b 513d
00000110: 48d1 4ebe f6c4 93bc 5ef9 cb3d ef5e 04be
00000120: 5fc2 4d3e 5545 94bc b164 023e e20b 073e
00000130: 0a49 473d a054 9abb acbb 05be 5590 033d
00000140: df46 623d 0327 6d3d 3516 03be 1a41 85bd
00000150: 108a b53b 395c 0dbe 8137 443d e89e c53d
00000160: 85ab 8cbc 5ce9 9dbd 08d6 f73d d3a6 713d
00000170: 4792 b73d 859a bbbd cea8 d03c c503 013e
00000180: e7f8 c43d a871 6f3d 3c39 fe3d 3af6 4a3b
00000190: a7a7 52bd 430f 993b 05e7 a63d 282f 23be
000001a0: 78af 14be d4f2 9d3c 5a7c a13d 5a65 00be
000001b0: 36db 2ebd cf8d 323d acd1 1bbd 2280 253e
000001c0: 089a 51be 5549 923c 1789 65be 9e46 643e
000001d0: f428 10be 9532 223e 4b9f c0bd 2a3f 7b3d
000001e0: ec72 b4bc 2fe2 10be 9766 f23c 952a 073e
000001f0: faa6 003e 4513 903d dfc3 54be 6cd3 9a3d
00000200: 0581 73bd 87ff d93d 153a ebbc 55ad 883d
00000210: 7d9f 24be 70df 3fbd 38fc 973d 423e 28be
00000220: 9edf 483e 99d7 c2ba d4b9 b0bd 0197 afbd
00000230: 14e3 113e 6f54 ab3c 4ee8 043e c858 aa3d
00000240: ddc7 18be 53cf 733d 4321 b43c 6142 6a3d
00000250: a3b3 79be 7f79 063e fa02 29be 8592 30bc
00000260: 99c4 f73d e513 f5bd e622 d0bb 9907 163c
00000270: 3ee7 143e a5dd 3e3e 08a4 debd e5ec 0abe
00000280: ef9a f9bb 8960 673d c460 0fbd 34f4 363b
00000290: 86fc 1b3d 2e11 0b3e af17 50be 29b1 323e
000002a0: 88c2 5cbc ff81 db3d 76bb 593d b3e8 27bc
000002b0: 0cc7 53be e314 dc3d faf9 c53b 8860 2c3d
000002c0: e795 eb3d 4d79 73be 820a ae3c 4009 d53d
000002d0: e928 bc3b 7df2 e33d 0e05 a6bc 47d4 17bd
000002e0: a27a 9cbd 9116 cebc 9cee 29be 7a79 813d
000002f0: 536c 5b3c 78a4 10be 41b3 a5bd c743 26be
00000300: 13f9 0b3e 0c1c 333c f32f c73d 24dd 10be
00000310: 53c4 f23d a2ad efbd 4913 303e 571a fdbc
00000320: 74bc b73d 9aa6 a13d f7a9 5c3b 2c6a 40bd
00000330: 79ce 3ebe 99a0 4f3d 1e2d 8fbd f574 7fbd
00000340: 4e74 d73d 2979 a4bc e9ea 0f3e c7ce c13b
00000350: ee86 e43d 19c4 7ebe 5c86 bdbd d95f 973d
00000360: 1748 e1bd 9d72 983c d392 fdbd 35bb 7e3d
00000370: dd66 a03d 31f0 45be ddb6 063e acc8 0ebe
00000380: 7f99 023e 0553 483d d0da f83c 9ff5 483d
00000390: b2db 23be c53b abbd dfbc 44be 7b0c 11be
000003a0: 2dd7 7f3c ef4d 05be 145b 3bbe 4394 f5bd
000003b0: 40bb ee3d 5fdf 5b3e 133b b23d 9798 1a3e
000003c0: f335 e93d 12b9 e13d 1898 cdbd a173 653e
000003d0: 497d 0bbe 338f 21bd 9c35 aebc 597e 603e
000003e0: edc9 a23d 6ade 153e fdc4 1fbd 79e7 4ebe
000003f0: 9b8a 053d 830e c03d b9dc 11be 2d47 d0bd
0.061843332 -0.052256897 0.07403785 0.10448128 0.0015921004 -0.21619123 0.14747182 -0.06229649
0.02214739 -0.13047394 -0.15648824 -0.029540697 -0.08258442 0.13343722 0.08411712 0.010968077
-0.08570147 0.22885664 0.09356918 0.18996276 -0.08351072 -0.06682266 -0.010802634 -0.09876899
-0.14357503 0.21602017 -0.08734278 -0.10985377 0.13557784 -0.07227113 0.15252407 0.08701605
-0.049127374 -0.1443202 0.106616616 0.15022661 0.039745405 0.14117992 0.10494086 -0.124599904
0.035057377 -0.1275091 0.32781032 -0.10051747 0.3111534 -0.2751272 0.103864454 -0.035331186
0.088774525 0.006858929 0.11570269 -0.07973438 0.21433985 0.06756655 -0.06515928 -0.114967234
-0.20724557 -0.14226596 -0.14271201 -0.21852063 0.018663242 -0.07708513 -0.03494923 0.19935119
0.12315277 0.09157413 0.08287761 0.051051665 -0.20197022 -0.018038254 0.099596724 -0.1292684
0.20093678 -0.018099466 0.12733723 0.13188127 0.04865364 -0.004709795 -0.13059872 0.032120068
0.05524337 0.057898533 -0.1280144 -0.06506558 0.00554014 -0.13804711 0.047904495 0.096494496
-0.01717163 -0.077105254 0.1210137 0.058996987 0.08963447 -0.09160332 0.025471117 0.12599094
0.09617787 0.058458 0.1241326 0.0030969516 -0.051429417 0.004671009 0.08149532 -0.15935957
-0.14520061 0.019280829 0.07885046 -0.12538663 -0.042689525 0.04359227 -0.038041756 0.1616216
-0.20468915 0.017857233 -0.22415577 0.22292563 -0.14078122 0.15839608 -0.09405383 0.061339535
-0.022027455 -0.14148782 0.029589934 0.13199838 0.12563697 0.07034925 -0.20777844 0.07559857
-0.059449214 0.10644441 -0.02871422 0.066736855 -0.16076465 -0.046843946 0.07421154 -0.1643
0.19616553 -0.0014865278 -0.08629194 -0.085737236 0.1424678 0.020914285 0.12979242 0.08317715
-0.14919992 0.05952389 0.021988517 0.05719221 -0.24384932 0.13132285 -0.16505042 -0.0107771205
0.12098045 -0.11966685 -0.0063518165 0.009157085 0.14541337 0.18639238 -0.1087113 -0.1356693
-0.0076173465 0.056488547 -0.035004392 0.0027916552 0.038082622 0.13580772 -0.20321535 0.17450394
-0.013474114 0.10718154 0.053157292 -0.010248351 -0.20681399 0.10746171 0.0060417624 0.042084247
0.11503201 -0.23776741 0.021245245 0.10402155 0.0057421816 0.11130235 -0.020266082 -0.037067678
-0.07640578 -0.025157245 -0.16594929 0.06321998 0.013392526 -0.1412524 -0.080908306 -0.16236793
0.13669233 0.01093198 0.097259425 -0.14146858 0.11853852 -0.1170304 0.17194857 -0.030896349
0.089714915 0.07893105 0.0033670643 -0.046976253 -0.1863345 0.050690267 -0.06991027 -0.0623674
0.1052023 -0.020077305 0.14054455 0.0059145424 0.11158548 -0.24879493 -0.09254143 0.07391328
-0.11000078 0.01860934 -0.1238152 0.062190253 0.078321196 -0.19329907 0.13155694 -0.13943738
0.12753867 0.0489073 0.030377775 0.049062368 -0.16001776 -0.083610095 -0.19212674 -0.14164917
0.015615267 -0.1301801 -0.18296462 -0.11991169 0.11656809 0.21471928 0.08702674 0.15097271
0.11387243 0.110216275 -0.10038775 0.2240739 -0.13622011 -0.039443206 -0.021265797 0.21923198
0.079486705 0.14635625 -0.039006222 -0.20205487 0.032602888 0.09377768 -0.14244355 -0.10169826

encoder.egnn.layers.0.edge_mlp.2.bias f4 [32]
00000000: 1799 903d 9f7f 033d 454c 3c3e 35de 02be
00000010: 3ba3 1bbc d61c 9fbd d925 9cbb 0099 043e
00000020: 7858 b1bd 7c0f eb3d c948 1cbe ea34 9ebb
00000030: 3999 0d3e 7eed b53d ab92 4bbd 0732 773c
00000040: 3a9d c9bd 0e90 573c f12d 333e 2880 20be
00000050: 1501 153e e44d 5f3e 7bee d93d 33a6 233e
00000060: 96a5 fc3d e064 17be df60 a6bd 3e98 533d
00000070: 3fe2 35bb 670c f5bd 7b57 193e 8406 0b3e
0.070604496 0.03210413 0.1838847 -0.12780078 -0.009499366 -0.07769172 -0.004765254 0.1294899
-0.08659452 0.11477563 -0.1526214 -0.004828085 0.13827981 0.08883189 -0.04970042 0.015087611
-0.09844442 0.013156904 0.17497994 -0.15673888 0.14551194 0.21807057 0.1064119 0.15981369
0.123362705 -0.14784575 -0.081239454 0.05165886 -0.0027753261 -0.11965256 0.14974777 0.13576704

encoder.egnn.layers.0.node_mlp.0.weight f4 [32, 48]
00000000: f219 9739 6620 0e3e 113f ca3a b314 0abe
00000010: b076 003e 1ba1 1f3e bd7f c93b b0be 743d
00000020: 5cf0 1e3d 005b 00be 7964 b3bd 06ab efbd
00000030: 2079 123d 4251 90bc f68d 2f3e adcb 6b3d
00000040: 7d99 613b b8c5 e83b 9317 213e c1d4 fabc
00000050: c503 19be e86f 07bd 8590 013e 6269 cb3d
00000060: ee0b 0f3e 674b c73d ae1a 31be 9889 423d
00000070: 5f51 1c3d 950e f53d 1886 da3d e2c0 8abb
00000080: 2fcc 443d 6015 9c3d 2041 17bd 5c5d eabd
00000090: 3dc1 de3d f756 c13d 00b2 883d 2ec7 c23d
000000a0: 7c9b 95bc bc64 81bd 9c17 d4bd 6c23 a63c
000000b0: 65a4 023e 2e4f ec3d fc1a 083e c903 be3d
000000c0: 9019 c1bd 0613 32bc 26aa 973d 6955 16bd
000000d0: 08b4 4d3e b513 863c 4484 743d 008c b4bd
000000e0: 2687 fb3d 50b2 7cbd dec6 253e 0a67 3bbe
000000f0: 503e b7bd ddba dbbc c448 e43d d355 c73d
00000100: b7fb f3bd 2624 b93d c43f 903d ab4f e1bd
00000110: 7980 13bc a3ac df3c 8844 8d3d 2980 8bbd
00000120: ea0a c6bd 8a4d 603d 990a 15be 26ca c83d
00000130: 33b7 2cbd 37fe d73d c05f 5abd 18ef 1ebe
00000140: ed78 493c acab 4f3d 0352 fcbd c45d f13b
00000150: d667 f2bd c666 0abd 48e5 4a3d f281 95bd
00000160: cb26 4d3d 17ed a83d 0cfb 163e ff8e 913d
00000170: edf6 163e 8500 35be 5ba0 a83d d173 1fbd
00000180: c84a 83bd 4d08 1d3c bf7c e6bc 264b 63bb
00000190: 8c81 703d 8914 e93d e99c 48bc 1086 d13d
000001a0: aab8 dc3d 50e4 eb3b e878 42be 6a32 37be
000001b0: 853e 0d3d e15a 99bd 6d8a 73bd 7725 28be
000001c0: 20e2 0bbd 41ed cc3c b8d4 3cbd 6bbe f43c
000001d0: 5ed1 8cbd abc0 5cbd fda1 b33c 33a0 5f3d
000001e0: 0277 29bd 6928 08be cc99 533d 8b95 d33d
000001f0: 1351 acbc 25a8 3cbc 8dad 8a3d 5a88 72bd
00000200: 3a35 6b3d 11dd bd3d 43b1 c83d c72e 8abe
00000210: 999c 50be 9eba abba b6e1 3e3e 5613 8abe
00000220: 45a9 3c3e 3bec 8b3c 1120 dabd c563 2abe
00000230: 3dd5 773c 35af d93b e74e 15be c9f7 273e
00000240: 5440 c63d 028e c4bb a99d 06bb f4c6 783d
00000250: 282e 2dbc fed4 c93d 203d abbd 9a74 1bbd
00000260: b934 393c 19fa 0ebe cb1e a43d 2eab 06bd
00000270: 2ee0 b93d 952f bdbd ddd3 e8bd 7a59 13bb
00000280: 0b7a 6c3b b747 08be 1cf5 9e3b b165 cbbd
00000290: 126b c4bb 9cef 8d38 87ae 103c c1ff 173d
000002a0: 33c5 02be 6cde 84bd f483 423e f9a7 e53d
000002b0: 8048 373e 8c16 213c ac97 1c3e 3c4e 3bbe
000002c0: f6a2 34bd 02f8 df3d c59d 18bc 8daf 953d
000002d0: c1c3 8b3d 54b7 193e 0783 16bd 123b acbd
000002e0: 201b 453e 5e9e 84bd 6c21 133d b2f6 28bd
000002f0: da6d 123e 2652 2cbe fc81 69bc 5f19 33bd
00000300: 8df2 bcbd 6c16 433c 2242 843e 13a6 bdbd
00000310: 3b83 a2bd 18ef 8d3d 08bc 923d d8f8 023e
00000320: 6ef7 b23d 261e b4bc 595d 07be ee9e c33c
00000330: 3cd9 b83d 1140 88bd 43fe 853d 413c 3db9
00000340: ff28 4f3e 623a 27bc 19f8 893d e7e7 363e
00000350: 8b20 5dbd d6d3 6ebe c5fa 0dbe c8b5 9cbc
00000360: a264 36bd ba9d c73d c133 2ebd 269e ce3d
00000370: 8215 4cbe 5760 cfbd 6baf 9ebc 0d6e 05bd
00000380: 50cc 143e 456f dcbd f19f ce3d f112 0d3d
00000390: 6ff2 283e 62a6 1f3e 74b0 543c d33a 22be
000003a0: 6ce7 fabc 47c8 1f3e 6120 a4bd 223b ecbd
000003b0: 7847 d53d 838f 96bd 699f 263e 2e41 133b
000003c0: 9a3e 303e e0e7 383d 50f9 e63d 32da 08be
000003d0: fc0b a7bd 2eac bdbd c8c2 fb3d 14ec 1dbd
000003e0: 0ad7 eb3d 172e 633d 872b c83d 7fdc 67bd
000003f0: 3043 623d a58e 223c 5948 473d f190 1e3d
0.00028820295 0.13879547 0.0015430172 -0.13484459 0.12545276 0.155888 0.006149261 0.059752166
0.038803443 -0.12534714 -0.08759398 -0.11702542 0.035760045 -0.017616872 0.17143998 0.057567287
0.0034423762 0.007103648 0.15731649 -0.030619027 -0.14942844 -0.033065706 0.12652786 0.099322096
0.13969395 0.09731179 -0.17295334 0.0474945 0.03816354 0.11965672 0.106701076 -0.004234419
0.048046287 0.076212645 -0.036927342 -0.11443588 0.10876701 0.09440415 0.06674576 0.09510647
-0.018262617 -0.06318042 -0.10356066 0.020280562 0.12758024 0.1153854 0.13291544 0.09278066
-0.09428704 -0.010868793 0.074055 -0.036702547 0.20088208 0.016366819 0.05969645 -0.088157654
0.12281637 -0.06169349 0.16189143 -0.18301025 -0.08947432 -0.026822502 0.111466914 0.097331665
-0.11913245 0.09040098 0.07043412 -0.110015236 -0.009002798 0.027304 0.06897837 -0.06811554
-0.096700504 0.054761447 -0.14554824 0.09804182 -0.0421669 0.105465345 -0.05331397 -0.15520895
0.012296897 0.05070083 -0.1232033 0.007365914 -0.118362114 -0.03378942 0.049535066 -0.07300176
0.050085824 0.08248346 0.14744204 0.071073525 0.14742632 -0.1767598 0.082337104 -0.03892881
-0.06410748 0.009584499 -0.028135655 -0.0034682243 0.058717296 0.1138087 -0.012244442 0.102306485
0.107774094 0.007198848 -0.18991435 -0.17890325 0.03448345 -0.07488037 -0.059458185 -0.16420542
-0.034151196 0.025015475 -0.046101302 0.029875955 -0.06875871 -0.05389468 0.021927828 0.054596137
-0.04137326 -0.13296665 0.051660344 0.103312574 -0.021034753 -0.011514698 0.067713834 -0.059212066
0.057423808 0.09270681 0.09799435 -0.26988813 -0.20372237 -0.0013101881 0.1864079 -0.26967877
0.18423946 0.017080417 -0.106506474 -0.16639622 0.015126524 0.0066432008 -0.1458088 0.16403116
0.09680238 -0.005998374 -0.002054075 0.06073661 -0.010570087 0.09855078 -0.08361268 -0.037952997
0.011304074 -0.13962592 0.08013686 -0.032878093 0.09075962 -0.09237591 -0.11368535 -0.0022483752
0.0036083485 -0.13308607 0.0048509967 -0.099315055 -0.005994209 6.768035e-05 0.008830673 0.03710914
-0.12770538 -0.06487736 0.18995649 0.11213679 0.1789875 0.009832036 0.15292233 -0.18291563
-0.044100724 0.109359756 -0.009314959 0.07308874 0.068244465 0.1501134 -0.03674605 -0.08409704
0.19248629 -0.06475519 0.035920545 -0.041250892 0.14299718 -0.16828212 -0.014252182 -0.043725368
-0.092259504 0.011907201 0.25831705 -0.09260192 -0.079351865 0.06930369 0.0716477 0.12790239
0.087386 -0.021987032 -0.13219203 0.023879495 0.09025809 -0.06652845 0.06542637 -0.00018046891
0.20230483 -0.010206791 0.06736774 0.17861901 -0.053986114 -0.23322996 -0.13865192 -0.019129649
-0.044529565 0.09746881 -0.042529825 0.10088758 -0.1993008 -0.10125797 -0.019370755 -0.032575656
0.14531064 -0.107634105 0.100891 0.034441892 0.16498731 0.15590814 0.012981523 -0.15842752
-0.030627929 0.15603743 -0.08013988 -0.11534716 0.10414022 -0.073515914 0.16271748 0.002246927
0.1721138 0.04514301 0.11278021 -0.13364485 -0.08156583 -0.09261356 0.12293011 -0.03855522
0.11515625 0.055463877 0.09773927 -0.056606766 0.055239856 0.009921704 0.04865298 0.038712446

encoder.egnn.layers.0.node_mlp.0.bias f4 [32]
00000000: 3452 a83d dbda de3d 6816 2c3e fd15 9ebd
00000010: d068 e73d e164 9d3c 8ccd 483d 1128 ed3a
00000020: c0e6 c83c 46f4 16be a156 c7bc 6b3c 063e
00000030: a506 af3d 494f bebd 968b d33c a263 0bbe
00000040: a88a b13d 792e 393e e7e1 83bd bb8f 31bd
00000050: 448c 173e 20c0 d0bd d6e0 d8bd 7cca 1b3e
00000060: 4c2f ccbb 36a6 4ebd abde e2bd 8f1c 1e3d
00000070: 22fe f5bc f200 26be ff60 a43c 67fe 583c
0.08218804 0.10881587 0.16805422 -0.07719038 0.11299288 0.019213142 0.04902415 0.0018093606
0.024524093 -0.1474162 -0.0243333 0.13108985 0.08546189 -0.09292466 0.025823396 -0.13612226
0.08669025 0.18084134 -0.06439572 -0.043349963 0.14799601 -0.10192895 -0.10589759 0.1521396
-0.006231224 -0.05045148 -0.11077627 0.038601454 -0.030028407 -0.16211298 0.020065783 0.013244248

encoder.egnn.layers.0.node_mlp.2.weight f4 [16, 32]
00000000: ee51 203e da2b 5d3d 1b87 1cbc b7d0 2d3d
00000010: 634b 083e b9bb 943d 4f6b a33d db9f 023e
00000020: 1511 26be 0ae4 2bbe 3e3e 76be d921 b4bb
00000030: ec76 5ebe 4c58 a23c 99f7 c4bd 574e 99bc
00000040: 4685 fe3d f7bb f43d 5808 3ebe 2bfc 65bd
00000050: e6f9 e2bd 7016 2cbe 35db f9bb 4baf 4e3d
00000060: 4f2e 5b3d 4f40 ebbd e1ee db3d f3d9 16be
00000070: 2983 8ebd 71be 93bd 9a1e 3c3e 031e f63c
00000080: 2675 a9bd 189e 9b3d 7a69 0f3e 8c82 2e3e
00000090: c848 5abe 84d0 9f3d ecd3 4bbe 0bfd 1e3d
000000a0: 1da7 12be d5a3 c63d f3df 243e 73b0 8c3c
000000b0: 096e 96be e9e5 e7bd e08b 093e 84fa a33d
000000c0: d5c9 593e f89b 83bd ccd3 19bd 666f 3cbe
000000d0: 25c9 66be 2885 07bd fc58 a3bd 5bd3 14bd
000000e0: 4c48 75be f36d 2f3e 2522 61be 0d07 00be
000000f0: 3089 9d3c f4fd bcbd e4cf 46be 3d7e 6cbe
00000100: 529e 82bd 2bd6 bbbd f43a 533d 48c1 463d
00000110: 74c8 c23d 4e03 083e ff16 e4bd acec abbd
00000120: f485 9abd 3489 383e aa5a b93c 69f4 c03d
00000130: 368c 92bd 2bbe f23d b990 953d a1de 053e
00000140: 050d 533d 1ffd adbd 2de9 113d 4046 c8bd
00000150: 2579 40bd 7d81 1ebe 4ba9 8f3d f0f9 19bd
00000160: e120 20bd 4f09 6b3e e497 2dbe b3e1 043e
00000170: 4e96 0abe a826 643c 5e51 76bd 225e 78bd
00000180: a6c4 d5bc 1293 0bbe f6bf bf3c 1161 263d
00000190: 557d 39be c0a3 4d3c 4f53 623d c472 033e
000001a0: c095 f1b9 4e80 3f3d 180e 51bb 0d77 fb3d
000001b0: 1caf dcbb dc7b 113e 5f48 053e 4c68 e6bd
000001c0: d655 90bd 1804 aabc b4d3 e23c a144 9e3d
000001d0: abc5 14bd e126 0c3e 8b6d 8ebd 2070 d8bd
000001e0: ee8a e3bd 746c 52be b698 2e3e 6f23 d3bd
000001f0: 176b bd3d 5607 30bc a525 0dbe d154 31be
00000200: c3ad 5fbb 5e72 0f3e 3adb 1c3e 6b87 3b3e
00000210: 165a 12be 0e40 4c3b f92d a73c 4322 8a3d
00000220: fab4 e73d 0397 2cbe 47e9 043e 69d6 453e
00000230: f4d1 563e fe12 82bd 083d ed3d bd5e 4cbd
00000240: cbc5 e43d 7a23 1d3e 2e60 153e 3c52 873c
00000250: 8444 2c3d 5bf0 43bd cdfc 3abe a6ea 3f3e
00000260: f466 edbd f0fb e03d 7f0a 02be 02bb 883d
00000270: 1fb7 2f3e 4154 b63c 0fb6 51be 19e3 19be
00000280: 3fce 1b3e 440c b23d bf6f 193e fc3d 2ebe
00000290: 39cd e4bc 2902 2a3e 6fbb edbc 6e6e f5bd
000002a0: d3bb fb39 0e90 cebd 1a02 e5bd a7a4 9ebd
000002b0: 28f7 8c3d 4ccc 9cbd 5f5f 933d 372e ecbd
000002c0: bbed 1ebe d258 203e cf3b b83d ca4e 083e
000002d0: 880a 803d ddee 483c dcb0 d4bd 3234 bc3c
000002e0: 1e46 a13b f1b4 d9bd c227 543e 6b88 f93d
000002f0: ea4f 1e3e d39e 003d ad0d 743d a9b6 6e3e
00000300: 0009 1ebd d091 2f3d 91ef 693c 4c7b 88bd
00000310: 0390 44bd e2ec 84bd 73de 12be 661b 663e
00000320: 57d5 143e 8a9f 5f3d a77c 6c3d a901 b8bc
00000330: 5967 ca3c d04a f93d a12b 46be 7df5 52bd
00000340: 782f c3bd 89aa 3e3e 8967 c4bd a6b4 88bc
00000350: af59 94bd 776f 973d 7c11 d03c e593 823d
00000360: 435d 1f3e bf63 6bbc 5d18 24be 428f c7bd
00000370: 16d9 f5bd b84b b4bb 0b82 12be ebb2 49be
00000380: 6143 d83d c993 0c3e 7c5b 39be f3c4 ecbc
00000390: 1108 5cbd 2f3d 9d3d 9101 c4bd 6e56 653e
000003a0: 6d32 043e 7b7d a83d 6bd6 8f3d 4cc6 d93d
000003b0: a890 353d 070f d1bc a7ad 153c 13f9 733d
000003c0: 4525 10be 9b85 4e3e c9cf 68be eccc 9b3d
000003d0: 0ae8 2c3e 21bc 2fbc 5fa7 a5bd 321a 92bd
000003e0: e4dc 07bc b81c 62bd 7cee 85bd 4aef 38bd
000003f0: 43f2 b9bd 0f91 21be 18dd e4bd 6482 4ebd
0.15656254 0.0539969 -0.009553696 0.042435374 0.13310008 0.07262368 0.07979452 0.12756293
-0.16217454 -0.16786209 -0.24047181 -0.005497199 -0.21725053 0.019817494 -0.09617538 -0.018714113
0.12427764 0.11949914 -0.1855787 -0.05614869 -0.110828206 -0.16805434 -0.0076250085 0.05046014
0.05351096 -0.11486875 0.10738922 -0.14731579 -0.069586106 -0.07214058 0.18371049 0.030043608
-0.082742974 0.07598513 0.1400508 0.17041987 -0.21316826 0.07803443 -0.1990506 0.03881554
-0.14321561 0.09699217 0.16101055 0.017173981 -0.29380825 -0.11323149 0.13432264 0.080067664
0.21268399 -0.06426233 -0.0375555 -0.1840187 -0.22537668 -0.033085972 -0.07975957 -0.036334377
-0.2395336 0.17131786 -0.21985681 -0.1250269 0.019230455 -0.09228125 -0.19415241 -0.23095031
-0.063778535 -0.09171709 0.051569894 0.04852417 0.0951089 0.1328251 -0.11137199 -0.08394751
-0.07545081 0.18021089 0.02262624 0.094216175 -0.07155649 0.11852678 0.07302994 0.13073207
0.05152609 -0.08495545 0.035622764 -0.09779024 -0.046990532 -0.15479083 0.07014712 -0.037591875
-0.039093856 0.2295277 -0.16952473 0.12976722 -0.13533899 0.013925232 -0.06013619 -0.060636647
-0.026094746 -0.13630322 0.023406964 0.040619913 -0.18114217 0.012551248 0.05525523 0.12836748
-0.00046078674 0.04675322 -0.003189927 0.122785665 -0.006734742 0.14207405 0.13015889 -0.11250362
-0.07047622 -0.020753905 0.027688839 0.07727934 -0.036321323 0.13686706 -0.069544874 -0.10568261
-0.11110483 -0.20549184 0.17050442 -0.10309493 0.092489414 -0.0107439365 -0.13783891 -0.17317511
-0.003413067 0.14008471 0.15318003 0.18313377 -0.14292178 0.003116611 0.020407664 0.06744816
0.113138154 -0.16854481 0.12979613 0.19320072 0.20978528 -0.06351279 0.115839064 -0.049895037
0.111705385 0.15345564 0.14587471 0.016518705 0.04205753 -0.047836643 -0.18260498 0.18741855
-0.115919024 0.10985553 -0.12699316 0.06676294 0.17159699 0.022256972 -0.20479606 -0.15028037
0.15215395 0.08693746 0.14984034 -0.17015833 -0.027929889 0.16602387 -0.02902004 -0.119839534
0.0004801439 -0.1008607 -0.111820415 -0.07746249 0.06883079 -0.07656154 0.07195925 -0.11532252
-0.15520374 0.15658882 0.089957826 0.13311306 0.06252009 0.012263981 -0.10385296 0.022974107
0.0049216887 -0.10630215 0.20718291 0.12184223 0.15460172 0.031401467 0.059583355 0.23311867
-0.0385828 0.042863667 0.0142783085 -0.06664142 -0.047988903 -0.06490494 -0.1434267 0.22471389
0.14534508 0.054595508 0.057736065 -0.02246173 0.024707483 0.121724725 -0.1935258 -0.051503647
-0.09530538 0.18619741 -0.0959006 -0.016687702 -0.07243668 0.07394307 0.025398962 0.06375865
0.1556292 -0.014367043 -0.16024919 -0.09744121 -0.120042965 -0.0055021904 -0.1430742 -0.19697158
0.105597265 0.1372825 -0.18101305 -0.028902506 -0.05371863 0.076776855 -0.09570611 0.22396252
0.12909861 0.082270585 0.07023319 0.10633525 0.044327408 -0.02551986 0.00913564 0.059563708
-0.14076717 0.20168154 -0.22735514 0.07607445 0.16885391 -0.010726006 -0.08088564 -0.071339026
-0.0082924105 -0.05520317 -0.06539628 -0.04515008 -0.09079411 -0.15777992 -0.11174983 -0.05041732

encoder.egnn.layers.0.node_mlp.2.bias f4 [16]
00000000: 3379 6c37 155a 0f37 26a5 f1b7 77f8 e137
00000010: a041 0a37 c77d bb36 844e 65b7 2650 9eb7
00000020: 30eb d537 0567 4337 ce1e d8b7 e693 2bb5
00000030: 60c0 f4b7 bd97 a337 41ce e9b6 edfd ac37
1.4094915e-05 8.544438e-06 -2.8806342e-05 2.693779e-05 8.2407205e-06 5.5876767e-06 -1.36677445e-05 -1.887239e-05
2.5501096e-05 1.1646892e-05 -2.5763551e-05 -6.3917685e-07 -2.9176648e-05 1.9501773e-05 -6.9679522e-06 2.0622241e-05

encoder.egnn.layers.0.coord_mlp.0.weight f4 [32, 32]
00000000: 42b5 473e 0d8f 50be 203a 4a3d fbfa 213d
00000010: ec10 0fbc 506f c83b 11eb e13d ac6b 373e
00000020: afab b1bc ee9c 0f3e 87d9 8dbc 1b10 863d
00000030: 94b8 0bbe 5f7d e4bd e1f7 8abe e344 223e
00000040: becd 6ebc a84a 163d 0a3b 833e d6a9 243c
00000050: 846a ea3d 8a46 583e 8ee7 ee3d 65d9 55be
00000060: 9c84 ca3d aef4 963d 697b a9be 4af5 ae3d
00000070: fc3f 553d 6343 a8bd ab10 3e3e 8875 33bd
00000080: bcc7 543c 9f49 0fbe 6bdb 2bbd b2a7 86bd
00000090: bc53 073d 4b74 babc eaa4 cebd b0c3 353e
000000a0: e855 413e 254e a73e eebb 593d 49c7 25be
000000b0: 84f9 4fbe ab72 753d 82bc 97be e8c6 043e
000000c0: 95b1 1c3c f960 2b3d 1f6e 8d3e 9dde 233e
000000d0: 7ffc 9cbd c7c5 e9bd e0fb 213e 54e1 87bd
000000e0: 7e94 443e c417 4ebe e752 9abe a521 b9bc
000000f0: ddfc 4dbe 3274 273d cdc1 413e 424a b3bd
00000100: 5e3a 383d 361a 55be d3e0 c63c ba35 d53c
00000110: 213e 683d 9184 0b3e 3664 3abe 9b73 00be
00000120: ede1 eebd 568f 4c3e 30a2 1e3e cf33 0dbe
00000130: cd75 c8bd 6bf6 4bbe 20a3 9ebd 1898 e7bc
00000140: c264 063e 37e9 ad3d ab11 3a3e 4062 c93d
00000150: b90e 0fbe 6a13 043e ff17 f53c ef7e 16be
00000160: a174 2f3e 9027 2cbe 4288 42be 1343 4bbe
00000170: d66c 6dbc 1bcf efbd d379 d33d b8c3 64bc
00000180: f36c 613e 275d af3d ec56 223e c8b2 4d3e
00000190: f537 123e ba91 f0bd 9f66 d8bc c681 1a3e
000001a0: 9132 8d3d 7769 893e 1245 04bd 0738 9dbd
000001b0: c554 8bbd 0b0c 8bbd 28ce 23bd 84ac 01be
000001c0: c2f9 523d 1950 43be 1d1d 783e bf58 0d3e
000001d0: 73a3 ba3d b4a2 0e3e 45ae 4dbd 4495 42be
000001e0: e89b 423e b2b3 52bd be95 a9bc f372 de3d
000001f0: 1d0a dd3d 5b2f 613d 4a59 353e 187b 39be
00000200: faf4 1f3e 4728 abbd 90c1 8cbd f499 6b3d
00000210: cd42 96bc 52ab edbd 2f9d 1cbc e254 31bd
00000220: 60c6 483e 296e ca3e a09e 0bbd bae5 f7bd
00000230: 3a35 0abd 78f3 083c 51fd 6cbe 2df7 043e
00000240: c87b 073e 3093 84bd 46fe 323e c9d0 223e
00000250: a454 97bc 0dc4 4c3e 4847 433d 3263 ecbc
00000260: 1792 8e3d a901 0e3e 6354 94be 2e0d 0bbe
00000270: 3d40 8a3d 5aa9 a9bd 79a9 a0bc 0c10 3bbd
00000280: b5f7 13bc 0a9e 92bd e206 133e 873e 96bd
00000290: cf76 233e 835f edbc a560 71bd b798 5b3c
000002a0: 61d2 0d3e 0503 743e cc2e 093e 7bbc 0fbd
000002b0: 9d9b 01bd da20 e4bd bd8b 88bd 0bc9 dcbd
000002c0: 9aca e0bc b6c1 ccbd f155 323e 786b c23d
000002d0: 80a0 fc3c d065 363e 5b3e 4b3e a70f 9c3c
000002e0: 6503 b6bd 7c29 803d 8227 2cbd d426 a83d
000002f0: dd7e ffbd 9c50 7abd 0fc9 6c3d 7c0f 4fbd
00000300: fc63 e9bd 7f77 04be 4acb ae3a ea06 d13d
00000310: 41b9 1d3e 089b 133e 951a 0c3d 681f 2c3e
00000320: fa56 bdbd 6115 dd3d c46e 203e cf36 b33d
00000330: e432 55bd a1dc 72bc d59c a6be 02f4 58bd
00000340: 50aa 643d 2408 45be 5779 ab3e 6c30 683d
00000350: b138 90bd 2360 2f3b 34da 813e f285 24be
00000360: 7dfa 0f3e bbbe 95bd e13b 70be 21f2 8cbd
00000370: e215 e2bd 52e1 51be a3c0 76bd d341 a7bd
00000380: bfb8 933d 86c9 02bd 2681 7d3b 382d 7abd
00000390: 1858 0b3c 5595 cd3d f37c 68bd c7e0 8d3d
000003a0: 9fce 013e 51e1 923d 1c64 b93d 7949 963d
000003b0: 39b4 c7bd c4b8 04be 7a76 28be b770 8ebd
000003c0: 30f1 6c3d 7f0a c73d 142a 663a 7b3a b6bb
000003d0: ac28 e33c 2e94 7abd 7861 d83d ec01 0dbe
000003e0: 3605 df3d 6f8e 913c 9710 adbd 56ff 3ebb
000003f0: db5e 25bc 262b 53bd 95e4 0a3d 2091 993d
0.19502738 -0.2036707 0.04937184 0.039545994 -0.008732062 0.006116785 0.110311635 0.17912167
-0.02168831 0.14024708 -0.01731564 0.065460406 -0.1364463 -0.11156725 -0.27142242 0.1584659
-0.01457542 0.03669229 0.2563098 0.010050258 0.114460975 0.21120659 0.11665259 -0.2088371
0.098885745 0.07370888 -0.33101967 0.08542879 0.052062973 -0.08215978 0.18561046 -0.04381326
0.0129870735 -0.13992928 -0.0419573 -0.06574954 0.03303884 -0.022760531 -0.100900486 0.1775043
0.18880427 0.32676807 0.05315774 -0.16189303 -0.20310026 0.05992381 -0.29636008 0.12966502
0.009563823 0.041840527 0.27623078 0.16002889 -0.07665347 -0.11414676 0.15818739 -0.06634775
0.1919727 -0.20126253 -0.30141374 -0.02259905 -0.20115991 0.040882297 0.18921585 -0.08754398
0.04497754 -0.2081078 0.024277126 0.026026595 0.056699876 0.13624789 -0.1820229 -0.125441
-0.11664186 0.19976553 0.15491557 -0.13789295 -0.09788094 -0.1991822 -0.077459574 -0.028270766
0.13124374 0.08491748 0.18170802 0.09833193 -0.1397046 0.12898031 0.029918669 -0.14696859
0.17134334 -0.16811967 -0.1899729 -0.19849806 -0.014491281 -0.11709424 0.103259705 -0.013962679
0.22014217 0.08562689 0.1585347 0.20087731 0.14279158 -0.11746545 -0.026416121 0.15088567
0.068944104 0.26838276 -0.032292433 -0.07676702 -0.06803278 -0.067894064 -0.039991528 -0.12663466
0.05150772 -0.19073524 0.24229856 0.13803385 0.09113207 0.13929254 -0.050215025 -0.19002253
0.19004786 -0.051440902 -0.020701285 0.108617686 0.107929446 0.054976802 0.17709842 -0.18113363
0.15620795 -0.08357292 -0.068728566 0.057519868 -0.0183424 -0.116049424 -0.00955896 -0.04329384
0.19606924 0.3953717 -0.034086823 -0.12104364 -0.033742167 0.008358829 -0.23143508 0.12984915
0.13230813 -0.06473386 0.1747981 0.15899958 -0.018472977 0.19996662 0.0476754 -0.028855894
0.06961458 0.13867821 -0.28970632 -0.13579246 0.06750534 -0.08284254 -0.01961206 -0.0456696
-0.009031226 -0.0715905 0.14358094 -0.07336145 0.1596329 -0.028976208 -0.058930058 0.013403109
0.13849784 0.23829277 0.13396758 -0.03509186 -0.031642545 -0.111390784 -0.06667278 -0.107805334
-0.027440358 -0.09997885 0.17415597 0.09493154 0.030838251 0.17812276 0.19848005 0.019050432
-0.08887366 0.062579125 -0.042029865 0.08210531 -0.12475369 -0.06111203 0.057808932 -0.050551876
-0.11396024 -0.12936209 0.0013335731 0.10206397 0.154027 0.14414608 0.034205038 0.16808856
-0.09245105 0.10795093 0.15667254 0.08750688 -0.052050486 -0.01482311 -0.32541528 -0.05296708
0.055826485 -0.19241387 0.33491012 0.056686804 -0.07042063 0.0026760183 0.25361788 -0.16066721
0.14060397 -0.073117696 -0.23460342 -0.0688212 -0.1103933 -0.20496109 -0.060242306 -0.08166852
0.07212972 -0.03193047 0.0038681715 -0.06107828 0.00850489 0.100382484 -0.056759786 0.069276385
0.12676476 0.07171882 0.090522975 0.073382325 -0.097511716 -0.12961107 -0.16451445 -0.069550924
0.0578472 0.09718799 0.0008780074 -0.0055611706 0.027729355 -0.06117647 0.10565466 -0.13770264
0.10889666 0.017768113 -0.0845043 -0.0029143891 -0.010093416 -0.05155482 0.0339094 0.074983835

encoder.egnn.layers.0.coord_mlp.0.bias f4 [32]
00000000: 7e2e 6bbd 9c2c e13d b862 433d 9d5f 16be
00000010: 82d1 88bc 9edc cc3d 057d 1b3c 367b 8abd
00000020: b661 513d be34 f03d 31fa f1bb 1ff2 05bd
00000030: 2dbc 16be 7487 9bbd e1e0 7f3c e83b c1bd
00000040: 8927 e23d e08d 063e a932 e6bd 0221 1cbd
00000050: 895e e73d d863 e63d f5a6 83bd e4ce 1fbd
00000060: 7224 933d ec50 b9bc 5c41 fbbd b6d6 513d
00000070: dec9 3e3e 98f0 26bd 4426 063e dde9 a43d
-0.057417385 0.10994837 0.047701567 -0.14684911 -0.016701464 0.10003017 0.009490256 -0.06761782
0.051118575 0.1172881 -0.0073845615 -0.032701608 -0.14720221 -0.07594195 0.01561758 -0.09435254
0.11042697 0.13140059 -0.112401314 -0.038117416 0.11297328 0.112495124 -0.06428329 -0.039015666
0.07184686 -0.022621594 -0.12268326 0.051230155 0.18631694 -0.04075679 0.13100535 0.080524184

encoder.egnn.layers.0.coord_mlp.2.weight f4 [1, 32]
00000000: 827c d8bd fd51 40be 6d66 0cbe e2de e7bd
00000010: 37b8 00be 229f f8bd dd79 2abe 101c 68bc
00000020: 4c1f 20be 2ad8 463d c812 a3bd 07ab 80be
00000030: 8a55 a0bd 4148 bc3c 991d 32be a455 22bd
00000040: 9a02 1c3d d274 963d 7002 a7bd 2997 17be
00000050: 90bf 11be 8e0d 133e 71a2 0ebe 97a1 d3bd
00000060: f99f a43d a156 4bbe b687 f3bc 8c38 383e
00000070: 2462 c6bd de62 2ebe 7ada 2a3e 95b4 2abe
-0.10570623 -0.18781276 -0.13710947 -0.113218084 -0.12570272 -0.12139727 -0.1664805 -0.014166847
-0.15636939 0.048545994 -0.079625666 -0.25130484 -0.07828815 0.022983672 -0.17394103 -0.039632455
0.03808842 0.073465005 -0.08154762 -0.14803757 -0.14233232 0.1436064 -0.13929154 -0.10333555
0.08038325 -0.19857265 -0.029727798 0.17990321 -0.096866876 -0.17029902 0.16684905 -0.16670449
