log/gae/version_0/checkpoints/best_model_valid-epoch=2969.ckpt (torch, 81258 bytes, 33 tensors)

encoder.egnn.layers.0.edge_mlp.0.weight f4 [32, 33]
000000 89 c8 a0 3d 78 d5 52 3e f4 bc 2c be e8 5d 45 be
       0.07850749 0.20589244 -0.16868955 -0.19274104
000010 93 60 77 3d 96 30 04 3e a3 52 ab bd 68 de a2 bd
       0.060394835 0.12909159 -0.08365371 -0.07952577
000020 a4 98 d2 3c 49 dc ee bd 7d 86 ca 3d c2 05 0b 3e
       0.02570755 -0.1166311 0.09888933 0.13576415
000030 42 78 59 bd 80 b2 7e 3d 21 eb da bd 58 35 f5 3d
       -0.053093202 0.06218195 -0.106893785 0.11973065
000040 70 4f 3e bd 14 f4 47 be fc 4e 8b 3e cc 2e 1b 3e
       -0.046462476 -0.19526702 0.27208698 0.1515457
000050 d7 b3 2b be 41 e6 e9 bc 58 a7 30 be 95 be 20 bd
       -0.16767822 -0.028552176 -0.17251337 -0.039244253
000060 97 7e 06 be 79 5e 38 3e 11 4a aa bd 46 b2 d1 bd
       -0.13134228 0.18004788 -0.08314908 -0.10239081
000070 16 99 0b bd a1 3c d0 3d d2 c6 32 3e e5 9c 8d bd
       -0.03408154 0.10167814 0.17458656 -0.06914691
000080 c0 be eb bb 3d 06 84 3d 69 21 1c 3e a9 5e 13 bd
       -0.00719437 0.06446502 0.1524712 -0.035978947
000090 91 82 96 bd 66 f1 e9 bc 98 1b 0c 3e 13 42 e2 3c
       -0.07349122 -0.02855749 0.13682401 0.027619397
0000a0 26 32 1a 3c 32 b9 44 bd a0 88 5a 3d a1 d7 88 3d
       0.00941137 -0.04802818 0.053352952 0.06681753
0000b0 e5 12 c3 bd 72 b0 1f be a9 69 86 3d e0 f6 6c 3d
       -0.09525088 -0.15594652 0.06563122 0.057852626
0000c0 c6 08 ee bd 26 33 2f 3d 6e 11 40 be 39 f2 07 be
       -0.11622767 0.04277339 -0.18756649 -0.13275994
0000d0 55 1f 21 3e 51 e7 4a 3d 27 7b a4 bd 14 c9 c4 bd
       0.15734608 0.049537007 -0.08031302 -0.09608665
0000e0 75 2d 14 3d ff cb de b9 04 f6 a5 bc cf 99 76 3d
       0.036176164 -0.0004249513 -0.020258911 0.060205277
0000f0 4c 32 c6 bd 83 09 a3 bd 23 4b 2b be 04 e7 ad 3c
       -0.09677562 -0.079607986 -0.16727881 0.02122832
000100 eb 8a b3 3d 89 4c 29 3e fa 08 6c 3d 7e 84 3c 3d
       0.08766731 0.16533102 0.05762575 0.046024792
000110 69 d7 ca 3d 0b ff ff 3b 05 a0 e0 3d 72 cd 13 be
       0.099043675 0.007812386 0.10968021 -0.1443384
000120 4a b9 ab bd 77 3f 38 be b0 30 6b 3b 00 50 2b 3d
       -0.083849505 -0.1799296 0.0035887174 0.04182434
000130 cf a4 98 bd ae 4d 11 be 8f 30 39 3d b7 a1 3d bd
       -0.0745331 -0.14189789 0.045212325 -0.0462968
000140 3c ab 41 bd c3 a4 02 be fe de fa 3d 9a c9 e8 bd
       -0.047282442 -0.12758164 0.12249564 -0.113665774
000150 cf b6 13 3e 9f 41 82 bd b9 0d 33 be 20 76 bb 3d
       0.14425205 -0.063601725 -0.17485704 0.0915339
000160 a7 1e d9 3c 4b 60 b3 bd 5f 5f 96 3d 7f 9f b1 3d
       0.026503874 -0.08758601 0.07342409 0.086729996
000170 44 bd 62 be 52 66 ae bd 0d 2e c2 bd 5d 80 13 3e
       -0.22142512 -0.0851561 -0.0948144 0.14404435
000180 16 39 fd 3d 37 9a f2 bd 20 e6 ed 3c f3 60 a7 3d
       0.12364404 -0.118458204 0.029040396 0.081727885
000190 9b c1 e5 bd b2 13 aa bc ae 22 d0 bd 45 71 39 be
       -0.11218568 -0.020761345 -0.101628646 -0.18109615
0001a0 26 94 ba bd 83 17 8c bc e2 2c 14 3e a1 ba b9 3c
       -0.09110288 -0.017101055 0.14470246 0.022672
0001b0 d9 0f 23 bd 06 94 07 3d 63 4c 98 bd c9 7c 0e 3e
       -0.039810035 0.03310015 -0.074364446 0.1391479
0001c0 a2 f8 fe 3b 8a 0b ae 3c 7c 99 d1 3c 14 33 8d 3d
       0.007781104 0.021245737 0.025585882 0.06894508
0001d0 3e c3 28 3c 31 b1 0c be be 3c 04 3d c9 d2 79 3c
       0.010300456 -0.13739468 0.03228449 0.015248009
0001e0 a0 dc 4f 3c 7a 8a 45 3e 21 5e 97 bc 89 64 b0 bd
       0.012686878 0.19291106 -0.018477501 -0.086129256
0001f0 b7 76 54 bd a2 f7 0c 3b 7e e4 1c 3d 7c 57 bc bd
       -0.051871028 0.0021509905 0.038303845 -0.09196374
000200 6a 92 f2 3d df 3a d5 3d e9 f8 31 3e c7 44 29 bd
       0.118443325 0.104116194 0.17380108 -0.041325357
000210 63 db 33 3d cd bb 0a 3e 62 61 39 3d c3 84 29 be
       0.043910395 0.13548203 0.045258887 -0.16554551
000220 66 4b 88 bd ae b9 a2 3d 42 62 a0 bc 62 6e a9 bd
       -0.06655006 0.07945572 -0.019578103 -0.08273007
000230 6b 6b 88 3d dd ba 85 3d 32 6b 46 be ae 9b 6d bd
       0.06661113 0.06529782 -0.1937683 -0.058009796
000240 60 b0 e4 3d 28 ee 23 be 82 b2 c2 3d 77 32 12 3e
       0.11166453 -0.16008818 0.09506704 0.14277063
000250 62 2e 76 3c 09 6c d9 3d e7 e1 12 be 53 d5 34 be
       0.015025707 0.10616309 -0.14343987 -0.17659502
000260 da cb e9 bc ac 85 18 be 05 e4 fb 3d 86 0d 20 be
       -0.028539587 -0.14894742 0.12299351 -0.15630159
000270 70 76 02 be fa 92 9d bd 3e 81 10 be 9e 04 2e 3e
       -0.12740493 -0.07694049 -0.14111802 0.16993949
000280 bf 6a 02 be 18 c0 93 3b 2e 8d 87 3d da e6 82 3d
       -0.12736033 0.0045089833 0.06618725 0.06391688
000290 19 d7 89 bb c1 10 0a be b9 f3 35 be 22 f5 c4 3c
       -0.00420655 -0.13482954 -0.17768754 0.02404267
0002a0 8e 09 0c bc d2 89 b3 3d 71 30 8a ba b8 13 cb bc
       -0.0085472 0.087665215 -0.0010543001 -0.024789676
0002b0 54 06 0f bd b7 a8 a9 3d 1d f1 94 3c e5 07 c4 bd
       -0.034918144 0.08284133 0.018181378 -0.09571818
0002c0 8a 46 5c be 45 24 9b 3d e2 64 af bd 84 bd 58 3d
       -0.21511284 0.07575277 -0.08564164 0.05291511
0002d0 e6 7a 89 3d 03 86 e9 bd 95 6a e8 bd d6 a3 e9 bd
       0.06712894 -0.11402514 -0.11348454 -0.11408202
0002e0 9d c8 48 bd fe 60 35 be 96 77 ad 3d c2 0d bd 3d
       -0.049019445 -0.17712781 0.08470075 0.0923114
0002f0 bc 11 23 3e f4 eb 49 3d 5f e5 3e be b7 10 a4 bd
       0.15924734 0.049297288 -0.18642186 -0.080110006
000300 9b 48 f3 3c f2 54 f8 3d 1a 60 bf bd 59 9c 1a be
       0.029697707 0.12125577 -0.09344502 -0.15098704
000310 c6 ef b5 3d 38 e5 43 bd 27 3b c0 3c 69 13 97 bc
       0.08883624 -0.047826022 0.023465706 -0.018441873
000320 5a f3 19 bd ae 1a d7 3d 7c 0b 4e bd f9 ab 08 bd
       -0.037585594 0.105031356 -0.05030392 -0.03336713
000330 05 d6 f9 3d d4 33 ae bd e3 6b 01 bd ec bf ab bd
       0.12199024 -0.08505979 -0.03159703 -0.083862156
000340 be 7b 1f be 30 fd 8b bd 6b 70 31 be 8d 5d cc bc
       -0.15574548 -0.06835401 -0.1732804 -0.024946952
000350 4c 7a a6 bd ac c4 dc 3c 7a d7 13 3e ae f0 85 3e
       -0.08128795 0.02694925 0.14437667 0.26160187
000360 da 26 9c bd 17 94 bd 3d eb 31 4d bc c7 9c 81 3b
       -0.07624598 0.092567615 -0.012524108 0.003955457
000370 4d db 2d 3e 88 91 ba bd d0 f4 90 bd 29 fc 33 3d
       0.16978188 -0.09109789 -0.07077944 0.04394165
000380 4b 82 b8 3d 7a 75 94 bd 30 4a 6b 3b d0 36 b1 bd
       0.090092264 -0.072489694 0.0035902373 -0.08653033
000390 ae 8e 8f 3d ca 4a 55 be 90 99 66 3e 06 dd 08 bd
       0.07009636 -0.20829311 0.22519517 -0.03341391
0003a0 3f a7 74 be 7e 37 26 3e d1 9f bb bc 0c 3c 75 bd
       -0.23891924 0.16232106 -0.022903355 -0.05987172
0003b0 46 42 f7 bd e4 f8 11 be e4 ab db 3d b4 6d 7b 3d
       -0.120731875 -0.142551 0.10726145 0.061383918
0003c0 04 41 80 bd 99 54 22 3e 66 2e e9 bd fd f2 3f bd
       -0.06262401 0.15852584 -0.11385803 -0.04686259
0003d0 87 ac f3 3b db 61 ca 3d c7 7f e9 3d 4e e0 3e be
       0.0074363383 0.09881946 0.11401325 -0.18640253
0003e0 39 4e 53 3c 48 36 66 3d e1 b5 8e bd b0 6e ce bd
       0.012897068 0.05620411 -0.069682844 -0.10079706
0003f0 48 ab 66 bd a7 6b 13 3e e9 9a 45 3e f4 c0 00 be
       -0.05631569 0.14396535 0.19297375 -0.12573606

encoder.egnn.layers.0.edge_mlp.0.bias f4 [32]
000000 c1 dc 62 3d 46 82 f9 3d ea ca 15 3e 3a 08 04 be
       0.05538631 0.12183051 0.14628187 -0.12893763
000010 64 d7 88 3c 60 94 0f be b1 11 6a bd 23 a2 d5 bd
       0.016704269 -0.14021444 -0.057145778 -0.10431316
000020 e4 50 dd bc fb 26 d6 bd e6 df 31 bd c3 8f 43 be
       -0.02701611 -0.10456654 -0.043426417 -0.1909781
000030 65 90 e8 3c 6d ff c8 3c 66 cd fc bc ba 0b 12 3e
       0.028389165 0.024535859 -0.03085966 0.14262286
000040 b6 9f 80 bd fe b1 21 be df 6d 9a 3d 26 05 c2 bc
       -0.062804624 -0.15790555 0.075404875 -0.023684096
000050 cb ff d4 3b 04 de 0e be 4e 6b 9c bd be fc bb bc
       0.0065002195 -0.1395188 -0.07637654 -0.022947665
000060 96 7e ee 3d ca aa a6 bd 15 c7 2a 3e 80 72 d4 bd
       0.11645238 -0.08138044 0.16677506 -0.10373402
000070 96 ae 3c bd 9c f1 f9 3d 52 a5 17 bd e2 79 90 bd
       -0.046064936 0.122042865 -0.037022896 -0.07054497

encoder.egnn.layers.0.edge_mlp.2.weight f4 [32, 32]
000000 7e 46 db 3d cd 74 1e bd 02 34 36 3d be e6 f3 3d
       0.10706805 -0.03868561 0.044483192 0.11909245
000010 b9 ce 33 3e 97 33 a3 bc 50 32 0c be c6 15 dd 3c
       0.17559327 -0.01992206 -0.13691068 0.026987921
000020 8c 36 13 bd 20 b2 bb 3c e4 97 d0 3d 74 57 d5 bd
       -0.03594069 0.022912085 0.10185221 -0.10417071
000030 a0 73 04 be f3 54 90 3c d2 c5 41 bd 07 cd 03 be
       -0.12934732 0.017618632 -0.047307797 -0.1287118
000040 19 81 06 3e df d3 73 3e 9d 7d 86 bd 6a 10 9f 3b
       0.13135184 0.23811291 -0.065669276 0.0048542516
000050 c6 81 f1 3d 08 57 d5 3c bf 93 44 3e 26 95 c0 3d
       0.117923304 0.026042476 0.19196986 0.09403448
000060 ff 5d e0 3d 95 15 22 3e 9d fa df bc 1d 64 ef 3d
       0.10955428 0.15828545 -0.027341181 0.11689017
000070 6c 95 8a 3c f4 c3 6a 3e c9 a7 88 bd 42 cb dc bd
       0.016916953 0.22926313 -0.066726275 -0.10780956
000080 9d 53 68 bd 28 1a 2e bd 4e 4f 69 bd 26 19 bb 3d
       -0.056720365 -0.042505413 -0.056960396 0.09135656
000090 13 31 df bb 3b 36 e3 3d 0e 03 11 be 27 18 22 3e
       -0.00681127 0.11094328 -0.14161322 0.15829526
0000a0 c6 73 ad bd d0 d5 07 be 2c d2 9a 3d 66 1a 8d 3e
       -0.08469348 -0.13265157 0.07559618 0.27559203
0000b0 1d 45 93 3d 14 af 0d 3e a0 ba 3b be 1d e3 2e 3d
       0.07190917 0.13836318 -0.1833291 0.04269706
0000c0 17 0c f6 3d 50 fe ae 3c d3 af b9 bd 41 55 28 be
       0.12014025 0.0213615 -0.09066739 -0.16438772
0000d0 a2 63 a3 bd 19 09 8a bd dc 20 8f bc 22 79 40 be
       -0.07977988 -0.067400165 -0.017471723 -0.18796209
0000e0 80 db f1 3d 14 c4 2b bd 95 3c 10 be 1a 7a 12 3e
       0.118094444 -0.04193504 -0.1408561 0.1430439
0000f0 1f fb b2 3d 86 7d 53 be f9 27 c4 3d d9 eb 0c be
       0.08739304 -0.20653352 0.09577937 -0.13761844
000100 2d 62 f4 3c c6 ba 19 be e5 c7 99 3d ad f3 d5 bc
       0.02983197 -0.15012655 0.0750883 -0.02611717
000110 f2 fa eb 3d e9 23 4b bd 80 b7 55 3e 8b 03 24 3d
       0.115224734 -0.049594793 0.20870781 0.04004244
000120 42 6b 76 bb e2 7e 11 3e d1 04 09 3d af 77 53 3e
       -0.0037600552 0.14208558 0.03345186 0.20651124
000130 d0 34 3c 3e bf b4 42 3e 36 5a 57 be 23 04 14 be
       0.18379521 0.19014262 -0.21030506 -0.14454703
000140 85 65 36 3e 77 d1 8d be d8 e9 31 3d 21 c0 46 3d
       0.17812164 -0.27698871 0.0434359 0.048523072
000150 eb f8 75 bd 3c 46 ea bd 1d 1e bf bd f6 d8 b8 bd
       -0.06005184 -0.114391774 -0.093319155 -0.09025757
000160 b3 68 08 3e 95 a3 4a bc c3 6a 23 bd 0c 75 3c 3e
       0.1332119 -0.012368103 -0.039896738 0.18404025
000170 52 9d 30 be 3b 1e db bd ea 93 9b 3d 35 9e 39 3c
       -0.17247513 -0.106991254 0.07596572 0.011329223
000180 b0 41 52 be 9e dc 38 3e c5 fa 6a bd 27 ee de 3d
       -0.2053287 0.18052909 -0.05736806 0.10885268
000190 93 6a 1b 3e 86 45 cd bd b6 2d b5 3e 50 a2 ae 3d
       0.15177374 -0.10023026 0.35386437 0.085270524
0001a0 cb 99 80 be 6a fa ec bd 57 9e 2f be d7 18 b8 bd
       -0.25117335 -0.115712 -0.17150246 -0.08989113
0001b0 db c4 05 3e 43 5f ac 3e 39 57 7a be 63 03 56 be
       0.13063376 0.3366643 -0.24447335 -0.2089973
0001c0 e8 a5 0c be f6 54 f9 bd c9 15 71 be 82 f2 6e 3c
       -0.13735163 -0.12174408 -0.23543467 0.014584186
0001d0 13 93 66 3d 1d e3 88 be 09 a2 91 be 9b 1d 94 3e
       0.056292605 -0.26735774 -0.28443936 0.28928837
0001e0 54 08 68 3c 29 8d 04 be 82 27 a7 be c2 fd af 3d
       0.014162142 -0.12944473 -0.3264733 0.08593322
0001f0 68 b9 1d 3c 5b c6 e1 bd 58 6f 14 3e f3 70 a2 bd
       0.009626724 -0.110241614 0.144956 -0.079316996
000200 4a 9a 50 be 38 13 38 be 8e e3 11 be a0 66 c5 3d
       -0.20371357 -0.17976081 -0.14246961 0.09638715
000210 86 a0 20 3d 0b 0f 23 be 04 c2 1b 3e 49 a8 d3 bd
       0.039215587 -0.15923707 0.1521073 -0.10334832
000220 3b 99 17 be 2a 21 be bd 63 85 50 3d ba e1 23 3e
       -0.14804547 -0.09283669 0.050908457 0.16004077
000230 c3 d5 41 3c ae c4 cc 3d 92 ae 09 3e b5 b4 b3 bd
       0.01183075 0.09998451 0.134455 -0.087747015
000240 db 46 1d bc e3 0b 89 be 40 6c f6 3c ea ca eb bd
       -0.009599413 -0.2676688 0.030080914 -0.11513312
000250 0b 3b 87 3d 0b 59 15 bc 8c bc e7 bd 9d 6d 15 3e
       0.066030584 -0.009115468 -0.11315259 0.14592595
000260 3e 24 63 3d 13 fa 80 3d a2 3d 46 be 71 e2 9f bd
       0.055454485 0.06297698 -0.19359449 -0.07806862
000270 0f 72 4c be e4 cc 6a bd 7f 3b 74 3d aa bd 1d 3d
       -0.19965385 -0.057324305 0.059627052 0.038510956
000280 46 de 8e 3e dc a0 15 3e 9f 35 0b 3d 12 a8 ef 3c
       0.27903956 0.14612144 0.033986684 0.029254947
000290 a5 5c 4a 3d 23 7f 70 bd 71 bf 2b be 38 15 22 be
       0.04940476 -0.058714997 -0.16772248 -0.15828407
0002a0 9d a8 01 3e b7 fb 00 3c 60 28 24 be a9 bf 87 3d
       0.12661977 0.0078725135 -0.16031027 0.06628353
0002b0 f9 6d 09 be b0 48 0a bc 11 92 74 bd 51 a5 f2 3d
       -0.13420857 -0.008440182 -0.059709612 0.11847938
0002c0 9b 95 29 be 3e 9b 67 3e ba 32 10 3e b5 09 72 3d
       -0.16560976 0.22617814 0.1408185 0.05909129
0002d0 f3 e7 f0 bd e7 16 c4 3d be cb 0c be ad 41 18 be
       -0.11762991 0.09574681 -0.13749596 -0.14868803
0002e0 3f 94 03 bd 48 ec 80 bc 8e f9 2f be ec 4c 52 3d
       -0.0321238 -0.015737668 -0.17185041 0.05134289
0002f0 9c e7 63 3e 58 19 c9 3d 4f f7 ba bd e0 c5 3c bc
       0.2225632 0.09819287 -0.091292016 -0.011521786
000300 e2 52 6d be 50 b6 00 be 4f 9b c9 bd 7b 3f cf 3d
       -0.23176149 -0.12569547 -0.09844076 0.1011953
000310 bb ed d4 bd 61 0f 83 3c 58 53 4a 3e 9f 59 0f 3e
       -0.10396906 0.015998544 0.19758356 0.13999031
000320 77 2c c2 3d c9 1d e6 3d 8e ab d1 bd 61 dd f4 bd
       0.09481137 0.1123615 -0.102377996 -0.11956287
000330 a2 0e ff 3c de 06 05 3d 64 08 b5 bd e2 ab e9 3d
       0.031134907 0.032477252 -0.08839491 0.11409737
000340 72 46 ba bd a3 2f 2b be 65 9f 2a 3d 14 c6 c7 bd
       -0.090954676 -0.1671739 0.041655917 -0.09754577
000350 23 1f 34 be 9b 8d 04 3e 82 58 3c be a7 bc 88 3d
       -0.17590003 0.12944643 -0.18393138 0.066766076
000360 7f db 60 3e a0 97 33 bd 9b ff 0a be b9 72 14 be
       0.21958731 -0.043845773 -0.13574068 -0.14496888
000370 13 50 1d be f0 85 57 be db 2a d0 bc 44 9c 9a 3d
       -0.15362577 -0.21047187 -0.02541106 0.075493366
000380 25 8d 8c 3c 14 2a 05 be 59 98 6e ba 50 b3 a0 bd
       0.017157147 -0.13004333 -0.0009101681 -0.07846701
000390 b9 68 ae 3d e8 54 d1 3d 08 95 77 3c fe 6b 09 be
       0.08516068 0.10221273 0.015111215 -0.13420102
0003a0 2b 06 1b bd d8 6c db 3d 52 71 cd bd b1 6b a8 bc
       -0.03784768 0.1071412 -0.1003138 -0.020559164
0003b0 9e 2f 1f bd ee 62 a0 3d c2 bd 08 be 25 a4 7f bb
       -0.03886377 0.07831369 -0.13353637 -0.003900775
0003c0 96 11 e6 3d f1 73 59 3e a4 2a c4 bd cd 2c 82 bd
       0.11233823 0.21235634 -0.095784456 -0.06356201
0003d0 bd 1d 4a 3e 99 23 10 3e ce 63 de bd 47 bd bc 3c
       0.19737907 0.1407608 -0.1085888 0.023039473
0003e0 e3 1f 85 bd aa 7a ff 3d 1f 7d 2c 3d f2 08 25 3e
       -0.065002225 0.12474568 0.042111512 0.16116694
0003f0 b5 53 b8 3d db b9 f1 3d 84 d9 15 bd f3 b9 d9 bd
       0.09000341 0.11803027 -0.036584392 -0.1063117

encoder.egnn.layers.0.edge_mlp.2.bias f4 [32]
000000 74 90 08 3e 5d e5 54 3d 6a b3 bc bc ad 8d 0d 3e
       0.13336354 0.05197655 -0.02303477 0.13823576
000010 d3 cc fa 3d de 84 12 be 02 49 2a be 15 64 a1 bd
       0.12246098 -0.14308497 -0.16629413 -0.07880417
000020 95 c7 25 3e 44 b9 cf ba f8 93 96 bd 9b f7 df 3c
       0.16189416 -0.001584806 -0.073524415 0.027339747
000030 4e 2c 2b bc d5 c1 09 be 68 ae 04 be c9 ee 05 be
       -0.010447575 -0.13452847 -0.12957156 -0.1307937
000040 5a c0 58 bd 2d 0f c8 bd 63 45 09 3e e2 3f ea 3d
       -0.052917816 -0.097685196 0.13405375 0.11437966
000050 f0 42 c9 3a 18 3b 78 3d 8e 44 95 bd da 4d 7b 3d
       0.0015355032 0.06060323 -0.072884664 0.061353542
000060 2a 8c 4e 3d 2c 75 81 bc b5 ee 56 3d 23 74 03 be
       0.05042664 -0.015802942 0.052473743 -0.12837271
000070 32 0a b9 bd 8b 01 49 bb f5 f0 4e bd 7d 79 2a be
       -0.09035148 -0.0030671086 -0.050522763 -0.16647907

encoder.egnn.layers.0.node_mlp.0.weight f4 [32, 48]
000000 94 87 57 be 1f 47 25 bd 13 84 ab 3d 39 39 28 3c
       -0.21047813 -0.04035103 0.083748005 0.010267549
000010 98 81 79 bd c4 5b 6e 3c b3 ef 21 be 45 d1 92 bd
       -0.060914606 0.014548246 -0.15814094 -0.07168821
000020 64 43 3f be 3e ec 86 3d bc 70 8a bd 1f a3 11 be
       -0.18678051 0.06588028 -0.067597836 -0.14222382
000030 f2 c6 c0 bd e5 3a dc 3d 74 1e 4a bc aa 1c e8 bd
       -0.09412946 0.10753421 -0.012336362 -0.11333592
000040 db e1 65 bd de a9 8a 3d ef 4a df 3d da f7 de 3d
       -0.056123596 0.06770681 0.10902964 0.10887118
000050 2a ee 49 3e 7b ac fa 3c cb fa 07 3b 42 ec af bd
       0.19719759 0.030599823 0.002074885 -0.085899845
000060 7e 44 02 3e 89 da 94 3c a0 5a a5 bd de 9c e3 bb
       0.1272144 0.018170612 -0.08073926 -0.0069461903
000070 d5 30 13 3e 62 2c 20 3e 03 4a b1 bd 24 5c 9e bb
       0.14374097 0.1564193 -0.08656695 -0.0048327614
000080 58 44 cc bc 32 0b f0 3d a1 b9 f9 3c d7 7f 05 be
       -0.024934933 0.11720885 0.030484023 -0.13037048
000090 d2 49 45 bd 1b 13 df bd bc 6a fc 3d 6e f6 56 3a
       -0.048166104 -0.10892316 0.123250455 0.0008200173
0000a0 39 37 01 bd bd f9 0d bd 60 b3 52 3b 49 1f 1c 3e
       -0.031546805 -0.034661997 0.0032150373 0.1524631
0000b0 0a c7 79 3d 3c 64 e7 bd 6c 36 41 3d ca 6a 2b bc
       0.060980834 -0.11298415 0.04717104 -0.010462472
0000c0 fd 02 8d bd f5 1b d4 bd a3 a3 d3 bb 4c 0a 0f bd
       -0.068853356 -0.10356895 -0.006458716 -0.03492193
0000d0 1b 0f 2c be 34 00 ac bd b1 53 13 bd f5 fd 69 bc
       -0.16802637 -0.08398476 -0.035968486 -0.0142817395
0000e0 db de 0b be 24 27 4f bb e7 5d e6 bd 18 61 a0 bd
       -0.13659231 -0.0031609023 -0.11248379 -0.07831019
0000f0 6c f0 09 3e 50 f9 36 3b cb b3 43 3d 66 0d ad 3d
       0.1347062 0.0027919598 0.047778886 0.08449821
000100 0a 50 20 3d 14 6b 98 3d 35 82 12 3e 35 73 1e 3e
       0.03913883 0.074422985 0.14307483 0.15473635
000110 c4 61 03 3e 56 70 c5 bc 91 dc d4 3d d6 79 79 bc
       0.12830263 -0.024101418 0.10393632 -0.015226802
000120 92 48 b4 3d 6d 48 43 bc 92 37 94 bd e9 09 a6 bd
       0.08802904 -0.011919123 -0.07237162 -0.08107359
000130 e9 cd 8b 3d 55 cd f1 3c be af 90 3d be f9 87 bd
       0.068263836 0.029516855 0.0706477 -0.066394314
000140 06 12 74 3d 2e 05 03 be eb e1 85 ba 3a 48 07 be
       0.0595875 -0.12794945 -0.0010214424 -0.13211146
000150 24 03 45 bd b2 f4 cb bb ff 24 88 bd 84 46 da bd
       -0.0480987 -0.0062242383 -0.066476814 -0.10657981
000160 51 d9 e8 3d bb 8c 82 3d aa 3f b8 bd 84 97 c6 bd
       0.11369575 0.063744985 -0.08996518 -0.09696868
000170 27 14 0c 3d 13 2b c3 3d 5c 17 99 3d c5 87 d1 bc
       0.034198906 0.095297 0.074751586 -0.025577435
000180 ba f1 2d 3e f5 08 b5 bd a7 78 f4 bd ff bf d3 3c
       0.16986743 -0.08839599 -0.11937075 0.025848387
000190 1c ac b1 3d 84 5a a4 bd 1e 27 33 3d b9 4a 89 bd
       0.086754054 -0.08025077 0.043738477 -0.06703705
0001a0 b9 a3 23 be 38 74 c0 bd a3 8f 87 3d a0 e9 0b 3d
       -0.15980424 -0.09397167 0.066191934 0.03415835
0001b0 8f 67 43 bd 7d c2 06 be 53 fe b9 3d df 30 83 3d
       -0.047706183 -0.13160129 0.090817116 0.06405806
0001c0 36 74 11 3d 6c f3 2a 3d 73 d5 3a 3d 87 0e 7c bd
       0.035511218 0.04173605 0.045613717 -0.06153729
0001d0 5f f5 44 3d 8e 20 24 3c 12 75 af bd 77 72 94 bd
       0.048085567 0.010017527 -0.08567251 -0.07248395
0001e0 a1 01 11 be 96 8b af 3c 26 46 bc 3d b8 ca 59 bd
       -0.14160778 0.021428864 0.09193067 -0.053171843
0001f0 95 80 d8 ba 36 54 4a 3d a7 0d cc 3d c0 8d af bc
       -0.0016517813 0.049396716 0.099635415 -0.021429896
000200 b2 ff a4 3d e2 98 4a 3d a4 81 d5 bc 02 c6 45 bc
       0.080565825 0.049462207 -0.026062794 -0.0120711345
000210 2d e9 21 be 60 7f d8 3d ea e5 05 3e 99 45 f7 bd
       -0.15811606 0.1057117 0.13075987 -0.120738216
000220 83 5d d3 3d c5 f6 eb 3c 86 71 06 3d 8a fe f2 3d
       0.1032057 0.028804192 0.032823108 0.11864956
000230 67 03 92 3d 96 c3 c4 bd 35 9b 1e bd ca 04 d9 3d
       0.07129555 -0.096076176 -0.038722236 0.105966166
000240 33 3a 63 bd 30 c8 8d 3c f1 da f5 bd 22 c0 db bc
       -0.055475425 0.01730737 -0.120046504 -0.026825015
000250 9c 92 9d 3c 2f 51 6d bc 3c fd bd bd 44 01 bc 3d
       0.019234948 -0.014484688 -0.09276816 0.09179929
000260 b1 4a fb bc 39 47 46 3d 63 6f c1 bd a6 3c 8a bd
       -0.030675264 0.048407767 -0.094450735 -0.06749849
000270 2a 81 e5 3c c6 c5 eb 3d a0 12 da 3c d8 3c d1 bb
       0.028015692 0.11512332 0.02662021 -0.006385427
000280 66 d9 17 be 88 c1 b3 3d 95 a6 5d 3d db 9b 24 3d
       -0.14829025 0.087771475 0.054113943 0.040187698
000290 83 a7 b6 bc 14 4c 97 bd d9 e6 0b be b5 37 57 be
       -0.022296673 -0.073875576 -0.1366228 -0.21017344
0002a0 bc 45 79 3d fa f4 9d 3d b3 7f e2 3d 12 79 f8 3d
       0.06085752 0.07712741 0.11059513 0.12132467
0002b0 1e 95 8b 3d 0a bd 8d bd cb 5f bd bc c6 b9 c0 3d
       0.06815551 -0.06920822 -0.023116967 0.094104335
0002c0 89 de c2 bd 0e bb 4f 3d 2e f8 c8 ba 78 eb 13 be
       -0.095151015 0.0507155 -0.0015332752 -0.14445293
0002d0 45 18 d5 3d e5 c2 94 3c 90 3d 2e be 60 9f c3 bc
       0.1040502 0.01815934 -0.17015672 -0.023879707
0002e0 4e 4e fc bd 7c 94 c9 3c a0 cc 54 3d b1 d5 44 bd
       -0.12319623 0.024606936 0.051952958 -0.048055355
0002f0 b0 ba 4f bd 04 8f cf bd f0 ed 14 be 87 a6 c2 bd
       -0.05071515 -0.101347 -0.14543891 -0.09504419
000300 1c 14 ad 3b 8c 66 a5 3d 60 9a d0 bc ae 46 89 bd
       0.0052819382 0.080762 -0.025464237 -0.06702934
000310 c1 89 24 3c f2 4b 27 3d 33 ef 96 bd 72 4c 37 3d
       0.010042609 0.04084391 -0.073698424 0.04475064
000320 34 ee 5c bd c6 8c e7 bd 2f cf f9 bd ec 59 2e 3d
       -0.053938106 -0.11306147 -0.1219772 0.042566225
000330 67 07 be 3d 68 84 63 ba 29 96 c0 3d 7c 26 f1 3d
       0.09278756 -0.0008679093 0.09403641 0.117749184
000340 41 d3 fa 3d a4 3a 92 3b 13 fd ac bc 9b de 43 bd
       0.12247325 0.004462557 -0.021116769 -0.047819715
000350 75 e7 22 be a9 df 1f 3e 3e be db bc 75 f9 19 3e
       -0.15908606 0.15612663 -0.026824113 0.15036567
000360 46 6b 17 3d f4 62 fd bc 52 ce d6 bd 03 a1 82 bd
       0.03696754 -0.030930974 -0.10488571 -0.06378367
000370 48 0b d4 bd 6a b1 c8 bb 13 63 be bc 99 85 e0 3d
       -0.10353714 -0.006124665 -0.023240602 0.10962982
000380 c4 5d ee bd bc 6f 90 bd 87 e0 b7 bd a4 5f 88 3c
       -0.11638978 -0.07052562 -0.08978372 0.016647168
000390 26 3c de bd 35 ae 98 3d 26 46 79 bd 6d be af 3d
       -0.10851316 0.07455102 -0.060857914 0.08581243
0003a0 e8 d2 97 bd b3 01 33 3d f2 76 3d 3c b7 43 af 3c
       -0.07413274 0.043702792 0.011564003 0.021394594
0003b0 ab 8b d6 3d df e8 2e bc ac 9b 37 bd 92 c0 11 bd
       0.10475858 -0.010675638 -0.044826195 -0.03558404
0003c0 19 a6 d5 ba 4c 80 34 bd 6a f0 f0 bb a3 f2 78 3d
       -0.0016300111 -0.044067666 -0.0073528783 0.06077827
0003d0 2f bb ca bd 71 13 c1 3d 02 81 cc bd 78 56 35 3c
       -0.09898984 0.09427536 -0.09985544 0.011067979
0003e0 ab 5e e4 3c e1 2c 0e 3e 6a 5e 5f be 94 8c ed 3d
       0.027877172 0.13884307 -0.2181336 0.11599079
0003f0 c2 81 e4 bd 93 92 7e bd 51 2c 0c be f0 78 5d bd
       -0.11157562 -0.062151503 -0.1368878 -0.054070413

encoder.egnn.layers.0.node_mlp.0.bias f4 [32]
000000 ed 9e a4 bb 05 35 c1 bc c8 2a 11 3e db 81 14 3e
       -0.0050238282 -0.023584852 0.14176476 0.14502661
000010 78 34 6c 3d 28 af 90 3d 20 ea d5 3c fe b2 28 3d
       0.057667226 0.070646584 0.026112616 0.041186325
000020 9e 25 24 3d 31 56 b8 bd 47 5b 55 bd 92 98 23 bc
       0.040074937 -0.09000815 -0.052089002 -0.009985106
000030 aa f4 0e 3d a2 37 47 bd c9 7d ca 3d b7 ce 0c bd
       0.0349013 -0.04863704 0.09887273 -0.034376826
000040 9e 02 2c 3d 39 30 a7 bd 9b 3b fc bd cd 73 95 bd
       0.041994683 -0.081634946 -0.12316056 -0.07297478
000050 53 c0 c4 3d 9c d5 dc bd 68 a4 13 be 0e 29 96 3d
       0.096069954 -0.1078293 -0.14418185 0.07332049
000060 6d d7 ac ba e1 29 66 3e 0a 2c 30 be e5 20 15 3d
       -0.001318676 0.22476913 -0.172043 0.036408324
000070 19 44 09 bd 96 7a 20 3e 75 b6 6a bd d2 a7 7f 3d
       -0.03351221 0.15671763 -0.05730291 0.062415905

encoder.egnn.layers.0.node_mlp.2.weight f4 [16, 32]
000000 89 69 b1 bd 1c 25 56 be 8a 01 13 be c8 07 15 be
       -0.08662707 -0.20912594 -0.14356056 -0.1455375
000010 e6 50 98 3d 33 a3 3a 3e b2 3b 4b bd 15 d9 1c 3d
       0.07437305 0.18226318 -0.049617477 0.038292963
000020 49 ea fe 3d aa b2 a0 3d e4 ae 40 3e 27 61 49 bc
       0.1244703 0.078465775 0.18816715 -0.012291229
000030 a6 47 dd 3b 61 79 a5 bd 7e ef 16 be c7 59 7a bc
       0.006752926 -0.08079792 -0.14739797 -0.015280194
000040 f5 ad fe bd 64 04 a8 bd 01 27 4c 3d 83 c6 33 3e
       -0.124355234 -0.082039624 0.049841885 0.17556195
000050 1f 01 fd bc 29 e7 d3 bd a6 e0 22 3d 62 7f b8 bd
       -0.030884324 -0.10346825 0.039765023 -0.09008671
000060 3f 1a a1 bd b0 fa 0c 3d ae 6c ae 3d a0 fc 65 3d
       -0.07866334 0.03441876 0.08516823 0.056149125
000070 12 c4 db 3d a6 97 2b bb 99 33 40 bd 41 69 f9 3d
       0.10730757 -0.0026182919 -0.046924207 0.12178279
000080 ce 48 45 be 0b 7e 16 be 87 15 14 3e b1 8b c4 3d
       -0.19266054 -0.14696519 0.14461337 0.095969565
000090 b0 e7 1a 3e e4 16 fb 3d 64 14 1f be 24 8b 6f 3d
       0.15127444 0.122602254 -0.15535122 0.058482304
0000a0 f1 75 77 bd 7e aa 21 3d 86 81 f0 3d 37 46 8e 3d
       -0.060415212 0.039469235 0.11743455 0.06946986
0000b0 46 e9 29 3c c2 4f b8 3c e5 53 6c be ef 93 24 3e
       0.010370558 0.022498969 -0.23078878 0.16072057
0000c0 e1 e8 bc bd 1b 5a 21 3d f0 d1 aa bd 09 71 11 3e
       -0.092241056 0.039392572 -0.08340824 0.14203276
0000d0 aa 57 d2 3d 14 7c 5a bd 94 50 05 bd bd 8e 5b 3b
       0.10270627 -0.053340986 -0.03254755 0.0033501827
0000e0 cd 12 16 3e f4 9a 3d 3d 17 97 df bd 0a dd fd 3d
       0.1465561 0.046290353 -0.1091749 0.123956755
0000f0 f6 0c d2 bd 7a a2 9f 3d ef f7 02 be f6 5f a8 3d
       -0.10256378 0.07794662 -0.12789892 0.08221428
000100 6f 40 23 3e 5c d7 af 3d 49 d1 8c 3d dc e7 1c be
       0.15942548 0.085859984 0.068758555 -0.15322822
000110 ec d6 81 3c 1e 7d 13 3e 64 77 0a 3d 78 10 38 be
       0.015849553 0.14403197 0.033805266 -0.17975032
000120 2c 0f 3c be da 04 e9 bd dc 9e fd 3d 12 ab 17 3e
       -0.18365163 -0.113778785 0.12383816 0.14811352
000130 40 ca 88 3c d8 97 e5 bd 53 f8 93 3d bf d3 69 bd
       0.016698003 -0.112106025 0.072250985 -0.057086702
000140 2c 9d d2 bd 00 23 52 3e 08 0f 9f bd 00 4e de 3d
       -0.102838844 0.20521164 -0.07766539 0.10854721
000150 9e ec 8a 3d 57 b9 d8 3d f0 63 7c 3e 53 a1 5a 3d
       0.067834124 0.10582226 0.24647498 0.053376507
000160 f4 51 b1 bc 02 a3 89 3d 84 bf db bd 44 95 6c 3d
       -0.021645524 0.067205444 -0.10729888 0.05775954
000170 df 83 4f be 84 82 29 be 95 e2 85 bd be c9 f9 3c
       -0.20265149 -0.16553694 -0.06537358 0.030491706
000180 68 47 b6 bc b6 8a d4 3d 32 29 06 3e 49 0c a7 bd
       -0.022250846 0.103780195 0.13101652 -0.0815664
000190 4f 94 ea 3d c8 9d 0a be b1 e2 7c 3e ea 61 4a be
       0.11454069 -0.13536751 0.24695851 -0.19763914
0001a0 81 83 8d bc 83 2a a1 bc 34 7d 08 3e 73 43 81 3d
       -0.01727462 -0.019673591 0.13329011 0.06311693
0001b0 76 7e d8 bd 5b 7c 71 3d 31 6a 87 3d 6a 21 69 bd
       -0.105709955 0.058956485 0.06612051 -0.05691663
0001c0 be 8e ef bd a6 a7 4f 3e 66 38 7c 3d 3a 57 1c be
       -0.11697148 0.20278797 0.061577223 -0.1526765
0001d0 fb 60 0d be 18 6a f7 3d 02 25 cc 3c ae 5c c2 3c
       -0.13806526 0.12080783 0.02491999 0.023725834
0001e0 2e b7 02 be 17 3b 42 bd 34 2a 0e 3e 66 ed c5 3c
       -0.1276519 -0.047419634 0.13883287 0.024161052
0001f0 0c c2 16 3d fa dd 37 3d d2 bb 83 bd 30 8f 60 3e
       0.03680615 0.044889428 -0.06432308 0.21929622
000200 e0 aa ca bd e8 ef c4 3d c0 ec 49 bd 87 ed 31 be
       -0.09895873 0.09616071 -0.049298048 -0.17375766
000210 08 96 77 3c fd 23 95 bd 77 98 48 bb 0e 13 80 bb
       0.015111454 -0.07282255 -0.0030608454 -0.0039085215
000220 24 ff 04 be 85 40 ac 3d 5f 52 31 3d 06 45 37 be
       -0.12987953 0.084107436 0.043291446 -0.17897424
000230 3e 63 64 bd 92 7b 06 3e 1a 52 f5 3d 44 97 95 bd
       -0.055758707 0.13133076 0.1197855 -0.07304242
000240 8e fc 81 bd bc 4c ba bd e2 23 17 3e 83 7b e9 bd
       -0.06346999 -0.09096667 0.14759782 -0.11400511
000250 b6 25 57 3d 6e 35 20 3b 27 6f 28 3d 9d 3d bf bc
       0.0525262 0.002444591 0.041121628 -0.02334481
000260 ef a7 23 be 3f 37 50 bd 8c 29 e0 bd 64 4a 31 be
       -0.1598203 -0.050833937 -0.109454244 -0.17313534
000270 b6 c0 71 3d a3 90 37 be 37 7f cf 3d 9e 58 a7 bd
       0.059021674 -0.17926268 0.10131686 -0.08171199
000280 83 c4 ef 3b fb 01 84 bd 21 d4 29 bd be b2 f8 3d
       0.007317127 -0.0644569 -0.041462068 0.12143467
000290 d7 94 e8 3d 75 52 68 bd 4f 54 1a be b1 13 42 3e
       0.11356514 -0.056719262 -0.15071224 0.18952824
0002a0 40 a0 05 3d 2e bb 14 be 43 63 df 3d d1 71 cb bd
       0.03262353 -0.14524528 0.109076045 -0.09933818
0002b0 53 72 aa bd 86 00 28 bd aa 4b d1 bd 3c 20 5a be
       -0.08322587 -0.041016124 -0.1021951 -0.21301359
0002c0 41 2b 81 3d ab 94 ed bd d9 b5 f7 3d 0d 93 ff bd
       0.06307078 -0.11600622 0.120952316 -0.124792196
0002d0 b9 81 18 3e 59 c8 2e bd c4 b2 a3 bc 42 91 39 3d
       0.14893235 -0.042671535 -0.019982703 0.045304544
0002e0 66 c1 f7 ba 30 25 30 3e 6a ee 65 be da 55 c0 3d
       -0.0018902242 0.17201686 -0.22454229 0.09391375
0002f0 5b 60 71 bc d9 7e 31 3e df b9 e2 bc 9a a1 71 bd
       -0.014732446 0.17333545 -0.02767652 -0.058992006
000300 e2 d5 fb 3d 9f 0c 05 bd e2 bf 32 be 57 7c 6f 3e
       0.12296654 -0.03248274 -0.1745601 0.23387276
000310 89 17 94 3d 40 97 15 3e f5 1d 1c be eb de fe 3d
       0.072310515 0.14608479 -0.15245803 0.12444862
000320 fa af 17 3e b9 70 71 be 0a 4f 98 bd e9 34 57 3d
       0.14813223 -0.23578157 -0.074369505 0.052540693
000330 89 9f 0d bd 8e 12 d0 3d 5d c1 33 3d 7c 31 8d 3e
       -0.034575973 0.10159789 0.043885577 0.27576816
000340 11 42 af 3d 69 a1 97 bd e3 5c 64 3d 07 f3 2e be
       0.08557523 -0.074038334 0.055752646 -0.17084895
000350 71 ee ce 3d 22 17 32 be d3 b9 37 be 5a f0 b2 3d
       0.10104073 -0.17391637 -0.1794198 0.0873725
000360 58 c6 80 3e d2 68 49 3e 99 ab 4b bd 0a 14 77 3d
       0.25151324 0.19668892 -0.049724195 0.060321845
000370 d0 f9 aa 3d 68 9c 54 bd f6 14 8d 3d bb cc 1b bc
       0.08348429 -0.051906973 0.068887636 -0.009509261
000380 ed 40 43 3e 3d 39 2c be 0e 00 bb 3d 58 4c bd bc
       0.19067736 -0.1681871 0.0913087 -0.023107693
000390 a5 a4 bf bd fd c9 e9 bd c5 45 7b 3c b6 f6 e2 bc
       -0.09357575 -0.11415479 0.015336459 -0.027705532
0003a0 46 be ee bd 2e 63 e0 bb b2 70 4c 3d 97 f5 39 be
       -0.116573855 -0.0068477606 0.049912162 -0.18160091
0003b0 69 af a7 3d f2 1b 83 bc 4d e3 57 bd 6f 1a d9 3c
       0.08187754 -0.016004536 -0.052707005 0.026501862
0003c0 37 6e 05 be 86 49 d3 3d dd cf d3 3d ef df a7 3d
       -0.13030325 0.10316758 0.10342381 0.08197009
0003d0 f6 b9 99 bd 31 6e 46 bd 29 74 ea bc 52 23 8c 3d
       -0.07506172 -0.04844493 -0.028619843 0.06842674
0003e0 55 b2 95 3d 11 cb c2 bd 9f b8 1b be 21 09 1a 3e
       0.07309405 -0.09511388 -0.15207146 0.15042545
0003f0 b1 f8 c4 3d 34 f5 68 3d e4 29 41 3d f1 b3 5e 3b
       0.096177466 0.05687447 0.04715909 0.0033981765

encoder.egnn.layers.0.node_mlp.2.bias f4 [16]
000000 44 27 86 3b e4 1a 3c 3e b1 4c 07 be 94 66 ba 3d
       0.0040940363 0.18369633 -0.13212849 0.091015965
000010 6b 86 04 3e 26 94 3e 3e a4 f7 04 bd 9f 3f 15 3e
       0.12941901 0.18611202 -0.03246273 0.14575051
000020 3d 6b d7 3d 22 14 89 bd c6 a0 f0 3d 35 5a 22 3d
       0.10518501 -0.06693293 0.11749415 0.03963681
000030 77 63 43 3e 06 e2 af bc 21 50 4a 3d 7f 96 8c bd
       0.19080912 -0.021470081 0.049392823 -0.06864642

encoder.egnn.layers.0.coord_mlp.0.weight f4 [32, 32]
000000 33 62 3a 3c 4d c3 3a be 5a 06 e5 bd fd 7b af bd
       0.011375952 -0.18238564 -0.11182852 -0.08568571
000010 2f 48 94 bd fa 2c b4 3c ac 6e 13 be 39 48 36 bc
       -0.072403304 0.021994103 -0.14397687 -0.011125618
000020 a1 91 bf bd 5c a9 87 bc 2c 65 28 3e fd d6 95 3c
       -0.093539484 -0.016560249 0.16444844 0.018290991
000030 6a e2 02 bd 63 e1 2b 3d 01 33 da bc 66 32 d6 3d
       -0.031954207 0.041962992 -0.026635649 0.104588315
000040 29 59 c9 bd 8f 37 82 3c 7f f9 f5 bc d2 45 18 3e
       -0.09831459 0.015895633 -0.030026196 0.14870384
000050 c8 91 06 3e 14 80 09 be 8f 2b 5d bd 46 54 af 3d
       0.13141549 -0.13427764 -0.05399662 0.08560996
000060 68 10 cf 3c 11 17 4f 3c f1 d2 42 3d ed f7 90 bd
       0.025276378 0.012639777 0.04756445 -0.07078538
000070 d9 12 03 3d 8b c1 8a bc fa cb 5e bd 89 9f 4e bd
       0.032000396 -0.016937992 -0.054393746 -0.050445113
000080 50 f3 7f bd a4 a1 16 3e 6e 70 05 bb f2 14 29 3c
       -0.0624879 0.14710099 -0.0020361203 0.010319935
000090 0d 07 02 3e 45 19 97 bd 9e 14 9c 3d 10 aa a0 bc
       0.12698002 -0.07377867 0.0762112 -0.019612342
0000a0 b6 8d cb 3d 83 30 b4 3d a5 10 ac bd 74 79 b7 3b
       0.099391386 0.087983154 -0.08401612 0.005599195
0000b0 c9 be 13 3e 2e 9c 8b 3d e8 4e 6a bc b8 c8 cd bc
       0.14428248 0.06816898 -0.014301039 -0.025120124
0000c0 e5 2c b4 bb b0 1e e6 3d 37 ea ef 3d ec a4 de bd
       -0.005498516 0.11236322 0.11714595 -0.108713
0000d0 ba df 4e 3c 29 fc 72 3d 0b 88 33 bd 6f c9 c8 bd
       0.012626583 0.05932251 -0.043830913 -0.098040454
0000e0 a8 74 8e bd cb 0f 24 be 9a c4 2a be c0 25 0f 3e
       -0.06955844 -0.1602165 -0.1667656 0.13979244
0000f0 89 01 06 be a9 3b 0b bd 74 d6 97 bc 33 f9 42 3e
       -0.13086523 -0.033992443 -0.018534876 0.19040374
000100 47 af 34 3e 7d f9 a7 bd 5d 30 42 3c 64 18 54 be
       0.17644988 -0.08201883 0.011852351 -0.2071243
000110 26 c0 49 3d 9a e9 e9 3d 1a 0e 9b bd 6d 9c 1f 3e
       0.049255513 0.11421509 -0.07571049 0.15587015
000120 47 b2 14 3d d3 3e 34 bd a7 2d 4c 3e de 57 95 3d
       0.03630283 -0.044005226 0.1993929 0.0729215
000130 3e d4 94 3d 96 df 16 bd 92 88 ad 3d 9a 1a 30 3e
       0.072670445 -0.036834322 0.08473314 0.17197648
000140 3e f6 99 3d d0 d5 1a be d5 35 bf 3b 89 b3 85 3d
       0.0751767 -0.15120625 0.0058352747 0.06528384
000150 80 63 d4 3d ce 4c 48 be d0 47 22 3d a7 54 19 3d
       0.103705406 -0.19560549 0.039619267 0.037434246
000160 a4 d6 e7 3d 94 79 22 3e 50 bd e0 3d 9f d3 62 be
       0.11320236 0.15866691 0.109736085 -0.2215104
000170 a9 fb e8 3d e9 06 49 ba 03 0c c3 3d 9a 99 09 be
       0.11376125 -0.0007668571 0.095237754 -0.134375
000180 02 11 96 3d ff ff 5e bd cb b2 65 be 32 a3 13 be
       0.07327463 -0.054443356 -0.22431485 -0.14417723
000190 56 ee a1 3d eb 8a 23 bc 65 7e 9e 3c ba ca 42 3c
       0.07906787 -0.009981851 0.019347379 0.011889154
0001a0 26 41 5d 3d e9 76 0d be a6 e5 64 3e a7 7c 59 3d
       0.05401721 -0.13814892 0.22353229 0.053097393
0001b0 07 af f9 bb 06 26 27 3e 46 53 8f bc d9 90 45 3e
       -0.007619742 0.16323099 -0.017495763 0.19293536
0001c0 cb 2c d1 bd 54 76 20 be ab 55 73 3d 1a 9f 1b 3e
       -0.10213622 -0.15670139 0.05940787 0.15197411
0001d0 2e e9 91 3d f2 44 cd bb 77 22 ce 3d 42 1d 3f 3e
       0.071245536 -0.0062643224 0.100651674 0.18663505
0001e0 88 17 e8 bb 9d d8 0d 3e 4b cd 04 3e ca 2b 71 be
       -0.0070828833 0.13852163 0.12968938 -0.2355186
0001f0 1d 8c 3d 3e 12 42 ad bc dc 43 63 bd b6 2a db 3c
       0.1851048 -0.021149669 -0.055484638 0.026753765
000200 89 8a 98 3d 95 a0 3f bc f9 50 a5 3c bc 2f b6 ba
       0.074482985 -0.011696001 0.020180212 -0.0013899724
000210 4c 8f ab 3d bd 06 96 3d 01 1a d1 bd 59 17 ab 39
       0.08376941 0.07325504 -0.10210038 0.00032633057
000220 29 1d fb bc 21 66 b5 bd f5 5d f4 3d aa 35 8e bd
       -0.030653553 -0.0885737 0.119319834 -0.06943829
000230 2c 0e a4 3d a6 d6 cf 3c 2a fd 16 3e 1c 26 dd 3c
       0.080105156 0.025370907 0.14745012 0.026995711
000240 a9 c3 a7 3c 1d 32 06 be ca 5b 25 bd 75 ae 8a 3d
       0.02047904 -0.13105054 -0.04037074 0.06771556
000250 42 de 57 3d f1 89 e1 bd ca de 63 bc 42 61 0c 3e
       0.052702196 -0.11012638 -0.0139080975 0.13708976
000260 28 39 df 3d 71 bf 8a 3c 11 e9 35 3d 8c 25 2a bd
       0.108995736 0.01693699 0.044411723 -0.041539714
000270 a4 7d 95 3d c2 4b 2b bd c6 97 da bb 5d fc ad bd
       0.07299355 -0.041820295 -0.006670925 -0.084954
000280 56 32 b9 bc 2a 33 92 bd 51 85 09 bd 35 2e bd 3c
       -0.02260701 -0.07138665 -0.033574406 0.023093322
000290 51 a0 61 bd c2 4d 6e 3d bd 46 2e bd 77 aa f0 bc
       -0.05508453 0.058179624 -0.04254793 -0.029378159
0002a0 9b a0 d6 bd 57 79 3b bd db 12 e1 3d c2 67 28 3c
       -0.10479852 -0.045770016 0.109899245 0.010278644
0002b0 ef 20 fb 3c b7 74 d1 3d 1a c0 17 3d 45 e2 de 3d
       0.030655352 0.1022734 0.037048437 0.10883001
0002c0 a2 0f 41 bd 94 3b bc bd 9c 40 32 bd cd ca 10 3d
       -0.04713405 -0.09191051 -0.043518648 0.035349656
0002d0 d2 b4 ac 3d c0 7e e8 bd e7 fc cc 3d 86 3b 58 3d
       0.08432926 -0.11352301 0.10009175 0.05279114
0002e0 e8 8b 62 bd 74 69 3c 3d 8f a0 eb 3d ce 0a 10 be
       -0.055309206 0.045999005 0.115052335 -0.14066622
0002f0 1e 27 06 3e d5 4f b9 3c ec e0 61 3d ca 2d 24 be
       0.1310086 0.022621075 0.055146143 -0.16033092
000300 17 20 1e 3d 11 9d 1c be 82 73 1f bb 0b 05 1a be
       0.038604822 -0.15294291 -0.0024330323 -0.15040986
000310 ae 91 e8 3d 77 d7 4d 3e b9 29 58 be ae 3d 56 3c
       0.11355911 0.20101725 -0.21109666 0.013076229
000320 47 9f 6b 3d 84 b6 44 be f3 d8 76 3d 33 48 ee bc
       0.057524946 -0.19210249 0.060265493 -0.029087162
000330 18 17 9a 3d 64 fb 0b 3d 1e f3 9b 3d 6d fd d5 3d
       0.07523936 0.03417529 0.0761473 0.10448728
000340 8c a2 14 3c 71 d7 7c bc c3 26 a8 bd 89 aa e2 3c
       0.009071957 -0.015432225 -0.08210518 0.027669208
000350 0d c0 4b 3e 36 a7 ae bc c0 1e f3 3d f4 08 d2 3d
       0.1989748 -0.021319967 0.118710995 0.10255614
000360 03 0f 32 3e 7d ca 2c 3d 65 61 18 3e 5e 53 ae bd
       0.17388539 0.042185295 0.14880903 -0.08511995
000370 83 5e 1e 3d 20 56 e0 3b 8b af 37 be ce f2 30 3d
       0.038664352 0.0068462044 -0.17938058 0.043200307
000380 c5 4f d7 bd 25 aa 44 3e e2 93 2a 3e 9e 8c 80 3d
       -0.10513262 0.1920553 0.16657975 0.062768206
000390 a3 11 8d 3c df 0e 00 be 5b 35 58 3e 4f b9 cf bd
       0.017220324 -0.12505673 0.21114103 -0.10142767
0003a0 a3 9d e3 bc 8a c6 f4 3d 8d a6 27 bd d5 de c1 3d
       -0.027785128 0.11951931 -0.04093032 0.0946633
0003b0 3c 5d 28 bb 69 e2 dc 3c 95 56 55 be ae 34 27 be
       -0.0025690338 0.02696343 -0.2083381 -0.1632869
0003c0 8d e3 92 3d d9 d4 89 3d 3d 4d 13 3d 13 c9 43 be
       0.07172308 0.067300506 0.035962332 -0.19119672
0003d0 8b 7b 03 bd 25 08 8a 3d 21 f9 32 be 2e ca 22 be
       -0.03210024 0.06739835 -0.17477848 -0.15897438
0003e0 b0 ec 4b 3d f1 72 a0 bd 4f 29 5d bd 23 1c c2 3c
       0.04978627 -0.07834423 -0.053994473 0.023695057
0003f0 c0 bc 77 3b 23 43 dd 3d 73 8d 9f 3d 55 da 1c 3e
       0.0037801713 0.10803821 0.07790651 0.15317662

encoder.egnn.layers.0.coord_mlp.0.bias f4 [32]
000000 2c 33 17 bd d8 b2 49 3c 65 3b 0b bd 00 03 19 bd
       -0.036914036 0.012310706 -0.03399219 -0.037356377
000010 c8 9f ce 3d fb 72 c0 3d 13 c8 98 3d 22 2a 7c bd
       0.100890696 0.09396931 0.07460036 -0.06156362
000020 e3 5c b0 3d 98 3a ca bd f9 59 e8 bd 76 93 26 be
       0.08611467 -0.09874457 -0.11345286 -0.1626719
000030 26 e0 97 3c 1c d8 44 bd 4e 84 14 3d a8 7a 56 bd
       0.0185395 -0.04805766 0.036258988 -0.052363068
000040 15 de 86 3d 3c b3 43 bd e8 8a 75 bd 6c 97 81 bd
       0.065853275 -0.047778353 -0.059946924 -0.063277096
000050 1b f9 a8 bd 67 6d 66 bd 26 57 d3 3c d0 65 72 bc
       -0.08250638 -0.056256678 0.025798392 -0.014794782
000060 c6 c0 b2 bd 32 22 66 3c 26 50 95 3d 9f c4 98 3d
       -0.08728175 0.014046239 0.07290678 0.074593775
000070 fd 3d 1e 3c 0d c6 6a 3d 95 a0 45 3d 8d d0 8d 3c
       0.009658334 0.057317782 0.048248846 0.017311359

encoder.egnn.layers.0.coord_mlp.2.weight f4 [1, 32]
000000 bc e6 9a 3d 72 95 fd bd 25 9e 14 3e 23 7b 0a 3e
       0.0756354 -0.1238202 0.14513452 0.13523535
000010 be 22 47 3d be 47 8c 3d 12 c5 1b 3e 55 4f f9 bd
       0.048617117 0.06849621 0.15211895 -0.121733345
000020 ac 07 c3 bd 08 12 df bd a1 00 d8 bd 48 6e 18 be
       -0.09522948 -0.10892111 -0.10546995 -0.14885819
000030 80 1f 98 bb 24 ac ee 3d ce a2 ee 3d e0 59 fd 3d
       -0.004642427 0.11653927 0.11652146 0.12370658
000040 67 de 0c be a9 fc c4 3d 2d 5c f2 3d 8e 55 d4 3d
       -0.13756715 0.096185036 0.118339874 0.10367881
000050 ed 5e e2 bd 62 9d 38 3d 59 73 07 be f8 a2 b2 3d
       -0.11053262 0.045071967 -0.13227595 0.0872249
000060 d4 8d a9 3d 9f de ed bd a5 a0 bf 3d 3c 19 04 be
       0.08279005 -0.11614727 0.093568124 -0.12900251
000070 4c 06 fb bd b4 53 01 3e af 29 c3 bd 07 7c 21 3e
       -0.122570604 0.12629586 -0.09529435 0.15769969

exp_avg f4 [32, 33]
000000 28 2b 44 b9 34 83 a9 b6 8e a2 c2 b9 a6 eb 6e b8
       -0.00018708094 -5.0518665e-06 -0.00037123676 -5.6963087e-05
000010 31 54 10 39 6d 6e 8f 3a fc a3 68 3a c5 2d d1 39
       0.00013764274 0.0010942944 0.0008874533 0.00039897687
000020 21 9d 24 39 6a 7e 28 3a c0 dc a4 b9 34 f9 ab b8
       0.00015698794 0.00064275286 -0.0003144499 -8.200333e-05
000030 84 55 8b 3a 71 4a 2d 3a 5e 1d 39 39 c1 70 b7 b9
       0.0010630344 0.0006610519 0.00017653915 -0.00034988488
000040 a1 4e 84 39 4f e7 f7 38 8b 46 1c ba 0c 9b ea 38
       0.00025235585 0.000118209624 -0.00059614395 0.00011186869
000050 d9 23 ad 39 97 55 d4 3a f7 0d 2b 3a 01 8a 69 39
       0.0003302384 0.0016199824 0.0006525213 0.00022272022
000060 2d 0f b9 38 b3 b6 c3 39 3c a8 55 37 f2 fe 59 38
       8.824314e-05 0.0003732942 1.27349595e-05 5.1974268e-05
000070 de 20 83 3a 67 00 60 3a c4 a5 12 b9 d3 89 18 ba
       0.0010004302 0.0008544982 -0.00013985398 -0.0005818877
000080 ac 6d b6 bb 5d 68 4d 3a c8 9c ab 39 b6 f9 c0 b8
       -0.005567273 0.0007835681 0.00032732473 -9.201786e-05
000090 73 f1 24 3a b0 03 e8 b7 7c 35 3c b9 d0 50 c0 38
       0.0006292082 -2.7658272e-05 -0.00017949002 9.170326e-05
0000a0 14 cf 5b 3a c9 cd db 39 17 72 f1 39 a7 29 7c 3a
       0.0008385044 0.00041924257 0.00046052106 0.0009619244
0000b0 52 d0 2d 3a 70 4f 1b 39 48 48 de 38 5b 9e b0 39
       0.00066304684 0.00014811545 0.00010599248 0.0003368732
0000c0 83 76 54 39 4f 92 3e 39 b4 da ac 39 f8 3d 2e 39
       0.00020262045 0.00018174316 0.00032969343 0.00016617018
0000d0 05 39 70 38 33 b6 a6 39 9e ae c7 39 9c 43 cb 39
       5.7273563e-05 0.00031797736 0.00038086338 0.0003876955
0000e0 a9 79 a1 39 77 04 85 b8 f2 2e 8a 39 ca c6 34 39
       0.00030798957 -6.342766e-05 0.00026356388 0.00017240192
0000f0 eb b9 8d 38 e6 cf 6b 3a 41 8a c0 39 4b 31 d7 39
       6.758034e-05 0.0008995518 0.000367241 0.00041044722
000100 ef 41 dc 38 10 a7 cd 3a 75 7a 04 38 42 5f eb b8
       0.000105026986 0.0015690047 3.15853e-05 -0.000112234164
000110 43 79 16 39 63 31 a1 b8 64 d3 ed 38 1c b2 be 39
       0.00014350288 -7.686277e-05 0.00011340415 0.00036372326
000120 64 5f 28 b9 19 1e 4d b9 7d ab ac b8 3f 61 4a b9
       -0.00016057264 -0.00019561536 -8.233541e-05 -0.00019300448
000130 8c 24 9d b8 04 4e 50 b9 36 ae b9 39 e3 5f 17 39
       -7.493151e-05 -0.00019865489 0.00035415747 0.00014436203
000140 0e fa c7 b9 72 bc 01 b9 33 51 c0 38 ff 38 97 37
       -0.00038142543 -0.000123726 9.170398e-05 1.8027144e-05
000150 c1 f5 97 37 9d 3a e2 38 5c f2 92 35 c2 dd cc b8
       1.811504e-05 0.00010787437 1.0948384e-06 -9.768784e-05
000160 6d 83 ac b8 4f c2 2b 38 77 18 b8 38 4e 00 db 37
       -8.226079e-05 4.095054e-05 8.778361e-05 2.6106976e-05
000170 4b fe 05 39 3e fd 20 38 d3 1b ce b8 0d 09 c6 b8
       0.000127786 3.8382823e-05 -9.828028e-05 -9.4430616e-05
000180 3a 20 77 b6 9c 4f 4f 38 b8 41 a5 b8 25 b6 96 b9
       -3.6824626e-06 4.9426788e-05 -7.880054e-05 -0.00028745938
000190 f9 60 85 b8 d4 ca 11 b9 54 06 86 b9 a2 31 9c b8
       -6.359997e-05 -0.00013903837 -0.00025563187 -7.4479045e-05
0001a0 62 2b 4f 37 dc c6 9e b6 10 81 75 b9 00 00 af b9
       1.2348262e-05 -4.731917e-06 -0.000234131 -0.000333786
0001b0 61 49 45 b9 75 5a 91 b9 cf e9 4c b9 0f 28 be b8
       -0.0001881472 -0.0002772395 -0.00019542057 -9.0673675e-05
0001c0 28 1a 06 b9 82 1b 30 b8 06 ef a5 b9 b3 ce 76 b9
       -0.0001278898 -4.198729e-05 -0.0003164934 -0.0002353739
0001d0 89 62 5f b9 89 85 85 b9 ed 0b c0 b8 d0 6c 72 b9
       -0.00021303644 -0.00025467228 -9.157495e-05 -0.00023119454
0001e0 13 d3 80 b8 df cf f7 b7 98 d7 2c b9 9d 1d 46 b8
       -6.142831e-05 -2.9541492e-05 -0.00016483513 -4.7234458e-05
0001f0 db 5e 1e b8 0e 36 a7 b8 20 f5 0c b8 ba 8b bb b9
       -3.7758477e-05 -7.973249e-05 -3.360689e-05 -0.00035771524
000200 15 46 59 b9 c9 2b 46 b9 89 78 61 b9 09 c9 88 ba
       -0.0002072084 -0.00018899063 -0.00021502575 -0.001043589
000210 64 ab 59 b9 06 bf 1f b9 dd 6a a0 b9 66 23 b9 b8
       -0.0002075858 -0.00015234583 -0.00030597197 -8.828081e-05
000220 e5 85 47 b9 f9 80 7d 39 73 80 9d 39 d6 f9 35 39
       -0.00019027998 0.00024176006 0.00030041076 0.00017354576
000230 35 6f e4 37 de 40 ab 39 28 74 0c b9 f4 02 78 38
       2.7231503e-05 0.0003266399 -0.00013394712 5.9130558e-05
000240 6b 57 21 37 a2 c3 ae 37 04 98 9b b8 3a 76 82 b9
       9.616701e-06 2.0833515e-05 -7.419291e-05 -0.00024883618
000250 6c 6e ef b8 bc 7c fb b6 3a 70 c7 b9 08 a7 de b8
       -0.00011416976 -7.494904e-06 -0.00038039853 -0.00010616897
000260 ec 21 cd b8 87 a1 6b 39 18 d4 a4 39 b4 0c 1c 39
       -9.78148e-05 0.0002247152 0.0003143854 0.00014882052
000270 be 0f bb b8 56 9c 56 39 dd 01 0b b9 d5 ef 3d 38
       -8.919787e-05 0.0002046687 -0.00013256767 4.5284472e-05
000280 8a 82 5b 38 88 92 d4 38 90 b3 ea 38 e0 44 b7 b9
       5.2335243e-05 0.00010136241 0.000111914356 -0.00034955796
000290 8c 3e 5e 3a 86 3b cc 39 f4 d6 25 39 ae 21 93 3a
       0.0008477948 0.0003895426 0.00015815702 0.0011225247
0002a0 6a 35 56 39 93 f1 80 39 7b c5 9a ba 1f e0 6a ba
       0.00020428529 0.0002459405 -0.0011808121 -0.0008959788
0002b0 be c1 92 37 41 61 d1 38 06 16 c3 b9 3b 98 e4 39
       1.7494775e-05 9.9840116e-05 -0.00037209707 0.0004360097
0002c0 12 8f 7a b8 f4 8a ef b7 bc 42 76 b9 70 65 b1 38
       -5.973789e-05 -2.8555725e-05 -0.00023485249 8.458912e-05
0002d0 99 31 91 3a 98 a9 18 3a e9 b8 64 39 22 b4 87 3a
       0.0011077403 0.0005823611 0.00021812659 0.0010353366
0002e0 e6 1e bd 39 1a 3b 63 39 2b fa a1 ba 92 26 72 ba
       0.0003607191 0.00021670424 -0.0012357881 -0.0009237315
0002f0 1e bc 71 38 61 64 85 39 e4 70 d3 b9 34 97 0b 3a
       5.7634075e-05 0.00025442525 -0.00040329166 0.000532496
000300 fd 42 88 38 c7 4e 7d b9 b8 87 83 b9 4c 71 18 39
       6.497463e-05 -0.00024157307 -0.00025087385 0.00014538056
000310 86 4e 8a 3a 74 3d 13 ba 82 91 2e b9 57 34 8f b7
       0.0010551966 -0.0005616762 -0.00016648139 -1.7071301e-05
000320 a6 50 aa 36 db 9e 61 b9 cf 1a c7 37 0f 43 1b 38
       5.0757835e-06 -0.0002151685 2.3735132e-05 3.7017333e-05
000330 a5 34 9a 38 22 23 8c b9 f3 24 b0 b7 28 29 12 b9
       7.353098e-05 -0.00026729057 -2.099804e-05 -0.00013938977
000340 90 bc 9a b9 f4 18 c0 b8 0d a5 05 b9 c5 4f 09 38
       -0.0002951366 -9.159921e-05 -0.00012745355 3.2737637e-05
000350 08 f2 06 38 b6 5a 8c 36 5f c3 4e b7 c3 43 b0 b7
       3.21735e-05 4.1828853e-06 -1.2324045e-05 -2.1012389e-05
000360 a6 ea b3 b7 34 3b 3e b6 1c ec 0d b8 e1 ae fd b8
       -2.144773e-05 -2.8346667e-06 -3.3836914e-05 -0.00012096554
000370 8e ee b6 b8 19 7f 59 b8 7c de 7d b7 09 a7 9b b8
       -8.7228706e-05 -5.18552e-05 -1.5131776e-05 -7.422089e-05
000380 9b 0c 98 b6 fb 8a b5 37 db e4 3e b9 50 30 09 b8
       -4.5314205e-06 2.16416e-05 -0.00018205067 -3.270834e-05
000390 6a 13 17 38 e0 7e 58 37 61 c6 f3 b9 e9 09 90 b8
       3.6019286e-05 1.2904144e-05 -0.00046496376 -6.868301e-05
0003a0 45 1d c2 38 f9 7c bb b9 60 41 c7 b8 f2 18 4c b9
       9.256093e-05 -0.0003576053 -9.5012365e-05 -0.00019464249
0003b0 72 36 29 b9 35 e9 58 39 97 e6 b4 38 81 18 c5 b8
       -0.00016137378 0.00020686242 8.6260196e-05 -9.398256e-05
0003c0 b8 cb d8 38 7c 17 70 b8 7f a8 42 39 a6 1f 04 ba
       0.00010337628 -5.724233e-05 0.00018564051 -0.00050401164
0003d0 1c e9 2d b9 04 28 6a 39 8e 9c 84 b9 05 87 a4 b9
       -0.00016585406 0.00022330886 -0.00025293644 -0.00031381115
0003e0 76 fd f6 36 57 43 ad b9 ea 28 06 b9 da dd 26 b9
       7.360878e-06 -0.00033047303 -0.00012794478 -0.0001591364
0003f0 e5 73 27 b9 c3 d7 a5 39 ec d7 52 38 5e e5 e3 b8
       -0.00015969535 0.00031632007 5.0268995e-05 -0.000108669265
