log/gae/version_0/checkpoints/last_model.ckpt (torch, 80682 bytes, 33 tensors)

encoder.egnn.layers.0.edge_mlp.0.weight f4 [32, 33]
000000 5a 8e a3 3d 8b 08 54 3e 84 5e 2c be 48 36 45 be
       0.07986136 0.20706384 -0.1683293 -0.19258988
000010 b3 e0 7d 3d 66 4e 04 3e d1 30 ac bd 93 e3 a1 bd
       0.061981868 0.12920532 -0.084077485 -0.079047345
000020 83 1b d5 3c f9 ba f0 bd ec d0 ca 3d a2 df 09 3e
       0.026014095 -0.11754412 0.0990313 0.13464215
000030 46 1e 55 bd ba b1 82 3d 5b be da bd d5 f6 f5 3d
       -0.052030824 0.06381555 -0.10680839 0.1200997
000040 55 11 39 bd b2 49 47 be 7f 95 8b 3e ce ee 1b 3e
       -0.045182545 -0.19461706 0.27262494 0.15227816
000050 30 f2 29 be 77 05 ec bc 04 6d 31 be f3 3e 1e bd
       -0.16596293 -0.0288112 -0.17326742 -0.03863425
000060 b4 d7 05 be 84 89 37 3e 76 88 a8 bd db 90 d3 bd
       -0.13070565 0.17923552 -0.08229153 -0.10330363
000070 8c cf 06 bd 3a d4 d2 3d c9 98 32 3e 1c 12 8c bd
       -0.032912776 0.10294385 0.17441095 -0.068393916
000080 45 5a a6 bb 48 7d 84 3d 0c ba 1c 3e f7 f4 12 bd
       -0.005076679 0.06469208 0.15305346 -0.035878148
000090 9b 50 95 bd 9a 03 e0 bc 20 0a 0c 3e 3c d5 e2 3c
       -0.07290765 -0.027345467 0.13675737 0.027689569
0000a0 fb b9 17 3c 59 c7 41 bd d8 11 59 3d 70 6d 87 3d
       0.00926065 -0.047309253 0.052995533 0.066126704
0000b0 14 3f c6 bd 3e 45 20 be cb c3 84 3d 42 b4 6e 3d
       -0.0968 -0.15651414 0.06482657 0.058277376
0000c0 f0 61 ec bd 4f fe 2f 3d 41 a0 3f be 1c 8e 07 be
       -0.115421176 0.042967137 -0.18713476 -0.13237804
0000d0 10 32 21 3e e3 af 52 3d ed 82 a4 bd 80 7d c5 bd
       0.15741754 0.05143727 -0.080327846 -0.09643078
0000e0 e0 dc 13 3d 7d bf 2e b8 90 06 ab bc cd f1 72 3d
       0.036099315 -4.166317e-05 -0.020877153 0.05931263
0000f0 2e 7b c9 bd 10 9f a3 bd 54 0a 2b be 01 0f ae 3c
       -0.09837948 -0.07989323 -0.16703159 0.021247389
000100 a7 39 b4 3d c4 9a 29 3e 03 ad 6c 3d 4e 87 3d 3d
       0.08800059 0.16562945 0.057782184 0.046271615
000110 64 1f ca 3d 38 2b f9 3b 77 cc e2 3d e9 c8 13 be
       0.098692685 0.007604029 0.11074155 -0.1443211
000120 4a 0b ab bd 79 bc 38 be 78 f8 5f 3b 92 c5 29 3d
       -0.083517626 -0.18040647 0.0034175199 0.041448183
000130 fd 50 98 bd 5e a3 0f be a9 e8 38 3d 02 20 3a bd
       -0.07437322 -0.14027163 0.045143757 -0.04544068
000140 30 1c 40 bd 0a 5d 03 be 0d 7e fa 3d db 71 ea bd
       -0.04690188 -0.1282846 0.122310735 -0.114474975
000150 07 82 13 3e 20 17 7e bd bf 2c 33 be 33 e4 bc 3d
       0.1440507 -0.062033772 -0.17497538 0.09223213
000160 db 9a d8 3c 64 d0 b5 bd 0a 1c 98 3d 0e 07 b1 3d
       0.026441028 -0.08877638 0.07427223 0.08643924
000170 ee 11 62 be ab f2 ad bd 26 f5 c2 bd c0 e9 13 3e
       -0.22077152 -0.08493551 -0.095194146 0.14444637
000180 fe 37 fc 3d 96 b0 f2 bd 74 e1 ec 3c ac f2 a6 3d
       0.12315367 -0.11850087 0.028916098 0.08151755
000190 b6 af e4 bd ff 0c ae bc bd 14 d0 bd 42 34 3a be
       -0.11166327 -0.021246431 -0.101602055 -0.18183997
0001a0 48 35 bb bd 37 f2 86 bc fb 07 14 3e e4 7a bf 3c
       -0.09141022 -0.016472919 0.1445617 0.023374029
0001b0 f0 e1 20 bd ca df 09 3d 78 9b 92 bd 93 7e 0c 3e
       -0.03927797 0.033660688 -0.071585596 0.13720159
0001c0 31 30 dd 3b c8 37 b1 3c 67 76 cf 3c 0c 2a 8c 3d
       0.0067501296 0.021633044 0.025325013 0.06843957
0001d0 79 34 2b 3c 01 2e 0d be ea 74 03 3d 83 da 6e 3c
       0.010449522 -0.1378708 0.03209392 0.014578464
0001e0 51 ca 55 3c 2d f5 45 3e e0 f9 a0 bc 7e 7b b0 bd
       0.013048724 0.19331808 -0.0196504 -0.08617304
0001f0 4f 67 54 bd 87 af 1b 3b c7 b6 26 3d e6 07 bf bd
       -0.051856335 0.0023755745 0.040701654 -0.093276784
000200 85 78 f1 3d cb 02 d6 3d c3 b4 31 3e 22 18 30 bd
       0.117905654 0.104497515 0.17354111 -0.042991765
000210 08 b8 2f 3d c3 81 0b 3e 05 f5 35 3d 3e c4 2a be
       0.042900115 0.13623719 0.044423122 -0.16676423
000220 db 23 89 bd 46 0f a3 3d 6a 09 99 bc 22 bf a9 bd
       -0.06696292 0.079618976 -0.018681247 -0.08288409
000230 66 56 86 3d 3a dd 85 3d 05 54 47 be 52 75 71 bd
       0.06559448 0.06536336 -0.19465645 -0.058949776
000240 7a 48 e4 3d 3f 81 24 be dd 13 c4 3d 3e e8 11 3e
       0.11146636 -0.16064928 0.09574101 0.1424875
000250 20 43 64 3c 0f e5 d7 3d 2c 75 13 be 1e ec 34 be
       0.0139320195 0.10541736 -0.14400166 -0.17668197
000260 c4 6e f4 bc e1 b2 17 be e9 e0 fd 3d d4 75 20 be
       -0.029837973 -0.1481433 0.12396414 -0.15669948
000270 1e 3e 02 be 29 2e 9c bd da 35 11 be e5 84 2d 3e
       -0.12719008 -0.07625992 -0.14180699 0.16945226
000280 30 14 03 be e6 08 40 3b dc 2b 87 3d 8a 40 82 3d
       -0.1280067 0.002930218 0.066001624 0.06359966
000290 35 8b 8b bb b6 2f 0a be 1b f6 35 be 5b f6 c5 3c
       -0.004258538 -0.13494763 -0.17769663 0.024165323
0002a0 d8 5e 1b bc c4 f3 b1 3d 77 de 89 b9 46 09 c7 bc
       -0.009483062 0.08689073 -0.00026296425 -0.024296414
0002b0 04 c9 12 bd f6 6d a9 3d a5 93 95 3c 29 e3 c5 bd
       -0.035836235 0.082729265 0.018258879 -0.09662468
0002c0 0c 45 5d be 09 f8 9e 3d 60 69 aa bd c8 b0 58 3d
       -0.2160837 0.07762153 -0.0832088 0.052902967
0002d0 de 6a 88 3d 40 67 e9 bd 25 47 e8 bd 8b 4a e9 bd
       0.06661008 -0.113966465 -0.11341695 -0.11391171
0002e0 37 b7 47 bd f0 15 36 be 05 1c af 3d 00 cd bd 3d
       -0.04875871 -0.17781806 0.08550266 0.09267616
0002f0 63 aa 24 3e 14 11 4b 3d 0a 9e 3d be d9 bd a3 bd
       0.16080622 0.049576834 -0.18517318 -0.07995195
000300 1e 4d ea 3c 9d 45 fb 3d 4b 79 be bd 56 15 1b be
       0.028601225 0.12269137 -0.093004785 -0.15144858
000310 76 c5 b5 3d 27 58 3b bd 5a dd b5 3c 69 3e 9c bc
       0.08875553 -0.045738366 0.022200275 -0.019072728
000320 b8 92 1d bd 27 56 d6 3d f3 ec 54 bd 68 f2 05 bd
       -0.03847 0.10465651 -0.051983785 -0.03270188
000330 05 94 fa 3d 5c 1f af bd e2 25 03 bd 27 d3 aa bd
       0.12235264 -0.08550903 -0.03201855 -0.08341055
000340 f8 59 1f be 34 f5 8c bd 5a e5 31 be 2c 83 cf bc
       -0.15561664 -0.06882706 -0.17372647 -0.025331102
000350 40 2f a7 bd 64 de d0 3c 85 88 12 3e a4 9b 85 3e
       -0.08163309 0.02549667 0.1430989 0.26095307
000360 09 8d 9d bd d8 4b bb 3d 55 7f 6d bc 34 be 8c 3b
       -0.07692916 0.091453254 -0.01449569 0.004295135
000370 5a bb 2e 3e d3 6e ba bd 05 fd 92 bd 90 9d 37 3d
       0.17063656 -0.09103169 -0.07177166 0.044827998
000380 2e 0b b7 3d 1f 9d 95 bd 9d b7 4c 3b d1 3d b3 bd
       0.08937679 -0.07305359 0.0031237372 -0.08752025
000390 c9 38 8e 3d 6d 89 56 be 79 b5 65 3e ac 78 0a bd
       0.06944425 -0.20950861 0.22432508 -0.033806488
0003a0 94 dd 75 be 43 51 26 3e e2 8c b3 bc be 9c 78 bd
       -0.24010307 0.16241936 -0.021917764 -0.060696356
0003b0 a4 1c f7 bd a8 3c 12 be a3 a2 dc 3d 06 de 7b 3d
       -0.1206601 -0.14280951 0.10773208 0.061491035
0003c0 6a 7a 7e bd a5 11 23 3e 66 46 eb bd 39 b0 3b bd
       -0.062128462 0.159247 -0.11488037 -0.045822356
0003d0 4f 87 dd 3b 76 ed c8 3d 09 b3 e9 3d d1 54 3f be
       0.006760515 0.09810917 0.11411101 -0.18684699
0003e0 81 60 44 3c 15 79 67 3d 7a 2e 8f bd 56 a6 d0 bd
       0.011985899 0.056511957 -0.069912866 -0.10187976
0003f0 ad 34 65 bd 94 96 13 3e 22 27 46 3e 0a d5 00 be
       -0.05595844 0.1441291 0.19350865 -0.12581268

encoder.egnn.layers.0.edge_mlp.0.bias f4 [32]
000000 1e e2 61 3d 25 32 f9 3d 38 04 16 3e b8 d9 03 be
       0.055147283 0.121677674 0.14650047 -0.12876022
000010 e9 f6 8c 3c e6 fd 0e be 26 4e 69 bd bd 3f d5 bd
       0.01720758 -0.13964042 -0.056959294 -0.10412548
000020 4d c9 d8 bc 04 ef d5 bd 9f da 35 bd dd a3 43 be
       -0.026463175 -0.10445979 -0.044397946 -0.19105478
000030 cd 6d e6 3c 1e ca c8 3c 8e 10 00 bd ab d9 12 3e
       0.028128529 0.02451044 -0.031265788 0.14340846
000040 67 a0 7e bd e2 0b 21 be 06 78 9b 3d 45 e2 c4 bc
       -0.06216469 -0.15727189 0.07591252 -0.024033675
000050 78 b4 b8 3b 6f a7 0e be 25 0a 9c bd d7 2a c4 bc
       0.005636748 -0.13931058 -0.076191224 -0.023946209
000060 9d c7 ed 3d db ba a4 bd 54 f0 2a 3e 25 6f d5 bd
       0.11610339 -0.08043452 0.1669324 -0.1042159
000070 b0 02 3d bd 3c 92 f9 3d 27 98 19 bd a8 5d 90 bd
       -0.04614514 0.12186095 -0.03749862 -0.070491135

encoder.egnn.layers.0.edge_mlp.2.weight f4 [32, 32]
000000 a5 3c dc 3d 7e da 22 bd 21 20 35 3d 78 73 f2 3d
       0.107537545 -0.03975915 0.044220094 0.1183843
000010 7d 24 34 3e cd 4f 9f bc 53 f6 0c be 41 3b dd 3c
       0.17592044 -0.019447232 -0.1376584 0.027005794
000020 2b 9d 0b bd f6 b1 b0 3c 32 7a d3 3d 5b 36 d4 bd
       -0.034085434 0.021569233 0.10326041 -0.1036193
000030 25 04 04 be 9e aa 86 3c dc a1 3d bd 17 9e 02 be
       -0.12892206 0.016438778 -0.04629694 -0.12755619
000040 ac ad 07 3e fb 66 74 3e b6 0f 83 bd 8d 35 8a 3b
       0.13249844 0.23867409 -0.06399481 0.0042178095
000050 9e 27 f2 3d 19 0b dc 3c ff 7b 45 3e 43 de be 3d
       0.11823963 0.02686076 0.19285582 0.09319737
000060 34 83 df 3d 4c d7 22 3e 3a 3c cd bc 90 58 eb 3d
       0.10913697 0.15902442 -0.025053132 0.11491501
000070 41 fd 63 3c 70 e7 6a 3e 49 b7 88 bd 07 56 db bd
       0.013915361 0.22939849 -0.06675584 -0.10709768
000080 60 2b 68 bd 3f d7 2f bd f5 bb 61 bd 28 8f b8 3d
       -0.05668199 -0.042929884 -0.05511089 0.0901168
000090 b2 85 f7 bb 09 db e4 3d 73 3e 11 be c8 be 22 3e
       -0.0075537795 0.1117459 -0.14183979 0.1589309
0000a0 e3 d6 ad bd 97 14 08 be c7 ad 96 3d be 59 8d 3e
       -0.08488252 -0.13289104 0.07357364 0.2760753
0000b0 9c a5 93 3d 5d 62 0d 3e 5e 3e 3c be 8a b5 28 3d
       0.07209322 0.13807054 -0.18383166 0.041188754
0000c0 e3 05 f7 3d 22 13 b0 3c 31 2a bb bd 0a 64 28 be
       0.1206167 0.021493498 -0.09138907 -0.16444412
0000d0 2a 06 a4 bd 39 e4 88 bd c4 22 8f bc 61 bd 40 be
       -0.08008988 -0.06684155 -0.017472632 -0.18822242
0000e0 0f 80 f1 3d de f7 2a bd 0c 91 10 be 54 b8 12 3e
       0.11792003 -0.04174029 -0.14117831 0.14328128
0000f0 47 d5 b2 3d cb e5 53 be 21 b4 c1 3d 32 de 0d be
       0.08732086 -0.20693128 0.09458185 -0.13854292
000100 ff 01 f4 3c 47 1f 1a be 16 b3 99 3d 5e 83 d2 bc
       0.029786108 -0.15050994 0.07504861 -0.025697406
000110 a7 f6 ed 3d 3d d9 45 bd b4 92 55 3e e5 7d 27 3d
       0.11619311 -0.048302878 0.20856744 0.040891547
000120 a9 92 87 bb 42 a1 11 3e bb 8e 05 3d b3 fb 53 3e
       -0.0041373563 0.14221671 0.03260682 0.20701484
000130 93 49 3d 3e 86 4c 42 3e 58 d0 57 be b3 e2 13 be
       0.18485098 0.18974504 -0.2107557 -0.14441948
000140 4e 4d 37 3e e2 1f 8e be 8e 4a 33 3d 92 85 4a 3d
       0.17900583 -0.277587 0.043772273 0.04944379
000150 09 85 7a bd 80 ea e8 bd af 14 bf bd 3e 73 b8 bd
       -0.06116203 -0.11372852 -0.09330117 -0.09006356
000160 4c 23 07 3e 33 54 44 bc 46 0e 23 bd a0 03 3c 3e
       0.13197058 -0.011982965 -0.039808534 0.18360758
000170 7c 89 30 be 08 8d db bd b0 30 99 3d e2 1a 40 3c
       -0.17239946 -0.10720259 0.074799895 0.011725159
000180 a2 fa 51 be 54 80 39 3e be 6d 6f bd 60 56 dd 3d
       -0.20505765 0.1811536 -0.058454268 0.1080749
000190 c7 52 1c 3e 73 17 cf bd ea 62 b5 3e 9f 50 af 3d
       0.15265952 -0.101118945 0.35427028 0.08560299
0001a0 8e 58 80 be 89 b2 ed bd d9 1a 30 be f4 ef b6 bd
       -0.25067562 -0.116063185 -0.17197742 -0.08932486
0001b0 94 16 07 3e 59 79 ac 3e 39 1c 79 be 1f ca 54 be
       0.13192207 0.3368633 -0.24327172 -0.20780228
0001c0 e0 72 0c be a9 dc fa bd 23 85 71 be 63 48 74 3c
       -0.13715696 -0.12249119 -0.23585944 0.014909836
0001d0 ae cf 65 3d 2f d7 88 be 6c 75 91 be 19 69 94 3e
       0.056106262 -0.26726672 -0.28409898 0.28986433
0001e0 c6 51 71 3c 01 45 04 be 17 2d a7 be 79 c2 af 3d
       0.014728969 -0.12916948 -0.32651588 0.085820146
0001f0 81 9f 36 3c a2 ec df bd 4f 24 15 3e 09 a0 a2 bd
       0.011146427 -0.10933806 0.14564632 -0.079406805
000200 f6 1d 50 be bf 21 3a be bf da 13 be 2c 4a c9 3d
       -0.20323929 -0.18176936 -0.14438914 0.098286
000210 05 9e 28 3d 94 02 22 be 40 91 1a 3e c8 66 d0 bd
       0.041166324 -0.15821296 0.15094471 -0.10175854
000220 a7 53 17 be 7b 2f c0 bd a3 35 4e 3d bb 5e 25 3e
       -0.14778005 -0.09384056 0.05034412 0.16149418
000230 b8 09 54 3c bf 7e ca 3d ac 9c 0a 3e a1 1f b1 bd
       0.01294177 0.09887456 0.13536328 -0.08648611
000240 aa 45 03 bc 02 40 89 be ea af 02 3d d8 c3 ea bd
       -0.008012215 -0.26806647 0.031906046 -0.114631355
000250 a6 1c 85 3d 54 de e7 bb 5a d8 e5 bd 26 97 14 3e
       0.06499605 -0.007076064 -0.112229064 0.14510784
000260 34 e3 5e 3d 90 75 83 3d 9e fb 45 be 5b e1 a0 bd
       0.054415897 0.06418908 -0.19334266 -0.07855483
000270 72 b9 4c be 54 5c 6c bd 75 7b 74 3d 82 50 23 3d
       -0.19992617 -0.05770524 0.05968805 0.0398717
000280 41 49 8f 3e 6b 8e 16 3e 76 6a 08 3d b1 e5 ec 3c
       0.27985576 0.14702766 0.033304654 0.02891812
000290 f6 fa 47 3d 3a b3 74 bd e0 75 2b be ee 1b 23 be
       0.04882332 -0.059741236 -0.16744184 -0.15928623
0002a0 e0 b4 01 3e 2d 43 12 3c 23 0c 22 be 8e b7 86 3d
       0.12666655 0.008927149 -0.15824942 0.06577979
0002b0 b1 0c 0a be 88 c9 06 bc 7c da 73 bd 59 80 f3 3d
       -0.13481404 -0.00822676 -0.059534535 0.11889715
0002c0 0c 03 2a be 57 fe 67 3e 3b 01 0f 3e 28 b5 71 3d
       -0.16602725 0.22655617 0.13965313 0.059010655
0002d0 29 1f ef bd a5 76 c2 3d 42 d7 0c be 50 fc 17 be
       -0.11675865 0.09495286 -0.1375399 -0.14842343
0002e0 aa e4 ff bc 7b d0 82 bc 3a c7 2f be e7 34 52 3d
       -0.031236965 -0.015968552 -0.17165843 0.051319983
0002f0 f1 66 64 3e 21 1f c9 3d e0 87 ba bd f1 fa 40 bc
       0.22304894 0.098203905 -0.09107947 -0.011778579
000300 54 fa 6d be 8d bb 00 be 28 be c9 bd cf 10 d0 3d
       -0.23240024 -0.12571545 -0.098507226 0.10159456
000310 23 d5 d6 bd 1a 31 82 3c 3f 64 4a 3e ad 9d 0f 3e
       -0.10489871 0.015892554 0.19764803 0.14024992
000320 10 45 c2 3d 01 de e3 3d da 01 cf bd 55 7a f4 bd
       0.09485829 0.11126328 -0.10107775 -0.119373955
000330 09 a6 fc 3c 85 b7 04 3d 4f 51 b5 bd db b1 e9 3d
       0.03084089 0.03240158 -0.08853399 0.11410876
000340 71 3f bb bd 69 04 2b be 34 6f 2a 3d 94 f8 c8 bd
       -0.0914296 -0.16700901 0.041609958 -0.098130375
000350 ef 0c 34 be c5 2f 05 3e 64 c2 3c be c9 8f 88 3d
       -0.17583059 0.13006504 -0.18433529 0.0666805
000360 16 31 61 3e 54 c9 34 bd 1e 59 0b be d5 91 13 be
       0.21991381 -0.044137314 -0.13608214 -0.144111
000370 1b 9a 1e be 4b 06 57 be 87 74 c8 bc 42 21 9a 3d
       -0.15488474 -0.20998494 -0.024469627 0.07525875
000380 d4 03 8f 3c b5 6a 04 be 2e a7 11 bb 87 6c a0 bd
       0.01745788 -0.1293133 -0.002222489 -0.078332
000390 96 05 ad 3d 3c c7 cf 3d 30 54 86 3c 70 1c 0a be
       0.08448331 0.10145423 0.016397566 -0.1348741
0003a0 f0 84 1b bd 9e 1e db 3d 55 55 c8 bd 68 a5 ac bc
       -0.037968576 0.10699199 -0.09781901 -0.021074966
0003b0 52 99 1f bd cf 81 a2 3d 97 45 09 be cc bc 81 bb
       -0.038964577 0.07934915 -0.13405453 -0.003959274
0003c0 88 7b e3 3d ef ff 59 3e 69 ca c5 bd 0a 9b 81 bd
       0.11107546 0.21289037 -0.09657747 -0.063283995
0003d0 03 2d 4a 3e 73 7c 0f 3e a2 56 e0 bd 79 2f c3 3c
       0.19743733 0.14012317 -0.10954024 0.023826348
0003e0 3c a0 84 bd 4d 4d fd 3d 24 36 2b 3d 6b dc 24 3e
       -0.06475875 0.123682596 0.04179968 0.16099708
0003f0 5e 90 b8 3d 65 a7 f2 3d e9 3d 10 bd 00 e0 d9 bd
       0.09011911 0.11848334 -0.035215292 -0.10638428

encoder.egnn.layers.0.edge_mlp.2.bias f4 [32]
000000 9f c8 07 3e df 11 54 3d b7 bd c0 bc 67 1a 0d 3e
       0.13260125 0.051774856 -0.023527963 0.13779603
000010 5e 58 f8 3d 81 5f 12 be 86 c5 29 be 8f 5b 9f bd
       0.1212623 -0.14294244 -0.16579255 -0.07781135
000020 0a 62 25 3e 76 5d 71 ba 80 99 97 bd 51 e0 dc 3c
       0.1615068 -0.0009207347 -0.07402325 0.026962431
000030 09 55 39 bc 85 1f 0b be f9 ff 04 be 42 10 06 be
       -0.011311778 -0.13586242 -0.12988271 -0.1309214
000040 75 b0 57 bd 63 ff c8 bd 8e 7a 09 3e ff 7e ed 3d
       -0.052658517 -0.09814336 0.13425657 0.11596488
000050 14 fb c7 3a e4 44 77 3d 54 72 97 bd 61 58 7b 3d
       0.0015257322 0.060368434 -0.07394853 0.06136358
000060 63 7b 4e 3d 20 72 84 bc 86 86 53 3d 0d 8e 03 be
       0.05041064 -0.0161677 0.051641963 -0.12847157
000070 7e 0f bb bd 74 7e 31 bb 38 2e 51 bd 44 b8 29 be
       -0.09133814 -0.0027083429 -0.05106947 -0.16574198

encoder.egnn.layers.0.node_mlp.0.weight f4 [32, 48]
000000 8b 66 58 be e1 a7 28 bd 6d 42 ac 3d 6e 0a 16 3c
       -0.21132867 -0.041175727 0.08411107 0.00915776
000010 36 b0 7e bd 4f 84 5b 3c d4 fa 22 be e5 17 94 bd
       -0.062179767 0.013398244 -0.15915996 -0.0723112
000020 4f a4 40 be d6 38 85 3d 69 95 8a bd ee 0d 13 be
       -0.18812679 0.06504981 -0.06766779 -0.14360783
000030 d3 e0 c0 bd e8 26 d8 3d 14 af 52 bc 77 63 e8 bd
       -0.09417882 0.10554296 -0.012859125 -0.113470964
000040 48 bd 64 bd 36 48 8b 3d 2b b0 e0 3d ee 54 dd 3d
       -0.055844575 0.068008825 0.109711014 0.10807215
000050 54 79 48 3e 13 69 00 3d b6 47 4a 3b c3 f6 ac bd
       0.19577533 0.031350207 0.0030865497 -0.084455036
000060 9d 1b 02 3e 7c 63 a6 3c c7 ff a6 bd cc bd 04 bc
       0.12705846 0.02031111 -0.081542544 -0.008101892
000070 6d b7 12 3e 77 81 1e 3e f9 b7 b1 bd 24 da e1 bb
       0.14327784 0.15479074 -0.08677668 -0.0068924595
000080 50 8a d0 bc 74 6d f2 3d 34 f8 f5 3c 86 b2 06 be
       -0.025456578 0.11837283 0.030025579 -0.13154039
000090 c6 94 48 bd 2f 0d db bd ad d1 fb 3d d7 3c d8 ba
       -0.048970006 -0.10695874 0.12295852 -0.0016497624
0000a0 ce b5 05 bd 6e 36 09 bd a4 a8 dc 39 86 a3 1d 3e
       -0.032644086 -0.033499174 0.00042087317 0.1539441
0000b0 d2 b6 72 3d 37 d5 e7 bd 52 d8 43 3d 52 42 0d bc
       0.059256382 -0.113199644 0.04781372 -0.008621769
0000c0 e9 84 8a bd 36 74 d3 bd 2d 4e d4 bb 10 07 11 bd
       -0.06763632 -0.103249 -0.006479046 -0.035407126
0000d0 40 10 2c be 3e 12 ab bd 42 da 16 bd 7e 01 80 bc
       -0.16803074 -0.08353089 -0.03682924 -0.015625712
0000e0 48 3b 0c be 96 8b 9f bb 7e ef e3 bd b7 1d 9e bd
       -0.13694489 -0.004868935 -0.11129664 -0.077205114
0000f0 7a 26 0b 3e fa 1f 8b 3b 7c da 41 3d 22 83 ac 3d
       0.13588896 0.0042457553 0.047327504 0.08423449
000100 75 4c 22 3d 87 06 9a 3d 6a 8a 13 3e 05 86 1e 3e
       0.039623696 0.07520776 0.1440827 0.15480812
000110 f3 b9 03 3e 00 a9 c7 bc fe d6 d3 3d 1c 00 79 bc
       0.12863903 -0.024372578 0.10343741 -0.01519778
000120 2d e4 b1 3d 91 a8 19 bc 72 86 94 bd 85 bc a5 bd
       0.08686099 -0.009378568 -0.07252206 -0.08092598
000130 9b 71 8c 3d 26 ae f3 3c 5d 64 91 3d b6 2d 88 bd
       0.06857606 0.029746126 0.07099221 -0.06649344
000140 bf 15 76 3d 9c 79 02 be d8 76 58 ba a3 47 08 be
       0.060079332 -0.12741703 -0.0008257455 -0.13308577
000150 2a 24 45 bd 21 7a ca bb a5 3e 88 bd 2d 2c da bd
       -0.04813019 -0.0061791097 -0.066525735 -0.10652957
000160 4d fc e6 3d 8f 9c 7b 3d 8b 16 ba bd 81 d4 c4 bd
       0.11278591 0.061428603 -0.09086331 -0.096108444
000170 87 17 0a 3d 0d 85 c4 3d 39 3f 99 3d 7a fb d1 bc
       0.033713844 0.0959569 0.07482762 -0.025632609
000180 37 b2 2e 3e a0 28 b3 bd e7 61 f6 bd eb 09 c5 3c
       0.17060171 -0.08747983 -0.12030392 0.02405258
000190 40 3a b0 3d 1c c6 a4 bd 40 ea 35 3d da fe 8a bd
       0.0860486 -0.08045599 0.04441285 -0.0678689
0001a0 11 ed 24 be 78 f2 c0 bd 97 4f 89 3d 98 38 19 3d
       -0.16106059 -0.09421247 0.06704634 0.037407488
0001b0 7f fc 42 bd 26 36 07 be 4c 1d bb 3d 79 fe 81 3d
       -0.04760408 -0.1320425 0.09136447 0.06347365
0001c0 ef c4 0d 3d bf 63 26 3d 97 8a 37 3d 1b bc 7d bd
       0.03461164 0.04062247 0.044809904 -0.06194697
0001d0 44 02 3f 3d b5 1d 38 3c 3f 50 b0 bd 00 f1 96 bd
       0.04663302 0.011237551 -0.08609056 -0.07370186
0001e0 8b 00 11 be 34 9d a0 3c 70 65 bc 3d 02 59 5a bd
       -0.14160363 0.01960621 0.09199035 -0.05330754
0001f0 3a 23 8e ba 7f f5 44 3d 7e ac cb 3d cf d1 ab bc
       -0.0010844239 0.048085686 0.0994501 -0.020974068
000200 d8 0f a3 3d 5e 74 3f 3d ba 22 d3 bc cd 39 29 bc
       0.07962006 0.046741836 -0.025773395 -0.010328722
000210 5f dc 21 be c5 c4 d9 3d 05 ea 06 3e cd 31 f8 bd
       -0.15806721 0.10633234 0.13175209 -0.12118874
000220 af f7 d2 3d 18 84 e3 3c 9d 4f 07 3d 5a 23 f1 3d
       0.10301148 0.027772948 0.03303491 0.11774321
000230 83 44 90 3d 69 25 c6 bd 05 ce 1d bd 53 37 da 3d
       0.070443176 -0.09675104 -0.038526554 0.106550835
000240 eb 29 64 bd 40 41 8a 3c d5 38 f4 bd ee cb da bc
       -0.05570404 0.016876817 -0.11924902 -0.02670857
000250 80 22 a2 3c 06 7d 76 bc 06 36 c1 bd 40 e4 b9 3d
       0.019791842 -0.015044456 -0.09434132 0.09076738
000260 7e 20 f6 bc 6d fa 3f 3d 67 ba c5 bd dd f2 8f bd
       -0.03004479 0.046869684 -0.09654694 -0.07028744
000270 6b 47 da 3c dd b9 eb 3d da 0d d3 3c 46 45 cb bb
       0.026645383 0.1151006 0.02576344 -0.0062033264
000280 43 e7 16 be c0 ec b2 3d 18 3b 5e 3d 16 ed 1d 3d
       -0.14736657 0.08736563 0.054255575 0.03855618
000290 5f dd c3 bc 2b 6b 96 bd ef 33 0e be ba 23 56 be
       -0.023909269 -0.073446594 -0.13886999 -0.20912066
0002a0 9f 2f 76 3d 02 85 9e 3d 11 b0 e0 3d 52 ca f7 3d
       0.06010401 0.07740213 0.10971082 0.120991364
0002b0 3b 73 85 3d 25 ec 8e bd 2b ae b8 bc dc 6f c3 3d
       0.06516119 -0.06978635 -0.022543987 0.0954282
0002c0 b9 ec c1 bd fb 38 56 3d 3d 52 3a bb d0 62 15 be
       -0.094689794 0.052300435 -0.0028430365 -0.14588475
0002d0 cc 47 d6 3d 2c 92 94 3c e6 be 2e be 88 01 c9 bc
       0.10462913 0.018136106 -0.1706501 -0.024536863
0002e0 2e 11 fa bd 0b 05 c9 3c db 9a 5e 3d 31 75 41 bd
       -0.12210308 0.024538537 0.0543469 -0.047230903
0002f0 ab 10 4a bd 75 b4 cd bd 59 27 14 be 44 af c3 bd
       -0.049332302 -0.10044185 -0.14468135 -0.09554914
000300 1c c0 99 3b da 77 a4 3d 83 eb cd bc b3 f3 88 bd
       0.0046920907 0.08030672 -0.025136715 -0.06687107
000310 b1 1a 27 3c ed 41 26 3d a9 3d 96 bd 08 77 38 3d
       0.010199235 0.040590215 -0.073359795 0.045035392
000320 c8 32 5d bd e9 2c e7 bd 79 b9 fa bd 7c 66 2b 3d
       -0.054003507 -0.11287863 -0.12242407 0.041845784
000330 6b c1 bd 3d 1e 23 f5 b9 c0 54 c0 3d 5d df f1 3d
       0.09265407 -0.00046756206 0.09391165 0.11810181
000340 d1 f6 f9 3d 50 b4 98 3b 57 7f 9b bc c6 19 3f bd
       0.122052796 0.004660167 -0.018981619 -0.04665544
000350 d5 7a 22 be 93 df 1d 3e 09 bd d9 bc 53 83 1a 3e
       -0.15867169 0.15417318 -0.026579397 0.15089159
000360 0a 18 14 3d 52 fb fc bc 20 d7 d5 bd 07 48 82 bd
       0.036155738 -0.030881558 -0.104414225 -0.063613944
000370 f2 07 d2 bd 33 30 b8 bb 4b be c3 bc da b2 e0 3d
       -0.10255422 -0.00562098 -0.02389445 0.10971613
000380 51 71 ef bd 1a 0a 90 bd 1e 07 b9 bd 20 03 8c 3c
       -0.11691535 -0.07033177 -0.090345606 0.017091334
000390 fa 7f dc bd 41 c0 98 3d 19 79 7b bd 65 87 af 3d
       -0.10766597 0.074585445 -0.061394785 0.08570746
0003a0 f2 f5 99 bd 06 d1 2f 3d 84 ee 46 3c 7e 64 b2 3c
       -0.075176135 0.04292395 0.0121418275 0.021776434
0003b0 af d6 d5 3d 2c 8b 34 bc e1 ac 37 bd 2b da 12 bd
       0.10441338 -0.011019509 -0.044842605 -0.035852592
0003c0 a1 7c 12 bb 4a eb 36 bd 1f 18 ea bb 3b 33 79 3d
       -0.0022352117 -0.044657983 -0.0071439887 0.060839873
0003d0 54 4b ce bd d4 c9 c1 3d 69 59 cb bd d3 7d 45 3c
       -0.100729614 0.09462324 -0.09929163 0.012053925
0003e0 0b 05 e5 3c d1 65 0f 3e 96 20 60 be ea 00 ea 3d
       0.027956506 0.14003684 -0.2188743 0.114259556
0003f0 6e 4d e4 bd 61 c3 7f bd 3f 43 0c be 90 3e 5f bd
       -0.11147581 -0.062442187 -0.13697527 -0.054503024

encoder.egnn.layers.0.node_mlp.0.bias f4 [32]
000000 c4 84 d2 bb 50 2f c5 bc 98 54 11 3e 08 4b 13 3e
       -0.0064245183 -0.024070412 0.14192426 0.14384091
000010 98 93 6c 3d 91 22 91 3d b5 d7 d3 3c a5 c5 28 3d
       0.057757944 0.07086671 0.025859693 0.041204114
000020 33 26 24 3d 3e cc b8 bd 5e 0d 55 bd 2e 91 1f bc
       0.040075492 -0.09023331 -0.0520147 -0.009739203
000030 80 64 0f 3d f6 6a 46 bd 0b 38 cc 3d 29 83 0b bd
       0.035007954 -0.04844185 0.09971627 -0.03406063
000040 df 52 32 3d b9 f8 a8 bd 86 a0 fc bd d8 30 95 bd
       0.043536063 -0.08250565 -0.12335305 -0.07284707
000050 ee f4 c4 3d b8 f5 db bd f4 85 13 be 26 90 95 3d
       0.09617029 -0.107402265 -0.14406568 0.07302885
000060 4c b0 f2 ba 2f 8b 66 3e 74 0d 30 be 5d 56 11 3d
       -0.0018515675 0.22514032 -0.17192632 0.035482753
000070 9d 14 06 bd 56 7f 20 3e 9b 4b 69 bd a1 6c 80 3d
       -0.032734502 0.15673575 -0.05695687 0.06270719

encoder.egnn.layers.0.node_mlp.2.weight f4 [16, 32]
000000 a8 6a b2 bd 57 df 55 be 8a 23 14 be f3 b0 14 be
       -0.08711749 -0.20885979 -0.14466682 -0.14520626
000010 ca 65 98 3d 19 a4 3a 3e 9d 82 4e bd 98 a0 1a 3d
       0.0744129 0.18226661 -0.05041753 0.03775081
000020 6d 91 fe 3d 88 20 9f 3d 99 a1 40 3e 6c dc 4b bc
       0.124300815 0.07769877 0.18811645 -0.012442689
000030 c3 28 eb 3b ee fc a4 bd 52 eb 16 be 9f 87 79 bc
       0.00717649 -0.08056055 -0.14738205 -0.0152300885
000040 06 8b ff bd 36 63 a9 bd 36 43 48 3d 62 06 33 3e
       -0.124776885 -0.08270876 0.048892222 0.17482904
000050 9c 27 fe bc 41 46 d6 bd 3c ea 22 3d a1 25 bb bd
       -0.031024747 -0.104626186 0.039774165 -0.091380365
000060 c8 7e a1 bd 26 f7 0b 3d 54 d9 ae 3d 54 77 6a 3d
       -0.0788551 0.034171246 0.08537546 0.057242706
000070 c3 29 dc 3d e1 8f f4 ba 56 32 3a bd e0 6b fb 3d
       0.10750153 -0.0018658602 -0.04545816 0.12276435
000080 fb dd 45 be 2b 57 17 be b8 d1 13 3e f4 d9 c3 3d
       -0.1932296 -0.14779346 0.1443547 0.09563056
000090 83 ea 1a 3e 2d 31 fb 3d f7 7a 1f be 21 90 72 3d
       0.15128522 0.12265239 -0.15574251 0.059219483
0000a0 19 ff 77 bd b6 2c 24 3d de da f1 3d a4 a2 8e 3d
       -0.060546014 0.040081702 0.11809324 0.06964615
0000b0 56 4e 2b 3c f4 19 bd 3c a2 2b 6c be 17 cb 24 3e
       0.010455688 0.023083664 -0.2306352 0.16093098
0000c0 05 b0 bb bd 86 51 24 3d bf 32 aa bd 86 87 11 3e
       -0.091644324 0.04011681 -0.0831046 0.14211854
0000d0 0e 25 d3 3d 30 7a 5a bd 87 73 02 bd b9 f9 32 3b
       0.10309802 -0.053339183 -0.031848457 0.002730949
0000e0 5e f3 15 3e e4 b6 3c 3d 0a fa e0 bd 5d 5a fc 3d
       0.14643618 0.046072856 -0.10985191 0.12321923
0000f0 d6 09 d3 bd 3c a3 9d 3d ad c8 02 be 1a 10 ab 3d
       -0.103046104 0.0769715 -0.12771864 0.083526805
000100 d7 56 26 3e c6 9a b6 3d cc 18 8a 3d d0 0a 1c be
       0.16244064 0.089162394 0.06743011 -0.152385
000110 c5 7f 58 3c 68 0c 14 3e df 51 08 3d 84 75 3b be
       0.013214056 0.14457858 0.033281203 -0.18306547
000120 16 51 3c be c2 30 f1 bd 91 04 00 3e 21 f4 14 3e
       -0.18390307 -0.11776878 0.12501742 0.14546253
000130 6f 7e 9c 3c a3 26 e1 bd c3 4e 91 3d a9 ca 6d bd
       0.019103257 -0.109936975 0.07095101 -0.0580546
000140 a3 fa d6 bd 32 c0 51 3e 8b ba a3 bd 41 51 da 3d
       -0.10497024 0.20483473 -0.079945646 0.10660029
000150 fe 4c 88 3d 9e a8 d8 3d b1 16 7e 3e 22 75 5d 3d
       0.0665531 0.10579036 0.24813344 0.054066785
000160 02 3b b8 bc 41 ca 84 3d ba 74 d9 bd 7a 1f 73 3d
       -0.022489075 0.06483889 -0.10617967 0.05935619
000170 fe c8 4f be 66 7f 26 be ba 72 87 bd 08 a0 e5 3c
       -0.20291516 -0.16259536 -0.06613679 0.02803041
000180 f8 34 b8 bc e5 ea d3 3d 4c 0b 06 3e 4b 0c a7 bd
       -0.022486195 0.10347537 0.13090247 -0.081566416
000190 1b 82 ea 3d 36 ff 0a be 02 d0 7c 3e d1 43 4a be
       0.11450597 -0.13573918 0.24688724 -0.19752432
0001a0 75 a2 8e bc 14 31 93 bc 0a ca 08 3e 75 e3 82 3d
       -0.01741145 -0.017967738 0.13358322 0.0639104
0001b0 48 3c da bd 8b df 6f 3d 50 69 88 3d 45 3b 6e bd
       -0.10656029 0.058562797 0.06660712 -0.058161993
0001c0 79 0b ef bd b4 bc 4f 3e 1f c9 7c 3d fe 4e 1c be
       -0.1167211 0.20286828 0.06171524 -0.15264508
0001d0 40 aa 0d be 5d d4 f7 3d 52 fb cb 3c ef b4 bd 3c
       -0.13834476 0.12101052 0.024900112 0.023157565
0001e0 cd 4b 02 be cf 7c 46 bd 5e dc 0d 3e 7a 44 c2 3c
       -0.12724228 -0.04845887 0.13853595 0.023714293
0001f0 70 ff 15 3d 54 28 37 3d 6a 0b 84 bd d6 09 61 3e
       0.036620557 0.044716194 -0.064474896 0.21976408
000200 72 82 c9 bd 1b 1d c5 3d f1 46 4e bd bf d4 31 be
       -0.098393336 0.09624692 -0.050360624 -0.17366312
000210 df 56 66 3c 50 3c 96 bd 48 d8 63 bb e1 5e 46 bb
       0.014058798 -0.073357224 -0.0034766365 -0.0030268955
000220 7a ca 04 be e5 4a ad 3d d0 da 30 3d 60 74 36 be
       -0.12967864 0.084615506 0.043177426 -0.17817831
000230 4a c4 62 bd ee 83 05 3e ff 02 f6 3d 12 e5 97 bd
       -0.055362977 0.13038608 0.1201229 -0.074167386
000240 ff b5 81 bd 65 91 ba bd ca e6 16 3e 88 37 ea bd
       -0.06333541 -0.09109763 0.14736477 -0.11436373
000250 8d df 54 3d cf 8f 1b 3b 53 20 2c 3d 94 07 c1 bc
       0.051971007 0.002373684 0.042023014 -0.023563184
000260 cc b5 23 be 75 79 59 bd 99 5c e1 bd 0c 44 31 be
       -0.15987319 -0.053094346 -0.1100399 -0.17311114
000270 d0 78 6c 3d 69 02 38 be 5a 7d ce 3d 98 d1 a5 bd
       0.057732403 -0.1796967 0.10082503 -0.080966175
000280 bf 77 07 3c d9 46 84 bd d3 96 2b bd 55 68 f6 3d
       0.008268296 -0.064588256 -0.041891884 0.120316185
000290 5d 63 e4 3d 09 27 69 bd 4d 45 19 be a1 01 42 3e
       0.111517645 -0.056921992 -0.14967842 0.18945934
0002a0 6b ee 04 3d e9 18 14 be 02 cd e1 3d 86 e5 ca bd
       0.032453936 -0.14462627 0.1102543 -0.09907059
0002b0 48 16 a9 bd 3f 5c 26 bd 4b 3e d0 bd 97 4f 5b be
       -0.08256203 -0.040615316 -0.101681314 -0.2141708
0002c0 a3 ad 80 3d 9b e5 eb bd 15 df f9 3d 6e 8a fd bd
       0.062831186 -0.11518403 0.12200753 -0.12379919
0002d0 14 09 19 3e 43 f1 33 bd 25 14 96 bc ea f9 3b 3d
       0.1494487 -0.043931257 -0.018320153 0.045892633
0002e0 30 8a 0b bb fc 28 2e 3e e1 01 67 be 02 41 bf 3d
       -0.0021292083 0.17007822 -0.2255931 0.09338571
0002f0 9f 3f 8d bc 52 23 31 3e ae 17 f5 bc 2d 83 6f bd
       -0.017242251 0.1729863 -0.029918518 -0.05847471
000300 a0 7b 00 3e 41 86 f2 bc df 43 35 be 5a e0 70 3e
       0.12547159 -0.029605033 -0.17701672 0.23523083
000310 f5 38 91 3d 62 dc 15 3e 07 ee 1c be e3 b4 fb 3d
       0.07090942 0.1463485 -0.15325175 0.12290361
000320 e4 67 16 3e 39 80 75 be a0 86 97 bd 8a 8f 4d 3d
       0.14688069 -0.23974694 -0.073987246 0.050185718
000330 88 b6 07 bd f3 a8 d2 3d b2 cd 31 3d 81 77 8e 3e
       -0.03313306 0.10286131 0.043409057 0.2782555
000340 42 cf ad 3d 71 e7 97 bd f9 99 57 3d ed a8 31 be
       0.08486797 -0.07417191 0.052637074 -0.17349596
000350 dc 9b cb 3d 50 6b 33 be 97 a2 37 be 40 69 b1 3d
       0.09941837 -0.17521405 -0.17933117 0.08662653
000360 1d d9 80 3e eb 9e 49 3e e1 af 43 bd 15 41 85 3d
       0.25165644 0.19689529 -0.047775153 0.06506554
000370 f0 8e ab 3d 0c 4d 49 bd d0 87 90 3d 05 f6 3e bc
       0.083768725 -0.049145743 0.07057154 -0.011655335
000380 85 c9 43 3e cd 7a 2b be 3d 89 bb 3d 6f 06 c2 bc
       0.19119842 -0.16746064 0.091570355 -0.023684708
000390 7c d8 bd bd 5f be e4 bd d6 21 82 3c 8e 65 ef bc
       -0.09269807 -0.11169123 0.015885275 -0.02922323
0003a0 20 e2 f4 bd eb ae 01 bc 55 e5 52 3d f4 c1 3c be
       -0.119571924 -0.007915239 0.05148824 -0.18433362
0003b0 53 78 a9 3d 67 0a 69 bc b8 bb 54 bd 3c 37 f0 3c
       0.08274903 -0.0142236715 -0.051936835 0.029323213
0003c0 7b 4f 06 be a8 9a d6 3d 7a c6 d2 3d 6b 0c a7 3d
       -0.13116257 0.10478717 0.10291763 0.081566654
0003d0 ea e3 98 bd a4 b3 41 bd 76 29 ed bc b6 20 88 3d
       -0.07465346 -0.04729046 -0.028950434 0.06646864
0003e0 7d f9 95 3d 4c c1 c0 bd c0 af 1c be 86 7e 1b 3e
       0.07322977 -0.094118685 -0.15301418 0.15184984
0003f0 77 8f c5 3d 77 73 6c 3d 12 9c 46 3d 7a 17 2c 3b
       0.09646504 0.057727303 0.048488684 0.002625911

encoder.egnn.layers.0.node_mlp.2.bias f4 [16]
000000 4a 25 9a 3b 86 be 3b 3e fa 8a 07 be 62 2f ba 3d
       0.0047041522 0.18334398 -0.13236609 0.09091069
000010 b8 db 04 3e 06 39 3e 3e 67 bd 03 bd 5a df 13 3e
       0.12974441 0.1857644 -0.03216305 0.1444067
000020 5b 1a d6 3d ec 43 8a bd 62 21 ef 3d 0e 7c 23 3d
       0.10454246 -0.06751236 0.11676289 0.03991323
000030 81 35 43 3e 3a 04 b1 bc bf 0c 4b 3d 1c a2 8d bd
       0.19063379 -0.02160846 0.049572702 -0.069156855

encoder.egnn.layers.0.coord_mlp.0.weight f4 [32, 32]
000000 8d 60 40 3c 1b 94 3a be 16 55 e5 bd c8 94 b0 bd
       0.0117417695 -0.1822056 -0.111978695 -0.08622128
000010 f4 8e 93 bd ef 89 b1 3c c8 a2 13 be 54 dc 2f bc
       -0.072050005 0.021672217 -0.14417565 -0.010733683
000020 99 d3 bf bd b4 94 86 bc 79 23 28 3e cf 77 95 3c
       -0.09366531 -0.016428329 0.16419782 0.018245606
000030 0d b4 02 bd b1 93 2a 3d df f1 d6 bc dc 7c d5 3d
       -0.03190999 0.041644756 -0.02623838 0.10424206
000040 6e 26 c9 bd a5 ef 75 3c 32 8f f1 bc af 7a 18 3e
       -0.09821783 0.015010749 -0.029487226 0.1489055
000050 b9 f7 05 3e 51 db 08 be f0 6c 5a bd da eb ae 3d
       0.1308278 -0.13364913 -0.053326547 0.08541079
000060 31 3c d3 3c ac 9e 50 3c 89 3c 44 3d ae 1e 91 bd
       0.025785537 0.012733143 0.047909293 -0.0708593
000070 b9 51 02 3d 26 09 86 bc e6 4e 5d bd 88 df 4e bd
       0.031816218 -0.016361784 -0.05403032 -0.050506145
000080 eb 95 80 bd 61 96 16 3e 72 5e f2 ba bf 09 31 3c
       -0.062785946 0.14705803 -0.0018491282 0.010805546
000090 86 af 01 3e 92 95 96 bd 5e b4 9c 3d 0f 54 a3 bc
       0.12664613 -0.07352747 0.0765159 -0.019937543
0000a0 94 0a cc 3d c5 7f b3 3d 47 f6 ab bd 4f 08 b6 3b
       0.09962955 0.087646045 -0.08396583 0.0055551897
0000b0 41 8b 13 3e 7b c4 8b 3d f3 86 6f bc 6a 8d cb bc
       0.1440859 0.06824585 -0.014619577 -0.024847705
0000c0 f9 57 af bb b1 8e e7 3d 8e 86 ee 3d 3d 07 df bd
       -0.0053510633 0.11306513 0.11646758 -0.108900525
0000d0 fc ad 52 3c fc 80 71 3d 75 64 35 bd 58 61 c8 bd
       0.012858864 0.0589609 -0.044285256 -0.09784192
0000e0 d2 3b 8f bd 4e fd 23 be 2a 0b 2b be 7a 27 0f 3e
       -0.06993832 -0.16014597 -0.16703478 0.13979903
0000f0 a9 af 05 be be eb 0c bd 5f df 99 bc 1a eb 42 3e
       -0.1305529 -0.03440451 -0.01878327 0.19034997
000100 24 fb 34 3e db dc a7 bd 25 28 3d 3c a8 9f 54 be
       0.17673928 -0.08196422 0.011545216 -0.20764029
000110 45 17 4a 3d 83 74 e9 3d a1 bb 9b bd 93 e6 1f 3e
       0.049338598 0.11399176 -0.07604147 0.15615301
000120 ac 01 13 3d 7d a6 32 bd c7 02 4c 3e 5e 42 95 3d
       0.035890266 -0.043615807 0.19922934 0.07288049
000130 47 c6 94 3d 9b 55 17 bd e1 36 ae 3d 57 c0 2f 3e
       0.07264381 -0.036946874 0.08506561 0.17163216
000140 9b b1 99 3d 95 81 1b be e2 d5 cc 3b 2c 1b 86 3d
       0.07504579 -0.1518615 0.0062510828 0.065481514
000150 c2 ac d3 3d 70 cb 47 be d7 0d 24 3d 86 9c 18 3d
       0.10335685 -0.19511199 0.04005226 0.037258647
000160 7a 9b e8 3d b1 76 22 3e 60 61 e1 3d ef c6 62 be
       0.1135778 0.1586559 0.11004901 -0.221462
000170 a4 94 e8 3d be 2e 8a b9 fc 81 c3 3d be 99 09 be
       0.11356476 -0.00026356237 0.09546277 -0.13437554
000180 fc ab 96 3d cf d6 5e bd f7 af 65 be 2c 19 14 be
       0.07357022 -0.054404076 -0.22430407 -0.14462727
000190 fe 63 a2 3d bf da 26 bc 8a ba 9b 3c 07 96 48 3c
       0.07929228 -0.010183989 0.019009847 0.012242801
0001a0 b0 6f 5b 3d c1 f7 0c be 87 c5 64 3e b5 38 59 3d
       0.05357331 -0.13766386 0.22340976 0.053032596
0001b0 59 a8 f5 bb c8 d2 26 3e c0 a9 8c bc 38 37 45 3e
       -0.0074968752 0.16291344 -0.017170787 0.19259346
0001c0 39 44 d1 bd 4c 39 21 be 8d 1b 75 3d 20 df 1b 3e
       -0.102180906 -0.15744513 0.059840728 0.15221834
0001d0 3f 55 91 3d 38 4b c3 bb 26 fa ce 3d 05 eb 3e 3e
       0.070963375 -0.0059598945 0.10106306 0.1864434
0001e0 02 2c da bb 6b cc 0d 3e 46 10 05 3e 66 2f 71 be
       -0.006658078 0.1384751 0.12994489 -0.23553237
0001f0 47 31 3d 3e 25 17 a8 bc f0 2d 62 bd c5 28 da 3c
       0.18475829 -0.020518849 -0.05521959 0.026630769
000200 1e 04 99 3d bd f2 3e bc c5 21 a2 3c 32 2d fe ba
       0.074714884 -0.011654553 0.019791493 -0.0019392131
000210 c5 9d ab 3d 91 e9 94 3d d5 63 d1 bd f4 ce 36 3a
       0.083797015 0.07271112 -0.102241196 0.00069735874
000220 3a 0c fd bc 8b 87 b4 bd d9 c9 f3 3d bf 00 8e bd
       -0.03088962 -0.08814915 0.11903734 -0.06933736
000230 7c ae a3 3d 99 6b cd 3c 48 39 17 3e 28 63 db 3c
       0.07992265 0.02507572 0.14767945 0.02678068
000240 87 6d a7 3c 22 b6 06 be ff 1b 23 bd 2c 43 8b 3d
       0.020437969 -0.13155416 -0.03982162 0.067999214
000250 8c 27 56 3d d0 f7 df bd b0 ef 59 bc 50 f1 0b 3e
       0.05228381 -0.10935938 -0.013301775 0.13666272
000260 4a c7 df 3d 6e b0 8b 3c 5d 26 37 3d 43 81 2a bd
       0.10926683 0.017051902 0.04471432 -0.04162718
000270 0a e7 94 3d 8b a1 28 bd a2 08 d0 bb 57 ca ad bd
       0.0727063 -0.041169684 -0.0063486854 -0.08485859
000280 0d 4e b6 bc 57 05 92 bd 71 94 0a bd 6f a6 b8 3c
       -0.022254014 -0.07129925 -0.03383297 0.0225403
000290 85 13 60 bd 0f 2b 6c 3d 67 4f 2f bd 7c b6 ed bc
       -0.054706115 0.05765825 -0.042800333 -0.02901768
0002a0 58 ba d6 bd 83 ff 3a bd 66 9d e0 3d 0a 57 27 3c
       -0.10484761 -0.04565383 0.10967521 0.010213623
0002b0 ef db fa 3c a1 4e d0 3d 18 14 19 3d 73 20 de 3d
       0.03062245 0.10171247 0.03737268 0.10846033
0002c0 8b d8 40 bd e8 a9 bd bd 84 c9 2f bd f8 78 12 3d
       -0.04708151 -0.09260923 -0.04291679 0.035759896
0002d0 81 9a ab 3d 04 0d e7 bd e3 05 ce 3d 71 91 57 3d
       0.08379079 -0.112817794 0.100597166 0.052628938
0002e0 17 1b 60 bd 74 79 3c 3d 68 d1 eb 3d 36 11 10 be
       -0.054713335 0.046014264 0.115145504 -0.14069065
0002f0 11 c3 05 3e 70 e8 bb 3c 9d 0f 63 3d 4a f7 23 be
       0.13062693 0.022937983 0.05543481 -0.16012302
000300 af 79 1f 3d 5b 87 1c be 30 be 31 bb 5d 88 1a be
       0.038934406 -0.15286009 -0.0027121417 -0.15091081
000310 a5 dc e8 3d 33 6f 4d 3e 92 68 58 be 81 79 5c 3c
       0.113702096 0.2006195 -0.2113364 0.013456703
000320 4a f3 69 3d 83 4d 44 be 67 6d 76 3d ec a0 ee bc
       0.057116784 -0.19170193 0.060162928 -0.029129468
000330 37 05 9a 3d 23 27 0b 3d ab 9b 9c 3d 8a 7f d5 3d
       0.07520526 0.03397287 0.07646879 0.10424717
000340 5d e3 13 3c c5 0b 85 bc 9b 14 a7 bd 15 a1 e5 3c
       0.009026376 -0.016240964 -0.08158227 0.028030911
000350 cc 4f 4b 3e 0a d1 ab bc 01 0f f4 3d 8a c2 d1 3d
       0.19854659 -0.020973701 0.11916924 0.102421835
000360 4f 69 32 3e e4 37 2d 3d b8 a9 18 3e 96 87 ae bd
       0.17422985 0.04228963 0.14908493 -0.08521955
000370 1b 98 1d 3d 8c 17 f1 3b 8e 55 37 be 9b 74 30 3d
       0.038475137 0.0073575433 -0.1790373 0.043079954
000380 54 e5 d7 bd b1 85 44 3e 21 96 2a 3e 8b 8e 81 3d
       -0.10541788 0.19191624 0.16658832 0.06326016
000390 1e d5 8a 3c 6f 6f ff bd 06 68 58 3e df 36 d0 bd
       0.016947325 -0.12472426 0.21133432 -0.10166716
0003a0 6f 61 e0 bc 32 cb f3 3d bd 69 27 bd 4e ab c1 3d
       -0.02739021 0.11903991 -0.040872324 0.09456502
0003b0 2d b1 2d bb 99 c5 dd 3c f8 99 55 be 38 d4 26 be
       -0.002650331 0.027071761 -0.20859516 -0.16291893
0003c0 80 04 93 3d 16 55 8b 3d f6 11 11 3d 80 eb 43 be
       0.07178593 0.06803338 0.03541752 -0.19132805
0003d0 b6 7f 02 bd bf 32 89 3d 8f 56 33 be 56 83 22 be
       -0.031860076 0.06699132 -0.17513488 -0.15870413
0003e0 c2 22 4a 3d d0 71 a0 bd 86 95 5e bd e4 aa c2 3c
       0.049349554 -0.07834208 -0.054341815 0.023763128
0003f0 e2 68 83 3b e6 92 db 3d b4 ee 9e 3d 6c c2 1c 3e
       0.0040103057 0.10721378 0.07760373 0.15308541

encoder.egnn.layers.0.coord_mlp.0.bias f4 [32]
000000 74 09 19 bd 09 44 50 3c 28 fb 0c bd 31 95 1a bd
       -0.03736253 0.012711533 -0.03441921 -0.037739936
000010 0a 9e cd 3d bb 74 bf 3d 53 e3 97 3d b8 5d 7a bd
       0.10039909 0.093484364 0.074164055 -0.061124533
000020 58 4b b1 3d 20 31 c9 bd 26 45 e7 bd b4 18 26 be
       0.08656949 -0.09823823 -0.11292486 -0.16220361
000030 62 4c 9a 3c 4c 83 46 bd 42 77 12 3d 75 38 58 bd
       0.01883525 -0.04846506 0.035758264 -0.052788217
000040 f0 b6 87 3d e3 7d 45 bd 4a 84 77 bd 1c 81 82 bd
       0.066266894 -0.048215758 -0.060428895 -0.06372282
000050 57 31 a8 bd f6 1b 68 bd 35 db d6 3c 31 ea 79 bc
       -0.08212536 -0.05666729 0.026227573 -0.0152535895
000060 a7 98 b3 bd 1c eb 6d 3c d9 16 94 3d 9e 9c 99 3d
       -0.087693505 0.0145213865 0.0723092 0.075005755
000070 07 1b 25 3c 70 c5 68 3d c4 ae 47 3d ad 4b 8a 3c
       0.010077245 0.056828916 0.048750654 0.016881788

encoder.egnn.layers.0.coord_mlp.2.weight f4 [1, 32]
000000 ce d9 9b 3d a9 6e ff bd 0d bd 15 3e 8f 84 0b 3e
       0.07609902 -0.124722786 0.14622898 0.13624786
000010 b2 29 48 3d d9 4a 8c 3d 22 87 1c 3e ab 62 fb bd
       0.04886789 0.068502136 0.15285924 -0.12274679
000020 20 8f c4 bd 87 3f df bd b0 49 d9 bd 8c a7 18 be
       -0.095976114 -0.10900789 -0.10609758 -0.14907664
000030 26 a3 a3 bb 9a a9 f0 3d fb d4 ef 3d 2c 23 ff 3d
       -0.004993814 0.11751099 0.11710545 0.124578804
000040 43 fc 0d be e9 3a c8 3d 2e b6 f2 3d 8b 9a d5 3d
       -0.13865761 0.09776861 0.11851154 0.10429867
000050 ee 81 e2 bd 09 ae 3b 3d 5a 6c 08 be 27 3b b3 3d
       -0.11059938 0.04582027 -0.13322583 0.08751517
000060 1d 22 ac 3d e8 78 ee bd 47 a6 c0 3d e5 ed 04 be
       0.08404944 -0.11644155 0.09406715 -0.12981375
000070 d1 81 fc bd 6a 32 02 3e 64 50 c4 bd 9b 60 22 3e
       -0.12329448 0.12714544 -0.09585646 0.15857165

exp_avg f4 [32, 33]
000000 f0 ea 4d 3a a9 7f ef 39 f8 62 47 3a 87 8f 43 3a
       0.0007855138 0.00045680747 0.0007605995 0.0007460047
000010 15 79 35 3a ec 5e 54 3a 32 d3 da 39 30 a3 38 3a
       0.00069226447 0.00081013027 0.00041737553 0.000704336
000020 19 6f 14 3a 99 02 12 3a cb de 1b 3a 6c 25 00 3a
       0.0005662307 0.0005569845 0.00059459795 0.0004888389
000030 cc 1f c1 3a db e8 7e 3a 00 01 f4 39 30 e9 18 3a
       0.0014734208 0.0009724029 0.00046540052 0.00058330875
000040 81 4b 6c 3a 41 8a 4d 3a 8c c6 40 3a 5c 06 34 3a
       0.00090139365 0.0007840731 0.00073538045 0.00068674027
000050 a3 76 50 3a e7 db a8 3a 22 3f ab 39 d1 b8 11 3a
       0.00079522486 0.0012882919 0.000326627 0.0005558851
000060 5d bc 14 3a e6 2a 49 3a 34 17 7d 3a b2 72 22 3a
       0.000567382 0.0007673934 0.00096546416 0.00061969005
000070 ae 19 a0 3a 18 6f 80 3a 8e 83 c2 39 c4 0b 14 3a
       0.0012214684 0.0009798734 0.0003710058 0.0005647505
000080 67 0b 13 bb ec 9a 0d 3a 2a 25 3e 3a 2b 0e 27 39
       -0.0022437216 0.00054018083 0.00072534627 0.00015931639
000090 57 6a 25 3a 3d e4 fe 39 70 f6 37 3a bc a1 53 3a
       0.00063100964 0.00048616706 0.0007017618 0.00080731115
0000a0 ba e5 e4 39 72 78 d0 39 68 fa 4c 3a 28 84 96 3a
       0.00043658708 0.0003976259 0.0007819296 0.0011483477
0000b0 5c 67 80 3a 10 38 26 3a e6 9a ee 39 95 c1 6e 3a
       0.0009796428 0.00063407514 0.00045510306 0.00091078255
0000c0 3a e1 5f 3a 88 9c 1a 3a e1 c1 1f 3a 9f 71 d2 39
       0.0008540336 0.0005897959 0.0006094259 0.00040138976
0000d0 d3 c7 d9 39 da 24 c7 39 9f db 26 3a 3e 24 45 3a
       0.00041538346 0.00037983694 0.00063651236 0.0007520354
0000e0 87 7e 28 3a 16 7b d6 39 5f a4 27 3a de b0 19 3a
       0.00064275454 0.00040908967 0.00063950376 0.0005862842
0000f0 30 2f 49 3a 8b 1d 65 3a 06 26 2e 3a d2 1d 25 3a
       0.0007674573 0.0008740059 0.0006643239 0.0006298694
000100 1c 6e 9a 39 ad 8f 3c 3b 45 30 46 39 90 f5 08 b9
       0.00029455207 0.002877216 0.00018900733 -0.0001306145
000110 5c 4a 86 39 74 9a a8 b8 24 c9 f4 b8 49 55 16 b9
       0.00025613874 -8.0396334e-05 -0.00011672292 -0.00014336886
000120 10 07 86 b9 0f 69 34 38 09 d9 9b 38 49 cc 48 b9
       -0.00025563734 4.3013188e-05 7.431402e-05 -0.00019149588
000130 16 eb 46 b9 64 4f d1 b8 30 38 11 39 9a 87 02 39
       -0.00018970328 -9.980684e-05 0.00013849209 0.00012448282
000140 c1 02 ad b9 7a c9 35 38 b5 ef 2d 39 83 8c 30 38
       -0.00032999183 4.3341402e-05 0.00016587864 4.209253e-05
000150 2b 1d de 38 39 f0 07 38 04 8c 54 38 84 92 73 b9
       0.00010591218 3.2410233e-05 5.067514e-05 -0.00023228867
000160 24 e8 5c b9 39 52 56 38 99 9d 11 b8 30 b7 08 b9
       -0.00021067314 5.109815e-05 -3.471747e-05 -0.00013038213
000170 58 fc bf 38 ec 9d 02 b8 6d 4c 1f 39 21 fc 8d b7
       9.1545924e-05 -3.114149e-05 0.00015191892 -1.6925916e-05
000180 ef e5 ae 37 70 c7 91 39 43 68 cc 3a 2a 87 2f ba
       2.0849488e-05 0.00027805148 0.0015595037 -0.0006695861
000190 bf 05 1b ba fc 1d de b9 4d 18 05 ba 58 f4 fa b9
       -0.0005913637 -0.0004236548 -0.00050771685 -0.00047865766
0001a0 0f 5f 66 b9 12 ab 66 b9 1e 46 ee b9 6b fa b5 b9
       -0.00021969921 -0.00021998238 -0.0004544714 -0.00034709586
0001b0 16 3f 81 b9 26 6e 13 ba 74 0d b3 b9 f1 a3 28 ba
       -0.000246518 -0.00056240184 -0.00034151564 -0.00064331206
0001c0 fb d5 fe b9 36 29 11 ba b1 46 36 ba 7e e8 37 ba
       -0.00048606083 -0.0005537452 -0.0006953283 -0.000701554
0001d0 6b ba 1f ba a8 74 17 ba 21 73 c1 b9 c5 3c 10 ba
       -0.0006093147 -0.0005777576 -0.00036897606 -0.00055022194
0001e0 3a 08 c4 b9 c8 4d 80 b8 2d a8 c5 b9 b5 e6 a0 b9
       -0.00037390162 -6.1180035e-05 -0.0003770007 -0.00030689468
0001f0 13 48 58 b9 52 11 08 ba 80 07 8c b9 24 37 3c ba
       -0.00020626215 -0.0005190569 -0.0002670847 -0.00071798475
000200 ff be 18 ba 12 99 d8 b9 15 6f 1d ba bb f5 54 bb
       -0.00058268005 -0.00041312777 -0.0006005627 -0.00324951
000210 f5 db da 38 b4 6d bb 37 df fb 2d b9 e1 22 86 38
       0.0001043602 2.2343222e-05 -0.00016592395 6.3961146e-05
000220 b4 03 c0 b7 d7 46 3d 39 96 91 23 39 94 50 db b8
       -2.2889908e-05 0.00018050834 0.00015599126 -0.000104577426
000230 38 b8 fa 38 cc 56 9f 36 d3 53 a4 38 56 09 1b 39
       0.000119552424 4.7486737e-06 7.835743e-05 0.0001478543
000240 9a d9 16 b9 98 26 a4 b7 fb 86 c6 37 84 59 fb b7
       -0.00014386178 -1.9568295e-05 2.3666295e-05 -2.9963216e-05
000250 25 8f 4b b8 72 d3 e4 38 57 50 45 b7 94 91 33 b7
       -4.8532285e-05 0.00010911272 -1.1760821e-05 -1.07031265e-05
000260 88 27 3f 38 dd 8a 6e 37 f5 aa 1b 39 3e e7 c4 38
       4.5574765e-05 1.4218237e-05 0.00014845638 9.3890805e-05
000270 44 d2 4f b8 63 b4 0f 39 cc d1 68 38 66 fa 95 38
       -4.954847e-05 0.00013704742 5.55085e-05 7.151514e-05
000280 1c 04 3f 38 78 8f 07 37 73 7c 31 39 20 26 9a b7
       4.5541776e-05 8.080031e-06 0.00016926396 -1.8375984e-05
000290 8d 08 d2 3a e7 6c 5d b8 f4 b8 81 39 44 5c 6b 39
       0.0016024277 -5.279193e-05 0.00024742598 0.00022445718
0002a0 95 00 ce b8 fe 9c 8a b7 ee 62 19 ba 3e db ec 38
       -9.822954e-05 -1.6523987e-05 -0.00058512285 0.00011294194
0002b0 fa 46 98 b8 22 35 12 39 1f 23 18 b9 1b ce 58 b9
       -7.261145e-05 0.00013943439 -0.00014508933 -0.00020676146
0002c0 6f 9d f5 37 69 3c 59 ba 5d a3 31 b9 62 db 8f 39
       2.9279587e-05 -0.0008286895 -0.00016940893 0.00027438538
0002d0 66 0a 0d 39 2b aa 13 b8 35 cb 4f 39 84 c7 52 39
       0.00013450682 -3.5206012e-05 0.00019816759 0.00020101486
0002e0 ad 69 fd 38 6f f7 9a 38 cd 64 d6 b9 c2 88 19 b9
       0.00012083664 7.38938e-05 -0.00040892363 -0.00014642163
0002f0 4c c2 fe b8 79 7c e5 38 24 39 28 b9 68 7b fe 38
       -0.000121478544 0.00010942756 -0.00016043015 0.0001213465
000300 65 47 bd 37 80 51 4e ba 42 ad 35 b9 81 7e 5a 39
       2.2563801e-05 -0.0007870421 -0.00017326049 0.00020837226
000310 eb 3e 98 39 ff 67 08 39 01 e7 14 38 ca d0 45 37
       0.00029038577 0.00013008712 3.550109e-05 1.17907275e-05
000320 da a0 f5 39 e6 61 13 b9 8b 6d ee b7 4f ed 12 ba
       0.00046849885 -0.00014055482 -2.842282e-05 -0.000560482
000330 38 33 1a ba 34 97 ab b9 71 b4 56 38 b2 87 1c ba
       -0.0005882266 -0.00032728317 5.1189625e-05 -0.0005971148
000340 a8 a3 da b9 9d 74 9c b9 19 d3 1f ba f6 d3 63 b8
       -0.00041702134 -0.00029841522 -0.00060968247 -5.431842e-05
000350 a3 03 3e b9 e8 2e 3a 39 fd b8 27 38 54 f5 49 b8
       -0.00018121167 0.00017755816 3.9988186e-05 -4.8150614e-05
000360 ca 88 c3 39 dc 65 d0 b7 20 d2 6d b7 22 e5 ef b9
       0.00037295214 -2.4842964e-05 -1.4175224e-05 -0.0004575635
000370 01 8e 13 ba f6 20 ae b9 19 18 d4 38 e7 98 f1 b9
       -0.0005628765 -0.00033212424 0.00010113436 -0.00046081023
000380 76 0d a3 b8 b5 61 55 b9 3f 9f 23 ba d9 ae ee b8
       -7.774953e-05 -0.00020349662 -0.0006241686 -0.00011381292
000390 9e 96 6e b9 39 38 be 39 6d 07 7b ba 48 b9 27 ba
       -0.00022753558 0.00036281513 -0.00095759967 -0.00063981535
0003a0 ef 34 5b b9 72 d7 42 ba 51 7a e4 b9 74 cf a3 b9
       -0.00020905187 -0.00074326165 -0.00043578682 -0.00031244347
0003b0 14 d3 3d 38 d8 13 df 39 12 e2 03 ba 53 3b 50 b9
       4.5257693e-05 0.0004254866 -0.00050309405 -0.00019858526
0003c0 10 7d e0 b7 a4 da ef b9 27 19 02 b8 90 68 79 ba
       -2.6761118e-05 -0.00045748532 -3.101784e-05 -0.0009514177
0003d0 d2 84 9d b9 37 b7 b1 37 69 8b 15 ba cb 42 31 ba
       -0.00030044332 2.118536e-05 -0.00057046727 -0.0006761967
0003e0 fa f5 74 b9 eb 1d 3b ba a4 6f a7 b9 be a3 8f b9
       -0.00023361287 -0.0007137942 -0.000319359 -0.00027397083
0003f0 ef c5 7f b9 de ce bb 39 1c 81 8a b9 c4 fd 74 b9
       -0.00024392431 0.00035821547 -0.00026417605 -0.00023364188
