log/geometric_graph/torus/checkpoints/best_model-step=19563.ckpt (torch, 105362 bytes, 35 tensors)

target_coord f4 [256, 3]
000000 f7 bc a3 3f 4e 8e 47 24 f3 04 b5 3f 3a 46 97 3f
       1.2792042 4.3271783e-17 1.4142135 1.1818306
000010 b7 a3 fa 3e f3 04 b5 3f 8b 8f 67 3f 8b 8f 67 3f
       0.4895303 1.4142135 0.90453404 0.90453404
000020 f3 04 b5 3f b7 a3 fa 3e 3a 46 97 3f f3 04 b5 3f
       1.4142135 0.4895303 1.1818306 1.4142135
000030 07 2d 2c 25 f7 bc a3 3f f3 04 b5 3f b7 a3 fa be
       1.4933878e-16 1.2792042 1.4142135 -0.4895303
000040 3a 46 97 3f f3 04 b5 3f 8b 8f 67 bf 8b 8f 67 3f
       1.1818306 1.4142135 -0.90453404 0.90453404
000050 f3 04 b5 3f 3a 46 97 bf b7 a3 fa 3e f3 04 b5 3f
       1.4142135 -1.1818306 0.4895303 1.4142135
000060 f7 bc a3 bf aa 80 66 25 f3 04 b5 3f 3a 46 97 bf
       -1.2792042 1.9992913e-16 1.4142135 -1.1818306
000070 b7 a3 fa be f3 04 b5 3f 8b 8f 67 bf 8b 8f 67 bf
       -0.4895303 1.4142135 -0.90453404 -0.90453404
000080 f3 04 b5 3f b7 a3 fa be 3a 46 97 bf f3 04 b5 3f
       1.4142135 -0.4895303 -1.1818306 1.4142135
000090 26 0d 3d a5 f7 bc a3 bf f3 04 b5 3f b7 a3 fa 3e
       -1.6397592e-16 -1.2792042 1.4142135 0.4895303
0000a0 3a 46 97 bf f3 04 b5 3f 8b 8f 67 3f 8b 8f 67 bf
       -1.1818306 1.4142135 0.90453404 -0.90453404
0000b0 f3 04 b5 3f 3a 46 97 3f b7 a3 fa be f3 04 b5 3f
       1.4142135 1.1818306 -0.4895303 1.4142135
0000c0 eb 82 cd 3f 4e 8e 47 24 75 3d a7 3f 27 de bd 3f
       1.6055578 4.3271783e-17 1.306563 1.483342
0000d0 a7 4a 1d 3f 75 3d a7 3f 8a 51 91 3f 8a 51 91 3f
       0.61442035 1.306563 1.1353009 1.1353009
0000e0 75 3d a7 3f a7 4a 1d 3f 27 de bd 3f 75 3d a7 3f
       1.306563 0.61442035 1.483342 1.306563
0000f0 15 37 43 25 eb 82 cd 3f 75 3d a7 3f a7 4a 1d bf
       1.6932216e-16 1.6055578 1.306563 -0.61442035
000100 27 de bd 3f 75 3d a7 3f 8a 51 91 bf 8a 51 91 3f
       1.483342 1.306563 -1.1353009 1.1353009
000110 75 3d a7 3f 27 de bd bf a7 4a 1d 3f 75 3d a7 3f
       1.306563 -1.483342 0.61442035 1.306563
000120 eb 82 cd bf 63 4a 8a 25 75 3d a7 3f 27 de bd bf
       -1.6055578 2.398959e-16 1.306563 -1.483342
000130 a7 4a 1d bf 75 3d a7 3f 8a 51 91 bf 8a 51 91 bf
       -0.61442035 1.306563 -1.1353009 -1.1353009
000140 75 3d a7 3f a7 4a 1d bf 27 de bd bf 75 3d a7 3f
       1.306563 -0.61442035 -1.483342 1.306563
000150 a8 15 81 a5 eb 82 cd bf 75 3d a7 3f a7 4a 1d 3f
       -2.2392608e-16 -1.6055578 1.306563 0.61442035
000160 27 de bd bf 75 3d a7 3f 8a 51 91 3f 8a 51 91 bf
       -1.483342 1.306563 1.1353009 -1.1353009
000170 75 3d a7 3f 27 de bd 3f a7 4a 1d bf 75 3d a7 3f
       1.306563 1.483342 -0.61442035 1.306563
000180 d0 ec f0 3f 4e 8e 47 24 00 00 80 3f f2 95 de 3f
       1.882227 4.3271783e-17 1.0 1.738951
000190 64 65 38 3f 00 00 80 3f 18 5c aa 3f 18 5c aa 3f
       0.7202971 1.0 1.3309355 1.3309355
0001a0 00 00 80 3f 64 65 38 3f f2 95 de 3f 00 00 80 3f
       1.0 0.7202971 1.738951 1.0
0001b0 36 bf 56 25 d0 ec f0 3f 00 00 80 3f 64 65 38 bf
       1.8626326e-16 1.882227 1.0 -0.7202971
0001c0 f2 95 de 3f 00 00 80 3f 18 5c aa bf 18 5c aa 3f
       1.738951 1.0 -1.3309355 1.3309355
0001d0 00 00 80 3f f2 95 de bf 64 65 38 3f 00 00 80 3f
       1.0 -1.738951 0.7202971 1.0
0001e0 d0 ec f0 bf 84 d2 9d 25 00 00 80 3f f2 95 de bf
       -1.882227 2.737781e-16 1.0 -1.738951
0001f0 64 65 38 bf 00 00 80 3f 18 5c aa bf 18 5c aa bf
       -0.7202971 1.0 -1.3309355 -1.3309355
000200 00 00 80 3f 64 65 38 bf f2 95 de bf 00 00 80 3f
       1.0 -0.7202971 -1.738951 1.0
000210 da 61 9e a5 d0 ec f0 bf 00 00 80 3f 64 65 38 3f
       -2.7474938e-16 -1.882227 1.0 0.7202971
000220 f2 95 de bf 00 00 80 3f 18 5c aa 3f 18 5c aa bf
       -1.738951 1.0 1.3309355 -1.3309355
000230 00 00 80 3f f2 95 de 3f 64 65 38 bf 00 00 80 3f
       1.0 1.738951 -0.7202971 1.0
000240 3a 4b 04 40 4e 8e 47 24 d4 8b 0a 3f 79 72 f4 3f
       2.0670915 4.3271783e-17 0.5411961 1.9097434
000250 b4 81 4a 3f d4 8b 0a 3f 7d 17 bb 3f 7d 17 bb 3f
       0.7910416 0.5411961 1.4616543 1.4616543
000260 d4 8b 0a 3f b4 81 4a 3f 79 72 f4 3f d4 8b 0a 3f
       0.5411961 0.7910416 1.9097434 0.5411961
000270 31 cc 63 25 3a 4b 04 40 d4 8b 0a 3f b4 81 4a bf
       1.9758294e-16 2.0670915 0.5411961 -0.7910416
000280 79 72 f4 3f d4 8b 0a 3f 7d 17 bb bf 7d 17 bb 3f
       1.9097434 0.5411961 -1.4616543 1.4616543
000290 d4 8b 0a 3f 79 72 f4 bf b4 81 4a 3f d4 8b 0a 3f
       0.5411961 -1.9097434 0.7910416 0.5411961
0002a0 3a 4b 04 c0 7f df aa 25 d4 8b 0a 3f 79 72 f4 bf
       -2.0670915 2.9641746e-16 0.5411961 -1.9097434
0002b0 b4 81 4a bf d4 8b 0a 3f 7d 17 bb bf 7d 17 bb bf
       -0.7910416 0.5411961 -1.4616543 -1.4616543
0002c0 d4 8b 0a 3f b4 81 4a bf 79 72 f4 bf d4 8b 0a 3f
       0.5411961 -0.7910416 -1.9097434 0.5411961
0002d0 53 f5 b1 a5 3a 4b 04 c0 d4 8b 0a 3f b4 81 4a 3f
       -3.0870844e-16 -2.0670915 0.5411961 0.7910416
0002e0 79 72 f4 bf d4 8b 0a 3f 7d 17 bb 3f 7d 17 bb bf
       -1.9097434 0.5411961 1.4616543 -1.4616543
0002f0 d4 8b 0a 3f 79 72 f4 3f b4 81 4a bf d4 8b 0a 3f
       0.5411961 1.9097434 -0.7910416 0.5411961
000300 ce 72 08 40 4e 8e 47 24 7d a5 d8 24 b6 1f fc 3f
       2.1320071 4.3271783e-17 9.3955416e-17 1.9697177
000310 c3 dd 50 3f 7d a5 d8 24 9e f7 c0 3f 9e f7 c0 3f
       0.8158838 9.3955416e-17 1.5075567 1.5075567
000320 7d a5 d8 24 c3 dd 50 3f b6 1f fc 3f 7d a5 d8 24
       9.3955416e-17 0.8158838 1.9697177 9.3955416e-17
000330 64 61 68 25 ce 72 08 40 7d a5 d8 24 c3 dd 50 bf
       2.015579e-16 2.1320071 9.3955416e-17 -0.8158838
000340 b6 1f fc 3f 7d a5 d8 24 9e f7 c0 bf 9e f7 c0 3f
       1.9697177 9.3955416e-17 -1.5075567 1.5075567
000350 7d a5 d8 24 b6 1f fc bf c3 dd 50 3f 7d a5 d8 24
       9.3955416e-17 -1.9697177 0.8158838 9.3955416e-17
000360 ce 72 08 c0 b2 74 af 25 7d a5 d8 24 b6 1f fc bf
       -2.1320071 3.0436737e-16 9.3955416e-17 -1.9697177
000370 c3 dd 50 bf 7d a5 d8 24 9e f7 c0 bf 9e f7 c0 bf
       -0.8158838 9.3955416e-17 -1.5075567 -1.5075567
000380 7d a5 d8 24 c3 dd 50 bf b6 1f fc bf 7d a5 d8 24
       9.3955416e-17 -0.8158838 -1.9697177 9.3955416e-17
000390 1e d5 b8 a5 ce 72 08 c0 7d a5 d8 24 c3 dd 50 3f
       -3.2063326e-16 -2.1320071 9.3955416e-17 0.8158838
0003a0 b6 1f fc bf 7d a5 d8 24 9e f7 c0 3f 9e f7 c0 bf
       -1.9697177 9.3955416e-17 1.5075567 -1.5075567
0003b0 7d a5 d8 24 b6 1f fc 3f c3 dd 50 bf 7d a5 d8 24
       9.3955416e-17 1.9697177 -0.8158838 9.3955416e-17
0003c0 3a 4b 04 40 4e 8e 47 24 d4 8b 0a bf 79 72 f4 3f
       2.0670915 4.3271783e-17 -0.5411961 1.9097434
0003d0 b4 81 4a 3f d4 8b 0a bf 7d 17 bb 3f 7d 17 bb 3f
       0.7910416 -0.5411961 1.4616543 1.4616543
0003e0 d4 8b 0a bf b4 81 4a 3f 79 72 f4 3f d4 8b 0a bf
       -0.5411961 0.7910416 1.9097434 -0.5411961
0003f0 31 cc 63 25 3a 4b 04 40 d4 8b 0a bf b4 81 4a bf
       1.9758294e-16 2.0670915 -0.5411961 -0.7910416

init_coord f4 [256, 3]
000000 1e c2 1a 3f ea 1f 05 bf 39 11 55 be b0 54 13 3e
       0.6045245 -0.5200182 -0.20807351 0.14387774
000010 5b 95 74 3d de 72 fe bc f3 09 b4 bf a1 28 d2 3d
       0.05971275 -0.031060632 -1.4065536 0.102616556
000020 d5 9d a2 3d d2 03 3a 3f e5 4a a6 be e3 87 35 3f
       0.0794026 0.7266208 -0.32479015 0.7091047
000030 24 34 b7 be 8f 29 77 be e4 97 d5 be 81 45 22 3e
       -0.35781968 -0.24136947 -0.41717446 0.15846826
000040 28 ee b3 3e 13 c1 5e 3f 1a 4c 04 3e 23 fd fb 3b
       0.35142636 0.8701336 0.12919655 0.0076900884
000050 c9 4e 1b be 41 3d 58 3e f2 92 b8 3e 94 b1 1b 3d
       -0.15166773 0.21117117 0.3604961 0.03801115
000060 7e e8 3d bf b1 a6 b6 be 10 32 07 3e 8b 0c c9 bc
       -0.7418288 -0.3567405 0.13202691 -0.024542114
000070 7f 9b 42 be 97 8f 90 bf c0 e1 bf bd 7f cc 33 3e
       -0.1900463 -1.129382 -0.0936923 0.17558478
000080 28 fb 42 be 9a b5 a4 be 79 43 d2 be a1 3b b4 bd
       -0.19041121 -0.321698 -0.41067103 -0.08800436
000090 31 bd 57 be bf 2d 0c bf 03 70 06 3f b3 4a db 3e
       -0.21068265 -0.54757303 0.52514666 0.42830428
0000a0 f9 36 99 3d 4e a3 d7 be ff d1 15 bf 6a a6 80 3f
       0.07481188 -0.4211678 -0.58523554 1.0050786
0000b0 ef 3e 56 be 52 39 71 bf 0b 74 82 be 4b b2 9a be
       -0.20922445 -0.9422809 -0.2547916 -0.30214152
0000c0 aa 71 85 3e 1a 0f b1 3e ea 23 25 be 7d 42 92 3e
       0.2606328 0.34581834 -0.16126981 0.28566352
0000d0 ae 11 18 3e b3 6f f4 be e5 cc cb be ce 31 57 3d
       0.14850494 -0.4774147 -0.3980476 0.05253773
0000e0 40 d3 2b bd b1 f4 4e be c5 58 1f 3f 37 15 9b 3e
       -0.04194951 -0.2021053 0.62244827 0.30289623
0000f0 15 5e 3d 3f 81 8f 35 bf ca a8 0a bf 5a 3d 19 bf
       0.7397168 -0.70922095 -0.541638 -0.5985924
000100 fa 73 cf bd 39 3b 05 bd 06 3e c5 3e 36 b0 1d bf
       -0.10129543 -0.032527182 0.38523883 -0.61597
000110 7b bf ca 3e 7e 66 3d 3e 52 18 12 bf 66 95 60 bf
       0.39599213 0.18496129 -0.5706836 -0.87727964
000120 cd 74 87 be e9 be 83 3e 51 6f 29 3f 42 cf 13 3f
       -0.264563 0.2573159 0.6618548 0.57738125
000130 3c 89 f2 3e f2 a2 9b 3e aa 4a 81 3e b9 be 83 be
       0.47370327 0.30397755 0.25252277 -0.25731447
000140 07 43 fd 3e cb 58 33 3e e8 73 65 bf 63 7c 54 bf
       0.494652 0.1751434 -0.89629984 -0.830023
000150 af 3a 95 39 63 37 cd 3e 1d 94 33 3e f6 6a 23 be
       0.00028463217 0.4008132 0.1753697 -0.15958771
000160 ff 4f f9 bc 00 fa c1 bd b3 ee 78 bd 75 f6 0f be
       -0.030433653 -0.09471512 -0.060774516 -0.1405886
000170 69 0b ac 3e d8 07 f8 3e 3f 86 36 bf 3b 2f 02 bf
       0.33602455 0.48443484 -0.71298593 -0.5085332
000180 6a cc bb 3e b4 94 2c 3e 1d b2 d7 be b8 8c 69 bf
       0.36679393 0.168536 -0.42128077 -0.91230345
000190 1b 91 b2 be 5f 01 9d 3e 0e 0c 64 be ee f3 a5 3e
       -0.34876332 0.3066511 -0.22270223 0.32412666
0001a0 18 64 24 3f 5d f2 36 3f b7 bb 96 3e a1 c0 61 3e
       0.6421523 0.71463567 0.2944009 0.22046138
0001b0 3b 71 b9 be ca 04 83 38 25 9f c9 3c 92 ed 5d be
       -0.362192 6.247459e-05 0.024612019 -0.21672657
0001c0 a9 03 4a 3f eb db ab 3e 24 14 f8 be 22 a7 c5 3e
       0.78911835 0.33566222 -0.48452866 0.38604075
0001d0 a5 5f 73 3b 44 29 59 be 8d 52 57 3f 45 70 e2 bd
       0.0037135866 -0.21207148 0.8411034 -0.1105657
0001e0 85 66 81 bf 8f d4 85 3e a5 cd ba bd 9a 2f ea be
       -1.0109411 0.26138732 -0.09121255 -0.45739442
0001f0 0b de 80 3e 62 2c a1 3d 3c 65 5e 3e 4f b0 3f be
       0.25169405 0.078697935 0.21718305 -0.187196
000200 40 b8 2d 3e b9 d2 fb bd 06 cf 2c bf 44 c7 0e bd
       0.16964817 -0.122960515 -0.6750339 -0.034858003
000210 df ad a6 be b6 bf 5b bf bb 46 64 3e 2d af 5e 3e
       -0.32554528 -0.858394 0.22292607 0.21746512
000220 ed 51 d3 be 77 37 ec be 26 06 3d bf 44 c9 2c be
       -0.41273442 -0.46136066 -0.73837507 -0.16873652
000230 e2 be 8d be c2 46 0d 3c 93 1f 61 3b 02 a9 ab 3e
       -0.27684695 0.008622827 0.0034351095 0.3352738
000240 b6 e8 71 3d ed ee 8f be e8 35 81 3f cd 87 0c 3e
       0.05905982 -0.28111973 1.0094576 0.13723679
000250 03 9a e1 3c 7d f2 05 bf 65 e7 de bd 01 d7 45 3f
       0.027539259 -0.5232313 -0.10883979 0.77281195
000260 ac ed c2 be e6 12 1d 3f 5c a2 df be 02 f6 3f 3e
       -0.38071954 0.6135696 -0.43678558 0.18746188
000270 a2 62 d2 be 11 86 b7 bf 20 25 59 3f cb 8f d4 bd
       -0.41090876 -1.4337789 0.84822273 -0.10378989
000280 17 84 23 3e 34 04 f1 bd ab 95 a3 3e 68 0b 01 bf
       0.15968357 -0.1176838 0.31950125 -0.5040803
000290 41 a7 0e bf 9e 59 26 be 89 19 18 be c3 ef cd 3e
       -0.5572396 -0.16245124 -0.14853491 0.40221986
0002a0 d2 56 93 3e 89 d0 5b 3d db 62 df bd c0 89 a3 3e
       0.28777176 0.05366567 -0.10907527 0.31941032
0002b0 a3 cb 8b 3d 7f 57 e1 bd 3f c7 75 3e 0a c7 17 bf
       0.0682595 -0.11003017 0.24001788 -0.59288085
0002c0 0b 79 f6 be 10 ae 4a 3f 38 19 89 3f 90 aa 3e bf
       -0.48139223 0.7917185 1.0710821 -0.7447901
0002d0 9d 31 ab 3d 4c f0 af 3f 29 d0 61 be 2c 6b 9a 3f
       0.08359072 1.3745208 -0.22052063 1.2063956
0002e0 38 72 5a 3f 53 a2 f9 3e 82 30 8e 3c a9 a6 68 bf
       0.85330534 0.48756656 0.017357115 -0.90879303
0002f0 84 4c dc 3e 60 5b 1e be 45 c0 34 be 38 f6 88 3e
       0.43027127 -0.15464544 -0.1765147 0.2675035
000300 a9 38 0b 3f e1 42 2a 3e 8d 6a 10 bf 65 b6 31 bf
       0.5438333 0.16627075 -0.56412584 -0.69418937
000310 84 18 29 bf 1c 9f cc 3e 36 42 44 be 85 94 f0 3e
       -0.6605303 0.3996514 -0.19165882 0.4698831
000320 83 66 20 3f a3 0d 3d 3e 8c 01 55 be bc ca 1b 3f
       0.6265642 0.18462233 -0.20801371 0.60856223
000330 39 15 0a bf 43 ed a0 3d f2 fc 19 bf 30 bc 4d be
       -0.53938633 0.07857754 -0.6015159 -0.20091319
000340 c3 56 c7 3e 07 46 44 3e d4 51 db be 72 cf c6 bd
       0.3893338 0.19167338 -0.42835867 -0.09707536
000350 80 d1 5d 3c 28 3b 40 3e 74 e1 b3 3d 28 53 a0 3d
       0.013538718 0.18772566 0.08783236 0.07828361
000360 07 b5 be be 89 27 80 3f e0 a8 44 be 29 7f 22 3c
       -0.37247488 1.0012065 -0.19205046 0.009918013
000370 bb 8a 5b bf af 67 1d bf bf d7 17 3f 42 bd 25 bf
       -0.8575856 -0.61486334 0.5931358 -0.6474191
000380 79 d9 2c 3e ea b7 14 3e c8 8f 02 3f 9a 4a 21 bf
       0.16879834 0.14523283 0.5100064 -0.6300446
000390 d7 0b f6 3d 65 9c 4e 3f 61 3b 62 3d cd 4c f6 be
       0.12013977 0.8070739 0.05523241 -0.4810547
0003a0 78 00 65 bf 66 68 9d 3e 57 f0 95 3e c2 da 06 3f
       -0.8945384 0.30743712 0.29284927 0.5267755
0003b0 02 da 5b bf 2a d9 df be e4 b7 a7 be 9e d5 56 be
       -0.8587953 -0.4372037 -0.32757485 -0.20979926
0003c0 af 9e 57 3f 2f 85 43 3e 24 2f cd 3e 57 aa 89 3f
       0.84226507 0.19093774 0.40075028 1.0755109
0003d0 c8 d3 2c bf c8 f4 b3 bf 0d 2a 32 3f b3 5d fa 3e
       -0.6751065 -1.4059076 0.69595414 0.48899612
0003e0 51 4e f7 3d e6 ab 3d 3e 90 c5 67 3e 7a f0 5b 3f
       0.120754845 0.18522605 0.22633958 0.85913813
0003f0 44 70 72 3f e9 b9 99 be 82 4b bc 3d 52 3c 2f bf
       0.94702554 -0.3002465 0.091940895 -0.68451416

encoder.egnn.layers.0.edge_mlp.0.weight f4 [32, 33]
000000 38 6e 34 be 3d cd 2a be 0e d9 8d bd 38 b2 58 3e
       -0.1762017 -0.16679855 -0.069261655 0.21161735
000010 64 a2 c5 bd 7f 0d d6 bc cd c1 13 be 58 f4 76 3e
       -0.09650114 -0.026129482 -0.14429398 0.24116647
000020 00 af e9 bc a6 59 52 be bc 73 0f be f9 58 84 bd
       -0.02852583 -0.2054201 -0.14008993 -0.06462283
000030 de aa 8e 3c 8a af 07 3e 6f a2 9f 3d 57 c1 22 bb
       0.01741546 0.13250557 0.077946536 -0.0024834478
000040 a5 50 49 be 2a 74 d5 bd 10 ce 94 bd 24 41 ab bd
       -0.1965967 -0.10422547 -0.07265866 -0.08362034
000050 a0 4e c5 3d fc 90 29 3e 62 78 6d bd aa 4f 33 bd
       0.09634137 0.16559213 -0.057976134 -0.043777145
000060 bf ad 47 3d a3 0c 0c 3e 0b f1 78 bc 7a 41 f5 bd
       0.04874968 0.13676696 -0.015194188 -0.11975379
000070 e5 86 05 be 21 9e 2f bd dd 84 3d 3e 95 56 8c be
       -0.1303974 -0.042875413 0.18507715 -0.27409807
000080 a3 8e 38 3e 34 ee 87 3c f4 fe 99 bd 6a 65 1d 3e
       0.18023162 0.016593076 -0.075193316 0.15370718
000090 91 21 fc 3c 9d af 0d 3b c3 83 ac 3c 2b 1c 61 3d
       0.030777724 0.0021619566 0.021058923 0.054958504
0000a0 1d 6e 0e be 77 fb 73 3e 38 d5 29 3e 7d 07 b0 bd
       -0.13909192 0.23826395 0.16585243 -0.08595178
0000b0 52 6a 1b 3e 09 70 84 3d 7b aa 59 bd 9f 9c b1 3d
       0.15177277 0.064666815 -0.0531411 0.08672451
0000c0 c3 2e d8 bd ae 54 9d 3e dc e9 a6 bb b1 6c aa bd
       -0.10555794 0.30728668 -0.005093796 -0.083215125
0000d0 81 af ec 3d 01 bb 28 3e ae 4b 1a be 29 08 c0 3d
       0.11556912 0.16477586 -0.15067932 0.093765564
0000e0 27 5f a2 3c f2 62 25 3e 2c 82 01 3e 83 b0 5f bd
       0.019820763 0.16151026 0.12647313 -0.054611694
0000f0 70 48 3c bd f4 ad dd bc 82 2b 81 be 43 c1 d3 bd
       -0.04596752 -0.027060486 -0.25228506 -0.10339596
000100 f5 b3 96 3d 5c b7 ff bd 40 eb 1a be 28 07 85 3e
       0.07358543 -0.12486145 -0.15128803 0.25982022
000110 03 96 e3 3d 64 d9 bb bd 17 c7 84 3e 17 a9 77 3d
       0.11112597 -0.09172323 0.25933143 0.06046399
000120 de 2f 63 3d dc 63 f1 bd 86 0f 80 3c b9 50 c3 bc
       0.05546557 -0.11786625 0.015632402 -0.023842202
000130 27 1e 80 3d 61 63 df 3d 2a a0 78 be fd f4 67 3d
       0.06255751 0.10907627 -0.24279848 0.056630123
000140 19 e1 ba 3c 0e 3d c0 3d 03 55 85 be 44 d1 1b be
       0.022812413 0.09386645 -0.2604142 -0.15216547
000150 e5 ba 03 bd 4c 2b a1 3d 8b 55 30 bd bd 2f 89 3d
       -0.03216066 0.07869586 -0.04305033 0.066985585
000160 e2 8e 32 3e c4 a3 4b bd f1 d1 9c bc d6 de 85 3b
       0.17437318 -0.049716726 -0.019143077 0.004085402
000170 71 6e 43 3d cf 9c 3a 3e 98 c4 a3 bd 32 58 06 be
       0.047712747 0.1822388 -0.07996482 -0.13119581
000180 df dc 86 3d 36 44 1d 3e d7 48 8e bd 41 43 3d be
       0.065850966 0.15358052 -0.06947487 -0.18482687
000190 ed 43 1f bc c7 13 84 3c 38 24 89 bd 6a 82 9f bd
       -0.009720785 0.016122712 -0.06696361 -0.077885464
0001a0 4c e8 f8 ba 3c 6a 01 3e 49 71 cd 3d e6 a2 9b be
       -0.0018990128 0.12638181 0.10031373 -0.3039772
0001b0 c6 2b d4 bd 0d 60 94 be d5 a8 c9 3c 4f 5e db bd
       -0.103599116 -0.2897953 0.024616638 -0.10711347
0001c0 36 cc 16 3e 11 51 42 bd 48 b3 c6 bd 4b 15 a6 bd
       0.14726338 -0.047440592 -0.09702164 -0.0810953
0001d0 85 ec 5d 3e 29 cc 88 be 8e b3 c7 3d bb 45 fe 3c
       0.21672256 -0.26718262 0.09751044 0.03103911
0001e0 bc d9 8a bd e2 7a 8d 3e 4b a6 6c 3d 76 5e 8c bd
       -0.06779811 0.27632815 0.057775777 -0.068539545
0001f0 af 00 57 3e fe 0e 8e be e2 18 1c be cc 24 53 be
       0.20996355 -0.27745813 -0.15243867 -0.20619506
000200 bd b5 89 3e af b7 ce 3d b4 a6 14 3d 75 a3 7d be
       0.26896468 0.100936286 0.036291793 -0.24769385
000210 c0 58 c4 3c 7c f0 85 3d 20 84 2d 3e 07 68 e2 3d
       0.0239681 0.065400094 0.16944933 0.11054998
000220 a0 0a 1f be 52 17 92 3c 66 f7 4b 3e b5 21 50 bd
       -0.15531397 0.017833386 0.19918594 -0.050813396
000230 c4 2e 3c 3d 4a 66 b4 3d b5 e6 56 3e cc db a7 3b
       0.045943037 0.088085726 0.20986445 0.0051226374
000240 da 07 1b 3e 55 c9 45 3e 8f 8b 56 be 28 c1 03 bc
       0.15139714 0.19315083 -0.20951675 -0.0080416575
000250 bb c8 10 3c 67 ce 43 3e e3 25 dd 3d d5 18 24 3e
       0.00883692 0.19121705 0.10798242 0.16025098
000260 12 f4 73 bd b6 ab 4b be 60 5d 1c 3e 60 73 2c be
       -0.059558935 -0.19889721 0.15269995 -0.16840887
000270 b1 2b 7b 3e 58 6b 36 3e 06 f9 62 3e 32 ed 3f 3e
       0.24528386 0.17814386 0.22165307 0.18742827
000280 74 34 a8 3d 8a cd 2d bd 17 4f 34 3d 0d f9 df bd
       0.0821313 -0.042432345 0.04402074 -0.109361745
000290 58 ab f9 bc 48 73 2d 3e 0c 7e 5e 3c a9 35 cc 3d
       -0.03047721 0.16938508 0.013579857 0.09971172
0002a0 60 e4 66 be 98 ce e3 3c 2f a7 99 3d e0 a7 36 be
       -0.22548056 0.027808473 0.07502591 -0.17837477
0002b0 22 7d 98 be 19 db 12 3e 62 04 a4 3d 37 44 a4 b6
       -0.2978297 0.14341392 0.080086485 -4.895522e-06
0002c0 e4 0d f6 bd 57 72 36 bd 53 ed 38 bd c5 58 46 3d
       -0.12014368 -0.044542637 -0.045148205 0.0484245
0002d0 60 0f 37 be 9a 57 1a 3e 33 70 59 be 4c 98 ab be
       -0.17876959 0.1507248 -0.21234207 -0.3351463
0002e0 e2 4d 3d be aa 43 10 be e8 d8 50 be d9 c7 55 3d
       -0.18486741 -0.14088312 -0.20395243 0.052192543
0002f0 da ad 07 be 0c b6 46 3e ee 12 38 be 49 05 42 be
       -0.13249913 0.19405383 -0.17975971 -0.18947329
000300 3a f1 93 bd b9 8c d7 3d 7c 6f 78 be 16 55 3d 3e
       -0.07223745 0.105248876 -0.24261278 0.18489489
000310 6a b1 00 be c6 c4 f5 bd ed 32 bf bd 29 bb 7a 3e
       -0.12567678 -0.12000422 -0.09335885 0.24485458
000320 77 07 80 be 3a 9c 50 3e 7d c0 9b be 9d 48 d6 3c
       -0.25005695 0.20372096 -0.30420294 0.026157672
000330 81 4b 43 3d 1c fd f7 bc 7f e8 24 bb fa 6a b1 bc
       0.047679428 -0.03027206 -0.0025162993 -0.021657456
000340 e6 89 72 be f1 e9 27 be 7d f9 a1 bd 14 32 9b bc
       -0.23685417 -0.16397835 -0.07908914 -0.018944778
000350 fb 84 89 be 91 c0 ad 3c c6 f9 0b 3e 6e 3f 3c 3e
       -0.2685927 0.021209987 0.136695 0.18383572
000360 02 71 cd be 3e c6 2a bd e2 ed 8e bd 44 b1 77 be
       -0.4012528 -0.041692965 -0.06978966 -0.24188715
000370 0d 7f 9e 3e 1f 3e 23 be 29 37 f4 bb 41 9a 1c 3e
       0.30956307 -0.15941666 -0.0074528647 0.15293218
000380 2d 3a 33 be 66 7c c1 bd ca 6b 92 be b1 2d af 3c
       -0.17502661 -0.09447555 -0.28597862 0.021384092
000390 d9 5f a5 3d 3e a0 54 3d 63 94 24 be a6 2f 89 bd
       0.08074922 0.05191063 -0.1607223 -0.06698541
0003a0 88 01 05 be 0a ee 27 be f2 33 1d 3d 63 e4 b3 bb
       -0.12988865 -0.16399398 0.038379617 -0.0054898723
0003b0 72 ae 61 bd 44 af eb 3a ed 92 b2 3d cf 2e 62 be
       -0.055098005 0.001798131 0.0871943 -0.22088169
0003c0 f2 57 ac 3d f3 38 4f 3c 6d 80 fa 3d 8f d2 25 3e
       0.08415212 0.012647855 0.122315265 0.16193603
0003d0 c1 35 4d 3e a3 a1 34 be 69 be 36 bd d9 bc 83 be
       0.20040037 -0.17639785 -0.044615183 -0.25730017
0003e0 3b 7e 90 3d d2 b7 db bd cf cd a7 bc 4e 24 8e bd
       0.070553266 -0.1072842 -0.02048388 -0.06940518
0003f0 68 b7 17 be 9c 6e 86 bd bd 3b 91 3e ca 22 82 bc
       -0.14816058 -0.06564066 0.2836589 -0.01588573

encoder.egnn.layers.0.edge_mlp.0.bias f4 [32]
000000 9e f2 8a 3d 2d 17 9b 3d 8c 27 05 3e dd 2c 02 be
       0.06784557 0.0757278 0.13003367 -0.12712426
000010 27 02 33 bd 84 34 ca bd 51 9f c3 bc e8 b3 b2 3d
       -0.043703225 -0.09873298 -0.023879679 0.08725721
000020 bc 08 71 3d bc 22 9c 3d 78 00 9d 3d 18 17 a7 bc
       0.05884622 0.076238126 0.07666105 -0.020396754
000030 dc a7 df ba 5f d6 f6 3d ae 9f b6 bd aa 34 45 3e
       -0.0017063576 0.12052607 -0.08917175 0.19258371
000040 7d 82 07 bd cb 8b 0f 3e 45 29 1f 3e 7c 17 01 be
       -0.033083428 0.1401817 0.15543087 -0.12606615
000050 e3 33 b7 bc bb c6 90 3d 94 6a 0c bd fe 76 20 be
       -0.022363609 0.07069155 -0.03428133 -0.15670392
000060 45 b8 6f 3c 49 88 0e be 42 e4 36 3d 83 ed ad bd
       0.014631336 -0.13919176 0.044651277 -0.084925674
000070 9f 8e cb 3d 0d 43 e7 3d 58 c5 a5 3c f8 c0 ce bd
       0.09939312 0.11292086 0.020235702 -0.100953996

encoder.egnn.layers.0.edge_mlp.2.weight f4 [32, 32]
000000 b4 01 50 be 0e 28 6d bd 11 ae cc bd bc a2 30 bd
       -0.2031315 -0.057899527 -0.09994138 -0.043123946
000010 ec 25 10 be b0 96 4b bd 87 d8 06 be b1 dc 52 3e
       -0.14076966 -0.049704254 -0.13168536 0.20592
000020 1f 3e 95 3c 86 0d 1c 3d 53 77 c0 bd 09 7d 04 3e
       0.018218098 0.038098834 -0.09397759 0.12938322
000030 f5 31 cc 3d 74 d6 08 3e fb d3 1a be 4b 5e 9c bd
       0.09970466 0.13363057 -0.15119927 -0.076351725
000040 9b a0 84 be 68 de de bc f0 ae 61 be 25 b9 a6 bb
       -0.25903782 -0.027205661 -0.2203939 -0.005087989
000050 ba 65 90 bc 84 fd 32 3e 05 33 10 bd 7a 95 ed 3d
       -0.017626632 0.17479521 -0.035204906 0.11600776
000060 72 a3 66 3d 3f 1a 47 3e a7 b3 dd ba 73 64 0c be
       0.056308217 0.19443606 -0.0016914502 -0.13710193
000070 0a 07 6e 3b 8e 63 e8 3b 45 15 36 3e d4 e1 c4 3c
       0.0036320114 0.007091946 0.17781551 0.024033464
000080 2a ca 46 bd 73 ca a7 bd 48 85 7c be 7e 03 92 bd
       -0.048532642 -0.08192911 -0.24660218 -0.07129572
000090 86 21 f5 bd 9a 50 81 bd b6 89 bd bc 92 4b e4 ba
       -0.11969285 -0.06314202 -0.023136955 -0.0017417541
0000a0 7c ab c9 3d fd 1d 22 3d f5 aa cc bd 3d e8 08 3d
       0.09847161 0.03957938 -0.09993545 0.033424605
0000b0 5a 9f 34 3e 4a 1e be 3d 2d df 55 3c 48 ec cd bd
       0.17638913 0.09283121 0.0130536975 -0.10054833
0000c0 eb d7 84 bd 1f 7e b7 bd 0e 55 35 be c4 da 88 bd
       -0.064864956 -0.089596026 -0.17708227 -0.06682351
0000d0 46 33 1e bd 9b e5 d5 3d 01 01 0f 3e a4 78 4c be
       -0.038623117 0.104441844 0.13965227 -0.19967896
0000e0 38 f6 85 bc b2 a7 cc bd 11 ae 69 3e 9f 88 62 be
       -0.016352758 -0.09992923 0.22820307 -0.2212243
0000f0 c3 0d 43 3e 7d 79 b7 3d 30 74 89 bd b9 b0 07 be
       0.19048218 0.08958719 -0.06711614 -0.13251008
000100 7c a3 80 3d 10 00 1e 3e c5 b9 49 3c b4 94 0a 3e
       0.06281182 0.15429711 0.012312357 0.13533288
000110 8e 0f 2c 3e cf cf aa 3d 87 ad c5 3d 0a 67 f0 bd
       0.16802809 0.083404176 0.09652238 -0.11738403
000120 b9 14 ae 3d 38 24 42 3e 6d db f5 bd a1 ec 91 bd
       0.08500046 0.18959129 -0.12004743 -0.071252115
000130 5c b8 13 3d 98 61 b1 3d 9b 1a a8 bc 3d 85 23 3d
       0.03606449 0.08661193 -0.020520499 0.039921988
000140 24 5e 8d be 0e a7 4a be cc cd 8d be 1a c4 22 3d
       -0.27610886 -0.19790289 -0.27696073 0.0397378
000150 be 94 12 be 36 25 e6 bd 25 5c ec bd af 68 7f bb
       -0.14314553 -0.11237566 -0.11541013 -0.0038972308
000160 71 68 e0 bd d7 8e 3b 3e ef 66 f2 3d 5b 40 d4 3d
       -0.109574206 0.18316208 0.11836039 0.10363837
000170 b8 fb 6b bc c3 cf 0f 3e c0 3b ae ba ea 1d 63 bc
       -0.014403276 0.14044099 -0.0013292953 -0.013862113
000180 77 7e 0a 3e be f0 a9 3d d0 79 2e be 25 21 08 3e
       0.13524805 0.08297871 -0.17038655 0.13293894
000190 72 68 99 be a7 15 89 be 81 ac 57 be 0f 2b dd 3c
       -0.29962498 -0.26774332 -0.21061899 0.026998071
0001a0 70 73 81 3d b3 78 20 be 26 e1 51 3e 09 e4 ad bc
       0.06320846 -0.15671043 0.20496044 -0.0212269
0001b0 15 85 4d 3e a4 37 76 3e 71 57 09 be e4 79 27 3d
       0.20070298 0.24044663 -0.13412262 0.04088773
0001c0 c3 a8 e1 bc b5 20 2a be cc af bd 3b 96 cd 0d 3c
       -0.027546292 -0.16614039 0.005788779 0.008654973
0001d0 ad a5 cd bd 40 1c ae bc 0a 98 97 bd 48 c5 20 be
       -0.10041366 -0.021253705 -0.07402046 -0.15700257
0001e0 ff 9d 62 3e 26 48 b1 3c d2 6c 5e 3e 5c 3b bb bd
       0.22130583 0.021640848 0.21721199 -0.09142181
0001f0 42 7e 86 3d 49 7d aa bd 1d c7 b6 bd d0 e3 98 3d
       0.065670505 -0.083246775 -0.089246966 0.07465327
000200 53 da 20 3e 50 c1 7b be 48 a1 81 3e 0b cf df 3d
       0.15708284 -0.24585462 0.2531836 0.10928162
000210 4d bf d8 bd 29 d1 0c bd ca 4c 3e be d7 94 1b bd
       -0.10583363 -0.03437916 -0.1858398 -0.03798374
000220 a6 52 4e 3e bf 6b 08 3d 8e b5 96 bd 58 35 b7 3c
       0.20148715 0.03330588 -0.073588476 0.022364303
000230 30 d7 f9 ba 4b c9 8c 3e fb dc 93 3d 8b 94 23 3e
       -0.0019061323 0.27497324 0.07219883 0.15974633
000240 64 3d 16 3d 93 f3 29 be b0 9a 44 be 14 03 6e 3e
       0.03667964 -0.16596822 -0.19199634 0.23243362
000250 71 4f 99 3e 13 fb e4 3d ed 48 35 3e 09 2a 83 3e
       0.2994342 0.11180701 0.177036 0.25618008
000260 39 40 f4 b9 ee 72 0e be 5f 9a d7 bd 37 f4 b5 3e
       -0.00046587156 -0.1391103 -0.10527491 0.35537884
000270 c9 c9 27 3d ad 71 82 3e 19 d9 88 bd bf e8 34 3e
       0.04096392 0.25477353 -0.06682033 0.1766691
000280 07 67 6a 3b c6 77 d3 bc 5a a5 96 3d 51 e6 87 bc
       0.0035766975 -0.025813948 0.07355757 -0.016589316
000290 f0 56 8b be 2d 26 b9 bd 6d 52 1d be 06 c4 48 3d
       -0.27214766 -0.090404846 -0.15363474 0.049015068
0002a0 a5 0d 30 be cc 95 c3 bd dc 91 5a 3e b3 ab 74 bd
       -0.17192705 -0.09550056 0.21344703 -0.059734058
0002b0 f7 0c 1e 3e 44 8f 28 3e bf e8 54 be 21 bb 21 3e
       0.15434633 0.16460901 -0.2079191 0.1579404
0002c0 09 3b cb 3d 3a c2 43 be 17 41 32 3e 36 91 65 bd
       0.099233694 -0.1911706 0.17407642 -0.056046687
0002d0 e3 73 17 bc 87 d8 2a 3d b0 b8 99 bd cc 7b 95 3d
       -0.009243938 0.041710403 -0.075059295 0.07299003
0002e0 b6 5f 9d 3d f3 7a 6b 3e 6f 22 1f 3d 03 39 35 be
       0.07684271 0.2299612 0.038851198 -0.1769753
0002f0 e3 fd 8b be 58 cf 03 3d 85 40 09 be 82 5e 35 3e
       -0.27342138 0.03218016 -0.13403518 0.17711833
000300 81 cf a5 3d 96 9c e6 bd 46 67 7d be c4 a2 d7 bd
       0.08096219 -0.11260335 -0.24746427 -0.10529092
000310 73 f6 75 3e f6 38 d0 3d 4f ab a8 3d 9a ea d2 bd
       0.24019794 0.101671144 0.082357995 -0.10298653
000320 43 03 14 bd a6 e3 7c 3e 85 19 33 be 18 07 bb 3d
       -0.036135923 0.24696216 -0.17490204 0.091322124
000330 9e 2b 03 3e 1b e4 7c be b4 fa 40 3e 9a ef 40 be
       0.12809607 -0.2469639 0.18845636 -0.188414
000340 53 41 50 ba 06 7f 62 3d 38 7b 98 bb 23 bf db 3c
       -0.00079443044 0.05529692 -0.0046533607 0.02682454
000350 88 82 05 3e 9d 7c 57 be bc 21 d4 3d 83 12 24 be
       0.13038075 -0.2104363 0.10357997 -0.16022687
000360 d1 33 2e 3e 7c 44 b4 3d 9e 82 3f 3d 90 3f e8 bc
       0.17011954 0.08802125 0.046755426 -0.028350621
000370 45 76 41 3e 3a 76 98 3d b7 f9 95 3e cb 7c 1f be
       0.18892772 0.07444425 0.2929208 -0.15574948
000380 c3 07 1d 3e 2c 8d 6a 3d f8 bc c1 bd 11 40 36 be
       0.15334992 0.05726354 -0.09459871 -0.17797877
000390 ce 6b 8d be 64 6a b3 3d 1d d6 85 bd 17 1a 4b be
       -0.2762131 0.08760527 -0.065349795 -0.19834171
0003a0 58 2a bb bd ba d5 6d 3b ea ba 3b 3e 4d 0b 08 3e
       -0.09138936 0.003629072 0.18333021 0.13285561
0003b0 ec e7 97 3d eb fe 04 3d 6d 26 43 bc a1 a6 41 3e
       0.074172825 0.03246967 -0.011911017 0.1891122
0003c0 d6 aa 16 3d 30 35 0a be aa 9b 4b 3e 81 92 88 bd
       0.036784016 -0.13496852 0.198836 -0.066685684
0003d0 cc b5 80 be b0 12 18 3e 7a 02 a6 bd 19 a3 00 3e
       -0.251387 0.14850879 -0.08105941 0.12562217
0003e0 9d bd bc 3c a4 c5 58 3e ef 19 05 3e 4c 71 2c be
       0.023039633 0.21169144 0.12998174 -0.16840094
0003f0 ea 37 45 be d8 7b 39 be 19 cf 98 bd b6 c3 3f 3c
       -0.19259611 -0.18113649 -0.07461376 0.011704376

encoder.egnn.layers.0.edge_mlp.2.bias f4 [32]
000000 e4 21 be bd ec 7a d3 bd 0e 21 5a 3d 74 ad 4b bd
       -0.09283808 -0.1032618 0.05325418 -0.049725965
000010 84 14 9b 3d 60 9a 2d 3d dd 65 52 3b 51 0f d5 bd
       0.075722724 0.04238355 0.0032104172 -0.10403312
000020 f5 c2 32 3e 15 7b 71 3d ea 1f 0d bd 26 70 01 bd
       0.17457183 0.05895527 -0.034454264 -0.031601094
000030 16 64 15 3c 4c 7f 8f bd b8 05 53 3d d2 12 6a bd
       0.009118101 -0.07006702 0.051519126 -0.057146855
000040 65 64 1c bd f9 fa cc bc 80 69 d4 bd 1a db a5 3d
       -0.03818168 -0.025022017 -0.10371685 0.08098431
000050 4f 19 26 3e 00 c6 fb bd 91 b0 66 3c 88 d1 93 3d
       0.16220592 -0.12293625 0.014080183 0.07217699
000060 f6 4b 01 bd ce 86 71 3d 85 4d 0f be 5b 64 17 3e
       -0.031566583 0.05896645 -0.13994415 0.14784376
000070 85 12 a6 3d 85 e9 9c 3d 32 47 33 be 62 f5 e4 3b
       0.08109001 0.07661728 -0.17507628 0.0069872597

encoder.egnn.layers.0.node_mlp.0.weight f4 [32, 48]
000000 d5 eb 69 3d 8d 49 2d 3d 10 04 46 be 69 4e ed bd
       0.057109673 0.04230647 -0.19337487 -0.11587221
000010 e1 8b 81 3d b3 dc 09 be 3c 9e 37 be 1f b7 1a 3d
       0.06325508 -0.13463096 -0.17931455 0.037772294
000020 9e c7 db bd 1a 0a b1 bd 05 5b 2d be 39 76 94 3d
       -0.10731433 -0.08644505 -0.16929252 0.07249112
000030 81 7e 7e 3d 6e 2c 65 be 99 51 cc bd 34 af 2e bc
       0.062132362 -0.2238023 -0.09976501 -0.010661889
000040 aa c3 53 bd 47 df 4d 3d d8 8c a9 bd 08 c0 14 3e
       -0.05170027 0.050261762 -0.08278817 0.14526379
000050 a9 72 f1 bd ac bd 46 3d 9f 6b 0d be 59 de ad bc
       -0.11789448 0.04852073 -0.13810585 -0.021224188
000060 1c bf d5 bd fe 3f 5e 3e 77 5c fb bd ec a6 7e 3d
       -0.10436842 0.21704099 -0.12273496 0.062170908
000070 fd c7 33 be b9 a8 26 3d 24 f7 64 3e 83 03 fc 3d
       -0.17556758 0.04068825 0.22359902 0.12305357
000080 ea ec 12 be b0 c1 0b be 16 81 b0 bd a4 2b a7 bd
       -0.14348188 -0.13648105 -0.08618371 -0.08162621
000090 1e de 89 3e 78 7f 26 be 84 0b a5 3d a5 14 31 3d
       0.26927274 -0.16259563 0.08058837 0.04323258
0000a0 58 69 5c bd 58 ed a5 3c 79 70 3d 3e 95 7d 23 bd
       -0.0538114 0.020254776 0.18499936 -0.039914686
0000b0 9e c0 0c 3d 82 55 23 3e 43 dd d4 3d bd 04 a4 bd
       0.03436338 0.15950587 0.10393765 -0.08008716
0000c0 8a 1a 16 be 88 1f dd 3d da 90 ed 3d 47 af 13 be
       -0.14658561 0.1079703 0.11599894 -0.14422332
0000d0 18 eb 5f 3b 6a ed 32 bc 62 b9 2f be fd 32 cf bd
       0.0034167226 -0.010920862 -0.17160562 -0.10117147
0000e0 0c 37 e6 bc ac 0d 4c bd a8 75 c7 bc 4b 42 26 bb
       -0.02810242 -0.049817726 -0.024348095 -0.0025369104
0000f0 77 33 e6 3d b3 a9 2e 3e 4a e5 e9 3d 57 65 60 bc
       0.11240285 0.17056923 0.114206865 -0.013696036
000100 5a ec 21 3e da a8 30 bb 15 cb f1 bd 2c a5 db 3c
       0.15812817 -0.0026956112 -0.11806313 0.026812159
000110 31 96 58 be 76 9c 40 bd 7f 74 5e 3c d8 1e d7 3d
       -0.21151043 -0.047024213 0.0135775795 0.1050393
000120 8d 3d 34 be 18 7c 5a bd 39 33 0b 3e f5 8a e0 3c
       -0.17601605 -0.053341 0.13593759 0.02741001
000130 c3 39 41 3d 23 0e bd bd db 3f f6 bd 56 01 5a bc
       0.047174226 -0.09231212 -0.12023898 -0.013305983
000140 48 c7 d6 3d 74 b6 26 3e 97 43 f5 3d b5 8d da bd
       0.10487229 0.16280538 0.11975782 -0.1067156
000150 ac a0 de bd 15 17 d2 bd 0e b6 25 3d 0e 0b 2f 3e
       -0.108704895 -0.10258309 0.040456824 0.17094061
000160 b0 0e 4b 3d df 44 96 bd 0e ce 30 bd 5b 4c f0 bd
       0.049574554 -0.07337355 -0.04316526 -0.11733314
000170 fb 17 72 3d 6e 68 2c 3e 39 a2 4a 3d ee fc 3f be
       0.0591049 0.16836712 0.049471114 -0.18748829
000180 e4 97 2a be d8 0e 1f 3e 52 8f 27 3e 11 d7 96 bc
       -0.16659504 0.15533006 0.16363266 -0.018413099
000190 b2 9c 76 3e 17 ef 98 3d 73 4b c1 3d 0c 91 c1 bd
       0.24083212 0.07467478 0.09438219 -0.094514936
0001a0 74 87 59 3e 2b 54 09 bd 52 2f 12 3e 5a 94 56 3d
       0.21243078 -0.033527534 0.14275864 0.052387573
0001b0 a7 2f 17 3e 32 f5 fc 3d fa 1e 46 3b 97 c0 6b 3d
       0.14764272 0.12351455 0.0030230866 0.057556715
0001c0 83 4b 00 be 26 e7 45 bd 3f bb c3 bb 24 df 8a be
       -0.12528805 -0.048316143 -0.005973249 -0.27123368
0001d0 a1 b3 88 3d a8 a4 94 be e1 db 84 bd c5 6c 06 bd
       0.066748865 -0.29031873 -0.06487251 -0.032818574
0001e0 ad 93 29 3d 91 37 b9 3c 35 77 65 bd 1f f7 41 bd
       0.0414006 0.022609504 -0.056021888 -0.047354814
0001f0 50 04 65 bd bc 09 c9 bd 75 42 2a 3e c7 96 d3 bd
       -0.055912316 -0.0981631 0.16626914 -0.10331493
000200 17 09 43 3e 8c 50 35 bd d8 dc 22 3e 4f 9c 80 be
       0.19046436 -0.04426627 0.15904558 -0.25119254
000210 67 26 30 bd 8d 75 37 bd bf 6d 06 be 7f 1f b2 bd
       -0.043005373 -0.04478984 -0.13127802 -0.08697414
000220 35 05 0e be b4 fe 82 be 0d 2a 4c bd 26 3a 2d be
       -0.13869174 -0.25584948 -0.04984479 -0.16916713
000230 bf f0 d2 3d 98 c8 fe bc 3a b1 b6 3d a9 96 15 bd
       0.10299825 -0.03110151 0.08920522 -0.036520634
000240 f7 a9 04 be e3 6d 9e 3d 3b b4 85 3c cd a4 79 bd
       -0.12955461 0.07735803 0.016321292 -0.060948182
000250 ab 8e 76 3d 67 9c 38 bd 5e 3d a5 bd fb d8 30 bc
       0.060194653 -0.045071032 -0.080683455 -0.01079392
000260 2b 32 ff 3d 1c de 3b 3d 60 bf 22 3e 66 af ad 3d
       0.12460741 0.045866117 0.15893316 0.0848072
000270 05 18 f3 3d a4 97 99 3d 77 9d 92 3d 4a 59 3e 3d
       0.11869816 0.07499626 0.0715894 0.04647187
000280 4f 0b 1e 3e af 00 c6 3d de 88 a1 bc 4c ed d5 bc
       0.15434001 0.09668099 -0.019718584 -0.026114129
000290 83 f5 b3 bd e7 90 99 3d b5 04 6a bc 8f 53 e8 3d
       -0.08787062 0.07498341 -0.014283349 0.113440625
0002a0 19 62 f7 bd d0 f5 a5 3d 25 ce f9 3d bb 13 4c 3d
       -0.120792575 0.08103526 0.12197522 0.049823504
0002b0 c0 a3 35 3d 95 30 ad bc cd d5 1f bd 48 f1 37 be
       0.044345617 -0.02114133 -0.039022256 -0.17963135
0002c0 23 db e4 bd 60 d6 f8 bd 72 2d b7 bd d0 47 41 bd
       -0.111746095 -0.12150264 -0.08944215 -0.047187626
0002d0 b7 12 3a bd b5 19 6d bc ab 37 c0 3d 5e fd 08 bd
       -0.045428004 -0.014471461 0.09385618 -0.033444755
0002e0 88 5a 2e be a6 4f 0f be 5b c4 0c 3e 33 7c ac bd
       -0.17026722 -0.13995227 0.13746779 -0.084221266
0002f0 ef 0e 62 3d e4 6b c5 3d e0 1d 8a 3c 84 9d 19 3e
       0.055190023 0.09639719 0.016859949 0.15001494
000300 82 66 1e 3d 54 9c 78 bd b1 ab ac 3c e6 58 6d bc
       0.038671978 -0.06069596 0.021077963 -0.014486527
000310 39 3e ce 3c b0 1f da bd fc c2 56 bd ac 95 9b bd
       0.025176154 -0.10650575 -0.052432045 -0.07596907
000320 e8 85 b0 bd 26 06 26 bc b1 d7 83 3d bb a7 59 3c
       -0.086192906 -0.010133302 0.06437624 0.013284619
000330 a4 57 23 bd 68 0c 13 be e1 e4 0e 3e 3a 88 c8 bd
       -0.039878502 -0.14360201 0.13954498 -0.09791608
000340 58 a4 ad 3d ad ae 6e 3d b6 b7 50 3d 2c a7 cf bd
       0.08478612 0.058272053 0.05095645 -0.101393074
000350 fb da fd 3d c3 ce 61 bd e7 b4 31 bc b8 88 50 be
       0.12395283 -0.055128824 -0.010846353 -0.20364654
000360 85 90 62 3d 14 2c d6 bd 4a c5 97 be 3a 14 f2 3c
       0.055313606 -0.10457626 -0.29642707 0.02955066
000370 45 9a 00 3e 6a a0 55 3e 61 73 51 bd 2a 5c 1e be
       0.12558849 0.20861974 -0.051135425 -0.15464845
000380 48 fc 51 be ce 34 4b 3c ae cc 3a 3e 22 d1 34 be
       -0.20506394 0.012402726 0.18242142 -0.17657903
000390 38 80 a8 bc 02 f5 f7 3d c2 1c e6 bd ef 9d 33 bd
       -0.020568952 0.121072784 -0.11235954 -0.04385179
0003a0 3a c8 79 3d fe 80 01 be 63 47 a8 3d 9e af f9 bc
       0.060981967 -0.12646863 0.08216741 -0.030479249
0003b0 8d 8d 1b 3e 25 0e ea 3d 65 13 be bd 53 e2 c8 3d
       0.15190716 0.11428479 -0.09281043 0.09808793
0003c0 aa 82 1b 3e ff 81 53 be 23 46 20 bd 46 a4 53 be
       0.15186563 -0.20655058 -0.039129388 -0.20668134
0003d0 73 23 70 bd 95 66 30 3d a7 df 38 bd 83 76 ad bd
       -0.058627557 0.04306658 -0.045135166 -0.0846987
0003e0 65 17 87 3e 8e 92 9b bd 67 9f e5 3d 21 4e 0e bc
       0.26385036 -0.075963125 0.11212044 -0.00868562
0003f0 db 9c fd 3d 60 ba 08 be 17 e6 04 be 51 05 ca 3d
       0.123834334 -0.13352346 -0.12978397 0.09864295

encoder.egnn.layers.0.node_mlp.0.bias f4 [32]
000000 f5 4c a1 3c dd 88 c8 bd 6d 4b b2 bd 8a c9 c3 be
       0.019690016 -0.097917296 -0.087057926 -0.382397
000010 b4 c7 1b bd 37 89 15 3e 4c f3 4b be 25 f2 7e bd
       -0.03803225 0.14603125 -0.19917029 -0.062242646
000020 ec 75 64 be cb 4f 08 3e a6 24 76 bd a3 07 3c 3e
       -0.22310609 0.13311689 -0.060093544 0.18362288
000030 10 71 27 be 94 11 b2 bd 1d 6e ba bd a5 d6 27 3e
       -0.16351724 -0.08694759 -0.09103034 0.16390474
000040 bc 6d 9b 3d b3 75 51 3b fa e9 a7 bd 3c 3b 9b bd
       0.075892895 0.0031961023 -0.08198924 -0.075796574
000050 a0 d0 25 3e 53 1b 7f 3e e3 4e cd bd fc 94 3e bd
       0.16192865 0.24912767 -0.10024812 -0.0465288
000060 74 2d 11 3e 39 f5 13 3e fc 50 f7 bc 6d b0 3c bd
       0.14177495 0.14449014 -0.030189984 -0.04606669
000070 d3 d4 17 be bf ee 88 3c a2 ba a6 bb 4e 9c d8 3c
       -0.1482728 0.016715406 -0.0050881663 0.02644172

encoder.egnn.layers.0.node_mlp.2.weight f4 [16, 32]
000000 40 ca 57 3d 8b 67 3d be c1 37 55 be 85 e7 43 bd
       0.052683115 -0.1849653 -0.2082205 -0.047828216
000010 32 02 94 3d 73 ae 10 be 03 0c c5 3d 29 f9 12 be
       0.07226981 -0.14129047 0.09621432 -0.1435286
000020 1e 4f a3 3d d0 fb 4d 3d bb 4e f8 3c 25 c3 2a be
       0.07974075 0.050288975 0.03031098 -0.16676004
000030 ee 91 ba bd 15 c0 cd bd 77 4c 02 be 6a c4 28 3d
       -0.09109865 -0.10046402 -0.12724482 0.04120294
000040 d4 36 3a 3d 08 e1 33 3e 01 41 0c 3e dd dc de 3d
       0.045462444 0.17566311 0.13696672 0.1088197
000050 8f 49 07 be e1 84 5d be 7d 6c 00 bd 30 90 ca 3d
       -0.13211654 -0.2163272 -0.031353462 0.09890783
000060 e0 5c 58 b7 cf d0 4c be ae 36 f7 3d b7 f5 fb 3c
       -1.2896227e-05 -0.20001529 0.12070976 0.030756814
000070 ea 0d 0f 3e 9d 0f 25 be f4 a7 02 bd eb 26 fd 3d
       0.13970152 -0.16119237 -0.031898454 0.12360939
000080 f4 7b 48 3e 9a c8 c3 bc a8 9f a0 3d 26 7b 57 3e
       0.19578534 -0.023899365 0.07842952 0.21043071
000090 a5 46 a0 3d a8 54 ad bc 20 4d ea bd 52 cb 1c 3e
       0.078259744 -0.021158531 -0.11440492 0.15311936
0000a0 35 2c 1f 3d df a4 11 be b9 17 c5 bd 53 56 1a 3c
       0.03886052 -0.1422305 -0.09623665 0.009419995
0000b0 43 9b 4b be 75 dd 89 bd 9f c6 fd 3c a5 3b c8 3d
       -0.19883446 -0.06731693 0.030978499 0.09777001
0000c0 5d 0f 17 3e a8 3c 35 be 36 24 1e 3e 3b 83 10 bd
       0.14751954 -0.1769892 0.15443501 -0.0352814
0000d0 53 00 b8 3d b1 02 89 bd 99 cb 78 3b 77 c2 0b 3e
       0.08984437 -0.066899665 0.003796315 0.13648401
0000e0 5b 31 84 3d bd 06 7b 3d ec 84 12 3e ae 42 99 bc
       0.06454726 0.061285723 0.14308518 -0.018708553
0000f0 5c 06 1d be 4b 5b 09 3e 19 1f 75 be 6c 2d be bd
       -0.15334457 0.13413732 -0.23937644 -0.09286007
000100 ce 72 a7 3a 3a a2 89 be ce cf fd 3d 6b ba 08 be
       0.0012775303 -0.26881582 0.12393151 -0.13352363
000110 d0 09 be 3d 3e 2f 72 3d c7 f0 95 bd 7d 75 b2 bd
       0.09279215 0.059127085 -0.07321315 -0.08713815
000120 60 85 00 bd ea fa aa 3e 0c b3 36 bd 97 75 ae 3d
       -0.031377196 0.33394557 -0.044604346 0.08518522
000130 c3 d4 36 bd 7f 87 89 bd 43 be 1c be d0 7d 5a be
       -0.0446365 -0.06715297 -0.15306954 -0.21337056
000140 be 06 86 3d 09 e3 56 be 97 10 eb 3d 8e b4 29 be
       0.06544255 -0.20985045 0.11477774 -0.16572782
000150 f4 da 70 3d 8e 03 7f be e7 2d a5 bd 30 83 d5 bd
       0.05880256 -0.249037 -0.08065396 -0.10425413
000160 47 c2 33 be 41 d7 79 bd 74 6c 4a be 59 ee c8 3d
       -0.1755458 -0.060996298 -0.19767934 0.09811086
000170 4f dc 1e 3d 81 57 c2 3b 2e 40 b1 3c 55 a8 1c be
       0.03878432 0.0059308414 0.021637049 -0.15298589
000180 0e e8 a0 3d 6a 61 68 3e 24 31 ac 3e 44 72 79 3b
       0.07856761 0.2269341 0.3363124 0.0038062492
000190 f9 c8 6c bd 21 46 b6 3d de fa 12 3e a5 42 8d bd
       -0.05780885 0.08900095 0.1435351 -0.06897477
0001a0 ad c3 a0 3d 8e f6 ea bd ec 5a 12 3e f0 07 dc 3d
       0.07849822 -0.11472808 0.14292496 0.107437015
0001b0 88 6c c8 bd 5a 6e e4 3c f0 53 00 3e 92 44 5b bd
       -0.09786326 0.027884651 0.1253202 -0.05353219
0001c0 bf 9a 06 3e 47 9f 08 3d e2 b8 9f 3d e9 10 cd bd
       0.13144968 0.033355024 0.077989355 -0.10012991
0001d0 5d 68 17 be 8c eb 36 3e d5 3f d4 3d be 14 f7 bd
       -0.14785905 0.17863292 0.103637375 -0.12064503
0001e0 3c 20 b4 3d 4c 29 a6 bc 83 15 cd bd e0 55 41 3d
       0.08795211 -0.020283364 -0.10013869 0.047201037
0001f0 c4 63 53 bd 6f 66 11 3e bc a5 3f be ac e2 06 be
       -0.051608816 0.14199232 -0.18715566 -0.13172406
000200 ce 2b 5b be 00 d5 4f bd b5 42 3b 3e 82 76 00 3e
       -0.21403429 -0.050740242 0.18287165 0.12545207
000210 3a 37 61 3d b4 60 60 bd a1 62 82 3d 85 58 0b 3d
       0.05498431 -0.054779723 0.06366468 0.034019966
000220 79 eb dc 3c 42 2c a9 be 56 55 0d 3e e4 8f 29 3e
       0.02696775 -0.3304158 0.13802084 0.16558796
000230 4b 9a 85 3d 86 77 95 be d5 77 43 3c 60 33 a6 be
       0.0652357 -0.29192752 0.011930426 -0.3246107
000240 f1 8e 4d 3e ca 8f 9f bd 90 4f 6d 3e 02 1c 25 3e
       0.20074059 -0.077910975 0.23174882 0.16123965
000250 24 0d d3 3c 9c 8e b8 3c f3 18 d2 bd 1a 79 9c 3d
       0.025763102 0.022528939 -0.10258665 0.07640286
000260 18 a5 ea 3d 5b 28 d3 3d 87 5b f8 3d d5 ff 47 3e
       0.114572704 0.103104316 0.121268325 0.19531186
000270 d6 e0 af bd 36 97 f5 bc 66 20 7b 3d f0 6a 93 bd
       -0.08587806 -0.02997933 0.061310194 -0.07198131
000280 92 a6 69 3e d7 46 7e 3d ad af a9 3d 2c 97 e2 bb
       0.22817448 0.062079277 0.082854606 -0.0069149937
000290 9a 74 48 be 40 5f 59 be 27 a6 8d 3e aa 7b 8a bc
       -0.1957573 -0.21227741 0.27665827 -0.01690467
0002a0 ee 24 2c be 85 26 51 be 67 29 04 be 5e be cb ba
       -0.16810963 -0.2042485 -0.12906419 -0.0015544405
0002b0 f4 bd 14 3e 20 01 4e ba 8a 1e 0d be 50 f6 74 be
       0.14525586 -0.0007858444 -0.13781181 -0.23922086
0002c0 ef d2 a0 3e eb 29 0a be f1 7f 00 be aa 1d 2e 3e
       0.3141093 -0.13492553 -0.12548806 0.17003503
0002d0 3e e2 08 be 82 d6 5c 3d f9 e6 1b be c1 e3 da bd
       -0.13367555 0.053915508 -0.15224828 -0.10687972
0002e0 81 75 80 3d 25 ac ad 3d d0 d3 90 bc e9 82 34 bd
       0.06272412 0.084800996 -0.017679125 -0.04407016
0002f0 d6 46 1a 3e 2b 79 f8 bd 13 3e e0 bd 2f ec 8e bc
       0.15066084 -0.12132486 -0.1094934 -0.017446605
000300 d9 2a 5d bd dd c4 0b 3e e5 75 30 be a3 60 0c be
       -0.05399594 0.13649316 -0.17232473 -0.13708739
000310 5f 58 03 3e f6 4b cf 3c a6 6c 0b be 0b 4a d6 bd
       0.1282668 0.025304776 -0.13615665 -0.10463341
000320 49 7a e2 bd d9 fa 2e be a4 3d 8a 3e 5a 8b d5 bd
       -0.1105848 -0.17087878 0.27000153 -0.1042697
000330 34 a8 d8 3c 72 b6 b2 bd 13 44 5c be 5d f7 a1 3d
       0.026447393 -0.08726205 -0.21510343 0.07908509
000340 c2 0f 00 3e cb 87 8d bd 1a 84 73 3e f9 c0 c8 bd
       0.12506011 -0.06910666 0.23780861 -0.098024316
000350 f5 99 13 3e 54 d2 36 3e 14 cd 8e 3d 6d 51 10 3d
       0.14414199 0.17853671 0.06972709 0.035233904
000360 47 8d df 3d a3 68 f2 3d 12 4f 16 bb b9 60 83 bd
       0.109156184 0.11836364 -0.0022935313 -0.06414933
000370 05 7f 84 3c 20 b4 de 3d a6 05 74 be f1 74 02 be
       0.016173849 0.108742 -0.2383028 -0.12739922
000380 99 99 44 3d 76 42 43 3e f8 f2 49 3e 50 6d 6b bd
       0.047998045 0.19068322 0.19721591 -0.057477295
000390 5d 7a 44 3e 1f 4d 80 3c 35 11 45 3e d5 f0 ba 3d
       0.19187303 0.015661774 0.19244845 0.09127966
0003a0 58 09 c9 3d c1 25 12 be d3 85 8d bd 56 28 ee 3d
       0.09816235 -0.14272214 -0.069102906 0.11628787
0003b0 28 3e f1 bd 82 8b cd 3c a2 07 53 bd 07 3c 0e 3d
       -0.117794335 0.025090937 -0.05152095 0.034725215
0003c0 be 70 4c bd c6 52 de 3d 37 95 1b be bf 28 2b be
       -0.049912207 0.108556315 -0.1519364 -0.16714762
0003d0 95 a2 fb 3d 08 5e d4 3d 6b 5a d7 3d 20 de 76 bc
       0.122868694 0.103694975 0.10515293 -0.015067607
0003e0 32 ae ce bd fb 40 3a be 05 e4 b2 bd 8b 9e 11 be
       -0.10091819 -0.1818885 -0.087348975 -0.14220636
0003f0 5d 48 4e be ff c8 b6 bc 7b f5 ae 3d 8f 6b 0f be
       -0.20144792 -0.02231264 0.085429154 -0.14005874

encoder.egnn.layers.0.node_mlp.2.bias f4 [16]
000000 cc 76 47 b5 a9 6c 1e 35 5e f6 6a 36 6a 20 33 b5
       -7.430615e-07 5.901771e-07 3.5012122e-06 -6.6729865e-07
000010 ea 15 4a 34 e6 30 06 b7 1f 5b 23 37 3f 9b b8 36
       1.8820688e-07 -7.998407e-06 9.736773e-06 5.5017003e-06
000020 9e 81 56 b7 b8 c2 03 36 5a fe ae 36 57 7c 40 37
       -1.2785573e-05 1.9633862e-06 5.2152145e-06 1.1473042e-05
000030 bf 71 2d 37 62 2d 02 b6 ba 39 5e b7 91 69 d9 36
       1.0338087e-05 -1.9397926e-06 -1.3245672e-05 6.4793935e-06
