log/geometric_graph/torus/checkpoints/last_model.ckpt (torch, 104850 bytes, 35 tensors)

target_coord f4 [256, 3]
1.2792042 4.3271783e-17 1.4142135 1.1818306 0.4895303 1.4142135 0.90453404 0.90453404
1.4142135 0.4895303 1.1818306 1.4142135 1.4933878e-16 1.2792042 1.4142135 -0.4895303
1.1818306 1.4142135 -0.90453404 0.90453404 1.4142135 -1.1818306 0.4895303 1.4142135
-1.2792042 1.9992913e-16 1.4142135 -1.1818306 -0.4895303 1.4142135 -0.90453404 -0.90453404
1.4142135 -0.4895303 -1.1818306 1.4142135 -1.6397592e-16 -1.2792042 1.4142135 0.4895303
-1.1818306 1.4142135 0.90453404 -0.90453404 1.4142135 1.1818306 -0.4895303 1.4142135
1.6055578 4.3271783e-17 1.306563 1.483342 0.61442035 1.306563 1.1353009 1.1353009
1.306563 0.61442035 1.483342 1.306563 1.6932216e-16 1.6055578 1.306563 -0.61442035
1.483342 1.306563 -1.1353009 1.1353009 1.306563 -1.483342 0.61442035 1.306563
-1.6055578 2.398959e-16 1.306563 -1.483342 -0.61442035 1.306563 -1.1353009 -1.1353009
1.306563 -0.61442035 -1.483342 1.306563 -2.2392608e-16 -1.6055578 1.306563 0.61442035
-1.483342 1.306563 1.1353009 -1.1353009 1.306563 1.483342 -0.61442035 1.306563
1.882227 4.3271783e-17 1.0 1.738951 0.7202971 1.0 1.3309355 1.3309355
1.0 0.7202971 1.738951 1.0 1.8626326e-16 1.882227 1.0 -0.7202971
1.738951 1.0 -1.3309355 1.3309355 1.0 -1.738951 0.7202971 1.0
-1.882227 2.737781e-16 1.0 -1.738951 -0.7202971 1.0 -1.3309355 -1.3309355
1.0 -0.7202971 -1.738951 1.0 -2.7474938e-16 -1.882227 1.0 0.7202971
-1.738951 1.0 1.3309355 -1.3309355 1.0 1.738951 -0.7202971 1.0
2.0670915 4.3271783e-17 0.5411961 1.9097434 0.7910416 0.5411961 1.4616543 1.4616543
0.5411961 0.7910416 1.9097434 0.5411961 1.9758294e-16 2.0670915 0.5411961 -0.7910416
1.9097434 0.5411961 -1.4616543 1.4616543 0.5411961 -1.9097434 0.7910416 0.5411961
-2.0670915 2.9641746e-16 0.5411961 -1.9097434 -0.7910416 0.5411961 -1.4616543 -1.4616543
0.5411961 -0.7910416 -1.9097434 0.5411961 -3.0870844e-16 -2.0670915 0.5411961 0.7910416
-1.9097434 0.5411961 1.4616543 -1.4616543 0.5411961 1.9097434 -0.7910416 0.5411961
2.1320071 4.3271783e-17 9.3955416e-17 1.9697177 0.8158838 9.3955416e-17 1.5075567 1.5075567
9.3955416e-17 0.8158838 1.9697177 9.3955416e-17 2.015579e-16 2.1320071 9.3955416e-17 -0.8158838
1.9697177 9.3955416e-17 -1.5075567 1.5075567 9.3955416e-17 -1.9697177 0.8158838 9.3955416e-17
-2.1320071 3.0436737e-16 9.3955416e-17 -1.9697177 -0.8158838 9.3955416e-17 -1.5075567 -1.5075567
9.3955416e-17 -0.8158838 -1.9697177 9.3955416e-17 -3.2063326e-16 -2.1320071 9.3955416e-17 0.8158838
-1.9697177 9.3955416e-17 1.5075567 -1.5075567 9.3955416e-17 1.9697177 -0.8158838 9.3955416e-17
2.0670915 4.3271783e-17 -0.5411961 1.9097434 0.7910416 -0.5411961 1.4616543 1.4616543
-0.5411961 0.7910416 1.9097434 -0.5411961 1.9758294e-16 2.0670915 -0.5411961 -0.7910416
00000000: f7bc a33f 4e8e 4724 f304 b53f 3a46 973f
00000010: b7a3 fa3e f304 b53f 8b8f 673f 8b8f 673f
00000020: f304 b53f b7a3 fa3e 3a46 973f f304 b53f
00000030: 072d 2c25 f7bc a33f f304 b53f b7a3 fabe
00000040: 3a46 973f f304 b53f 8b8f 67bf 8b8f 673f
00000050: f304 b53f 3a46 97bf b7a3 fa3e f304 b53f
00000060: f7bc a3bf aa80 6625 f304 b53f 3a46 97bf
00000070: b7a3 fabe f304 b53f 8b8f 67bf 8b8f 67bf
00000080: f304 b53f b7a3 fabe 3a46 97bf f304 b53f
00000090: 260d 3da5 f7bc a3bf f304 b53f b7a3 fa3e
000000a0: 3a46 97bf f304 b53f 8b8f 673f 8b8f 67bf
000000b0: f304 b53f 3a46 973f b7a3 fabe f304 b53f
000000c0: eb82 cd3f 4e8e 4724 753d a73f 27de bd3f
000000d0: a74a 1d3f 753d a73f 8a51 913f 8a51 913f
000000e0: 753d a73f a74a 1d3f 27de bd3f 753d a73f
000000f0: 1537 4325 eb82 cd3f 753d a73f a74a 1dbf
00000100: 27de bd3f 753d a73f 8a51 91bf 8a51 913f
00000110: 753d a73f 27de bdbf a74a 1d3f 753d a73f
00000120: eb82 cdbf 634a 8a25 753d a73f 27de bdbf
00000130: a74a 1dbf 753d a73f 8a51 91bf 8a51 91bf
00000140: 753d a73f a74a 1dbf 27de bdbf 753d a73f
00000150: a815 81a5 eb82 cdbf 753d a73f a74a 1d3f
00000160: 27de bdbf 753d a73f 8a51 913f 8a51 91bf
00000170: 753d a73f 27de bd3f a74a 1dbf 753d a73f
00000180: d0ec f03f 4e8e 4724 0000 803f f295 de3f
00000190: 6465 383f 0000 803f 185c aa3f 185c aa3f
000001a0: 0000 803f 6465 383f f295 de3f 0000 803f
000001b0: 36bf 5625 d0ec f03f 0000 803f 6465 38bf
000001c0: f295 de3f 0000 803f 185c aabf 185c aa3f
000001d0: 0000 803f f295 debf 6465 383f 0000 803f
000001e0: d0ec f0bf 84d2 9d25 0000 803f f295 debf
000001f0: 6465 38bf 0000 803f 185c aabf 185c aabf
00000200: 0000 803f 6465 38bf f295 debf 0000 803f
00000210: da61 9ea5 d0ec f0bf 0000 803f 6465 383f
00000220: f295 debf 0000 803f 185c aa3f 185c aabf
00000230: 0000 803f f295 de3f 6465 38bf 0000 803f
00000240: 3a4b 0440 4e8e 4724 d48b 0a3f 7972 f43f
00000250: b481 4a3f d48b 0a3f 7d17 bb3f 7d17 bb3f
00000260: d48b 0a3f b481 4a3f 7972 f43f d48b 0a3f
00000270: 31cc 6325 3a4b 0440 d48b 0a3f b481 4abf
00000280: 7972 f43f d48b 0a3f 7d17 bbbf 7d17 bb3f
00000290: d48b 0a3f 7972 f4bf b481 4a3f d48b 0a3f
000002a0: 3a4b 04c0 7fdf aa25 d48b 0a3f 7972 f4bf
000002b0: b481 4abf d48b 0a3f 7d17 bbbf 7d17 bbbf
000002c0: d48b 0a3f b481 4abf 7972 f4bf d48b 0a3f
000002d0: 53f5 b1a5 3a4b 04c0 d48b 0a3f b481 4a3f
000002e0: 7972 f4bf d48b 0a3f 7d17 bb3f 7d17 bbbf
000002f0: d48b 0a3f 7972 f43f b481 4abf d48b 0a3f
00000300: ce72 0840 4e8e 4724 7da5 d824 b61f fc3f
00000310: c3dd 503f 7da5 d824 9ef7 c03f 9ef7 c03f
00000320: 7da5 d824 c3dd 503f b61f fc3f 7da5 d824
00000330: 6461 6825 ce72 0840 7da5 d824 c3dd 50bf
00000340: b61f fc3f 7da5 d824 9ef7 c0bf 9ef7 c03f
00000350: 7da5 d824 b61f fcbf c3dd 503f 7da5 d824
00000360: ce72 08c0 b274 af25 7da5 d824 b61f fcbf
00000370: c3dd 50bf 7da5 d824 9ef7 c0bf 9ef7 c0bf
00000380: 7da5 d824 c3dd 50bf b61f fcbf 7da5 d824
00000390: 1ed5 b8a5 ce72 08c0 7da5 d824 c3dd 503f
000003a0: b61f fcbf 7da5 d824 9ef7 c03f 9ef7 c0bf
000003b0: 7da5 d824 b61f fc3f c3dd 50bf 7da5 d824
000003c0: 3a4b 0440 4e8e 4724 d48b 0abf 7972 f43f
000003d0: b481 4a3f d48b 0abf 7d17 bb3f 7d17 bb3f
000003e0: d48b 0abf b481 4a3f 7972 f43f d48b 0abf
000003f0: 31cc 6325 3a4b 0440 d48b 0abf b481 4abf

init_coord f4 [256, 3]
0.6045245 -0.5200182 -0.20807351 0.14387774 0.05971275 -0.031060632 -1.4065536 0.102616556
0.0794026 0.7266208 -0.32479015 0.7091047 -0.35781968 -0.24136947 -0.41717446 0.15846826
0.35142636 0.8701336 0.12919655 0.0076900884 -0.15166773 0.21117117 0.3604961 0.03801115
-0.7418288 -0.3567405 0.13202691 -0.024542114 -0.1900463 -1.129382 -0.0936923 0.17558478
-0.19041121 -0.321698 -0.41067103 -0.08800436 -0.21068265 -0.54757303 0.52514666 0.42830428
0.07481188 -0.4211678 -0.58523554 1.0050786 -0.20922445 -0.9422809 -0.2547916 -0.30214152
0.2606328 0.34581834 -0.16126981 0.28566352 0.14850494 -0.4774147 -0.3980476 0.05253773
-0.04194951 -0.2021053 0.62244827 0.30289623 0.7397168 -0.70922095 -0.541638 -0.5985924
-0.10129543 -0.032527182 0.38523883 -0.61597 0.39599213 0.18496129 -0.5706836 -0.87727964
-0.264563 0.2573159 0.6618548 0.57738125 0.47370327 0.30397755 0.25252277 -0.25731447
0.494652 0.1751434 -0.89629984 -0.830023 0.00028463217 0.4008132 0.1753697 -0.15958771
-0.030433653 -0.09471512 -0.060774516 -0.1405886 0.33602455 0.48443484 -0.71298593 -0.5085332
0.36679393 0.168536 -0.42128077 -0.91230345 -0.34876332 0.3066511 -0.22270223 0.32412666
0.6421523 0.71463567 0.2944009 0.22046138 -0.362192 6.247459e-05 0.024612019 -0.21672657
0.78911835 0.33566222 -0.48452866 0.38604075 0.0037135866 -0.21207148 0.8411034 -0.1105657
-1.0109411 0.26138732 -0.09121255 -0.45739442 0.25169405 0.078697935 0.21718305 -0.187196
0.16964817 -0.122960515 -0.6750339 -0.034858003 -0.32554528 -0.858394 0.22292607 0.21746512
-0.41273442 -0.46136066 -0.73837507 -0.16873652 -0.27684695 0.008622827 0.0034351095 0.3352738
0.05905982 -0.28111973 1.0094576 0.13723679 0.027539259 -0.5232313 -0.10883979 0.77281195
-0.38071954 0.6135696 -0.43678558 0.18746188 -0.41090876 -1.4337789 0.84822273 -0.10378989
0.15968357 -0.1176838 0.31950125 -0.5040803 -0.5572396 -0.16245124 -0.14853491 0.40221986
0.28777176 0.05366567 -0.10907527 0.31941032 0.0682595 -0.11003017 0.24001788 -0.59288085
-0.48139223 0.7917185 1.0710821 -0.7447901 0.08359072 1.3745208 -0.22052063 1.2063956
0.85330534 0.48756656 0.017357115 -0.90879303 0.43027127 -0.15464544 -0.1765147 0.2675035
0.5438333 0.16627075 -0.56412584 -0.69418937 -0.6605303 0.3996514 -0.19165882 0.4698831
0.6265642 0.18462233 -0.20801371 0.60856223 -0.53938633 0.07857754 -0.6015159 -0.20091319
0.3893338 0.19167338 -0.42835867 -0.09707536 0.013538718 0.18772566 0.08783236 0.07828361
-0.37247488 1.0012065 -0.19205046 0.009918013 -0.8575856 -0.61486334 0.5931358 -0.6474191
0.16879834 0.14523283 0.5100064 -0.6300446 0.12013977 0.8070739 0.05523241 -0.4810547
-0.8945384 0.30743712 0.29284927 0.5267755 -0.8587953 -0.4372037 -0.32757485 -0.20979926
0.84226507 0.19093774 0.40075028 1.0755109 -0.6751065 -1.4059076 0.69595414 0.48899612
0.120754845 0.18522605 0.22633958 0.85913813 0.94702554 -0.3002465 0.091940895 -0.68451416
00000000: 1ec2 1a3f ea1f 05bf 3911 55be b054 133e
00000010: 5b95 743d de72 febc f309 b4bf a128 d23d
00000020: d59d a23d d203 3a3f e54a a6be e387 353f
00000030: 2434 b7be 8f29 77be e497 d5be 8145 223e
00000040: 28ee b33e 13c1 5e3f 1a4c 043e 23fd fb3b
00000050: c94e 1bbe 413d 583e f292 b83e 94b1 1b3d
00000060: 7ee8 3dbf b1a6 b6be 1032 073e 8b0c c9bc
00000070: 7f9b 42be 978f 90bf c0e1 bfbd 7fcc 333e
00000080: 28fb 42be 9ab5 a4be 7943 d2be a13b b4bd
00000090: 31bd 57be bf2d 0cbf 0370 063f b34a db3e
000000a0: f936 993d 4ea3 d7be ffd1 15bf 6aa6 803f
000000b0: ef3e 56be 5239 71bf 0b74 82be 4bb2 9abe
000000c0: aa71 853e 1a0f b13e ea23 25be 7d42 923e
000000d0: ae11 183e b36f f4be e5cc cbbe ce31 573d
000000e0: 40d3 2bbd b1f4 4ebe c558 1f3f 3715 9b3e
000000f0: 155e 3d3f 818f 35bf caa8 0abf 5a3d 19bf
00000100: fa73 cfbd 393b 05bd 063e c53e 36b0 1dbf
00000110: 7bbf ca3e 7e66 3d3e 5218 12bf 6695 60bf
00000120: cd74 87be e9be 833e 516f 293f 42cf 133f
00000130: 3c89 f23e f2a2 9b3e aa4a 813e b9be 83be
00000140: 0743 fd3e cb58 333e e873 65bf 637c 54bf
00000150: af3a 9539 6337 cd3e 1d94 333e f66a 23be
00000160: ff4f f9bc 00fa c1bd b3ee 78bd 75f6 0fbe
00000170: 690b ac3e d807 f83e 3f86 36bf 3b2f 02bf
00000180: 6acc bb3e b494 2c3e 1db2 d7be b88c 69bf
00000190: 1b91 b2be 5f01 9d3e 0e0c 64be eef3 a53e
000001a0: 1864 243f 5df2 363f b7bb 963e a1c0 613e
000001b0: 3b71 b9be ca04 8338 259f c93c 92ed 5dbe
000001c0: a903 4a3f ebdb ab3e 2414 f8be 22a7 c53e
000001d0: a55f 733b 4429 59be 8d52 573f 4570 e2bd
000001e0: 8566 81bf 8fd4 853e a5cd babd 9a2f eabe
000001f0: 0bde 803e 622c a13d 3c65 5e3e 4fb0 3fbe
00000200: 40b8 2d3e b9d2 fbbd 06cf 2cbf 44c7 0ebd
00000210: dfad a6be b6bf 5bbf bb46 643e 2daf 5e3e
00000220: ed51 d3be 7737 ecbe 2606 3dbf 44c9 2cbe
00000230: e2be 8dbe c246 0d3c 931f 613b 02a9 ab3e
00000240: b6e8 713d edee 8fbe e835 813f cd87 0c3e
00000250: 039a e13c 7df2 05bf 65e7 debd 01d7 453f
00000260: aced c2be e612 1d3f 5ca2 dfbe 02f6 3f3e
00000270: a262 d2be 1186 b7bf 2025 593f cb8f d4bd
00000280: 1784 233e 3404 f1bd ab95 a33e 680b 01bf
00000290: 41a7 0ebf 9e59 26be 8919 18be c3ef cd3e
000002a0: d256 933e 89d0 5b3d db62 dfbd c089 a33e
000002b0: a3cb 8b3d 7f57 e1bd 3fc7 753e 0ac7 17bf
000002c0: 0b79 f6be 10ae 4a3f 3819 893f 90aa 3ebf
000002d0: 9d31 ab3d 4cf0 af3f 29d0 61be 2c6b 9a3f
000002e0: 3872 5a3f 53a2 f93e 8230 8e3c a9a6 68bf
000002f0: 844c dc3e 605b 1ebe 45c0 34be 38f6 883e
00000300: a938 0b3f e142 2a3e 8d6a 10bf 65b6 31bf
00000310: 8418 29bf 1c9f cc3e 3642 44be 8594 f03e
00000320: 8366 203f a30d 3d3e 8c01 55be bcca 1b3f
00000330: 3915 0abf 43ed a03d f2fc 19bf 30bc 4dbe
00000340: c356 c73e 0746 443e d451 dbbe 72cf c6bd
00000350: 80d1 5d3c 283b 403e 74e1 b33d 2853 a03d
00000360: 07b5 bebe 8927 803f e0a8 44be 297f 223c
00000370: bb8a 5bbf af67 1dbf bfd7 173f 42bd 25bf
00000380: 79d9 2c3e eab7 143e c88f 023f 9a4a 21bf
00000390: d70b f63d 659c 4e3f 613b 623d cd4c f6be
000003a0: 7800 65bf 6668 9d3e 57f0 953e c2da 063f
000003b0: 02da 5bbf 2ad9 dfbe e4b7 a7be 9ed5 56be
000003c0: af9e 573f 2f85 433e 242f cd3e 57aa 893f
000003d0: c8d3 2cbf c8f4 b3bf 0d2a 323f b35d fa3e
000003e0: 514e f73d e6ab 3d3e 90c5 673e 7af0 5b3f
000003f0: 4470 723f e9b9 99be 824b bc3d 523c 2fbf

encoder.egnn.layers.0.edge_mlp.0.weight f4 [32, 33]
-0.17615694 -0.16657127 -0.068260394 0.21166287 -0.096527286 -0.02627299 -0.14417419 0.24107969
-0.029023733 -0.20539922 -0.13791777 -0.06485227 0.017638419 0.1320629 0.0783603 -0.0031949219
-0.1964348 -0.104180716 -0.072401345 -0.082505435 0.096812025 0.1652692 -0.05805565 -0.043995745
0.04846552 0.13672054 -0.014254464 -0.1203361 -0.12983556 -0.04367132 0.18569428 -0.27396232
0.18061441 0.015426029 -0.07601001 0.15175164 0.031460192 0.0012665612 0.021072604 0.053866632
-0.13885374 0.23957774 0.16697854 -0.086467154 0.15168071 0.06471071 -0.053293847 0.08620614
-0.1058327 0.30720556 -0.005622471 -0.08397902 0.11588554 0.16295256 -0.15135995 0.09211005
0.019702129 0.16490914 0.12839402 -0.05510298 -0.045901705 -0.028191784 -0.2527631 -0.105537884
0.0728179 -0.124484435 -0.1524823 0.2588453 0.10968524 -0.09158629 0.25875527 0.06023711
0.05519056 -0.11757093 0.015541773 -0.023486264 0.06275068 0.10883003 -0.24307573 0.056833073
0.023452664 0.094040506 -0.2601654 -0.15244584 -0.032877453 0.07764481 -0.04325856 0.06465535
0.17418747 -0.049729537 -0.018453822 0.0043432773 0.04753137 0.18180986 -0.08010191 -0.12938242
0.065813676 0.15393656 -0.06964718 -0.18422922 -0.009194315 0.017231388 -0.06793044 -0.07765411
-0.0017431722 0.1271421 0.100752324 -0.30480966 -0.104416035 -0.28978688 0.024451062 -0.10609245
0.14768982 -0.046700627 -0.097647466 -0.08060379 0.2180991 -0.26655915 0.096484266 0.032644346
-0.069044344 0.2774875 0.057865135 -0.069866285 0.20859738 -0.27857885 -0.15214117 -0.2052746
0.26949698 0.101821475 0.03602991 -0.24764435 0.02322776 0.06406474 0.16802953 0.111957856
-0.1584308 0.01749714 0.19748944 -0.05016547 0.049424123 0.091192074 0.21036363 0.0057848827
0.15151137 0.19205862 -0.21202807 -0.007608712 0.009590221 0.18856755 0.10538865 0.16250184
-0.06335567 -0.19816378 0.15212631 -0.16822782 0.24861933 0.18137138 0.22177991 0.18771972
0.08320875 -0.044745844 0.04050265 -0.10934863 -0.030053614 0.16794188 0.014178581 0.09939974
-0.22596748 0.028468998 0.074414946 -0.17757979 -0.29787982 0.14263481 0.07955962 -0.0026826875
-0.1194029 -0.045685057 -0.04464089 0.048414156 -0.17899317 0.15077923 -0.2105227 -0.33519253
-0.18574393 -0.13962089 -0.20407444 0.053512484 -0.13334936 0.19235916 -0.18070735 -0.19145894
-0.07161004 0.10411821 -0.24201804 0.18508068 -0.12598352 -0.11994286 -0.093978584 0.24448626
-0.24997163 0.20409445 -0.3050507 0.026003925 0.0472993 -0.030006038 -0.0015113557 -0.020812806
-0.23656619 -0.16381444 -0.07911476 -0.019399116 -0.26953566 0.021451589 0.13693832 0.18406923
-0.40291357 -0.04052365 -0.07027213 -0.2421944 0.30970475 -0.16228919 -0.006375506 0.15429193
-0.17539732 -0.094504364 -0.28515756 0.020515995 0.0804727 0.05219857 -0.16127259 -0.06675703
-0.12970763 -0.16378328 0.037552156 -0.0051031304 -0.054539558 0.0016616756 0.08666413 -0.22059958
0.08457673 0.0127063645 0.121835865 0.1618662 0.20020686 -0.1763417 -0.04464304 -0.2567374
0.07114616 -0.10735581 -0.020426258 -0.069113 -0.14843142 -0.06544297 0.28361174 -0.015661627
00000000: 7c62 34be a991 2abe 1bcc 8bbd 27be 583e
00000010: 19b0 c5bd 743a d7bc 66a2 13be 98dd 763e
00000020: 2ec3 edbc 2c54 52be 513a 0dbe 44d1 84bd
00000030: 727e 903c 7f3b 073e 5d7b a03d e561 51bb
00000040: 3426 49be b35c d5bd 2847 94bd 9cf8 a8bd
00000050: 6245 c63d 543c 293e c3cb 6dbd e234 34bd
00000060: c883 463d 7800 0c3e 8e8b 69bc c672 f6bd
00000070: 9df3 04be b3e0 32bd a426 3e3e ca44 8cbe
00000080: fcf2 383e 75bd 7c3c 23ab 9bbd c864 1b3e
00000090: 67dc 003d be02 a63a 74a0 ac3c 42a3 5c3d
000000a0: ad2f 0ebe de53 753e 6cfc 2a3e b115 b1bd
000000b0: 3052 1b3e 0c87 843d a64a 5abd d88c b03d
000000c0: d1be d8bd 0c4a 9d3e b53c b8bb 31fd abbd
000000d0: 6655 ed3d 09dd 263e 1afe 1abe 32a4 bc3d
000000e0: 5c66 a13c f1dd 283e b979 033e aab3 61bd
000000f0: 6d03 3cbd 75f2 e6bc 2a6a 81be 3f24 d8bd
00000100: 8d21 953d b2f1 febd 5224 1cbe 5f87 843e
00000110: a8a2 e03d 9891 bbbd 927b 843e 30bb 763d
00000120: 7f0f 623d 07c9 f0bd eca2 7e3c 4466 c0bc
00000130: 6e83 803d 47e2 de3d d8e8 78be ccc9 683d
00000140: cd1f c03c 4f98 c03d 6634 85be c31a 1cbe
00000150: 82aa 06bd 3e04 9f3d e32f 31bd 066a 843d
00000160: 335e 323e 33b1 4bbd 782c 97bc 0d52 8e3b
00000170: 41b0 423d 5d2c 3a3e 780c a4bd d37c 04be
00000180: 52c9 863d 8ca1 1d3e 2ea3 8ebd 96a6 3cbe
00000190: c1a3 16bc d728 8d3c 1d1f 8bbd 1e09 9fbd
000001a0: 277b e4ba 8a31 023e 3c57 ce3d 0310 9cbe
000001b0: 13d8 d5bd f25e 94be 984d c83c 0047 d9bd
000001c0: 003c 173e 2849 3fbd 65fb c7bd 9a13 a5bd
000001d0: 5f55 5f3e 717a 88be 8b99 c53d 14b6 053d
000001e0: 1f67 8dbd d712 8e3e fe03 6d3d 0e16 8fbd
000001f0: 8d9a 553e e3a1 8ebe e5ca 1bbe 8133 52be
00000200: 82fb 893e c787 d03d 1994 133d 7b96 7dbe
00000210: 2548 be3c 6034 833d ef0f 2c3e 294a e53d
00000220: af3b 22be 2a56 8f3c ac3a 4a3e 4f7a 4dbd
00000230: f370 4a3d e9c2 ba3d 9069 573e 1d8f bd3b
00000240: cc25 1b3e 04ab 443e e31d 59be 8152 f9bb
00000250: 4d20 1d3c da17 413e 01d6 d73d e266 263e
00000260: 9ec0 81bd 72eb 4abe 00c7 1b3e ea43 2cbe
00000270: 1196 7e3e 6bb9 393e 461a 633e 9939 403e
00000280: 5969 aa3d 6b47 37bd 1be6 253d 2df2 dfbd
00000290: ff32 f6bc f5f8 2b3e 474d 683c 1792 cb3d
000002a0: 0564 67be d137 e93c dd66 983d 7ad7 35be
000002b0: b483 98be dc0e 123e 27f0 a23d 07d0 2fbb
000002c0: 8289 f4bd 4120 3bbd 5ed9 36bd ec4d 463d
000002d0: fc49 37be df65 1a3e 4393 57be 5b9e abbe
000002e0: a833 3ebe c7f8 0ebe e4f8 50be e82f 5b3d
000002f0: bc8c 08be cdf9 443e 590b 39be d00d 44be
00000300: 49a8 92bd ee3b d53d 94d3 77be ca85 3d3e
00000310: d301 01be 9aa4 f5bd d877 c0bd 9b5a 7a3e
00000320: 90f8 7fbe 23fe 503e 9b2f 9cbe 2f06 d53c
00000330: e9bc 413d 39cf f5bc af18 c6ba 9e7f aabc
00000340: 683e 72be f9be 27be eb06 a2bd e5ea 9ebc
00000350: 9400 8abe 3ebb af3c 8f39 0c3e a57c 3c3e
00000360: b04a cebe 20fc 25bd d6ea 8fbd cf01 78be
00000370: 9f91 9e3e 232f 26be 9fe9 d0bb b4fe 1d3e
00000380: 5b9b 33be 818b c1bd 2c00 92be 2911 a83c
00000390: dfce a43d 2bce 553d a424 25be e9b7 88bd
000003a0: 14d2 04be ceb6 27be 4ad0 193d 2938 a7bb
000003b0: df64 5fbd 95cc d93a f77c b13d dbe4 61be
000003c0: 9136 ad3d 5b2e 503c 1585 f93d 41c0 253e
000003d0: 0703 4d3e eb92 34be 9fdb 36bd 1673 83be
000003e0: 14b5 913d 5ddd dbbd f854 a7bc 1e8b 8dbd
000003f0: 68fe 17be f706 86bd 8f35 913e d04c 80bc

encoder.egnn.layers.0.edge_mlp.0.bias f4 [32]
0.06800262 0.07590975 0.12958221 -0.12705082 -0.04368624 -0.09856635 -0.023704525 0.0876613
0.058796234 0.07623883 0.07666357 -0.019928597 -0.0019145822 0.12035339 -0.08921478 0.19243306
-0.03314538 0.14030552 0.15541314 -0.12642282 -0.02215613 0.070155494 -0.034246232 -0.15751982
0.014337583 -0.13948733 0.044502184 -0.08485939 0.09941423 0.11240678 0.020384617 -0.10118717
00000000: f544 8b3d 9276 9b3d 33b1 043e 9c19 02be
00000010: 58f0 32bd 28dd c9bd fe2f c2bc c587 b33d
00000020: 52d4 703d 1b23 9c3d ca01 9d3d 4c41 a3bc
00000030: b8f2 faba d77b f63d 3db6 b6bd 2c0d 453e
00000040: 73c3 07bd 40ac 0f3e 9f24 1f3e fc74 01be
00000050: c680 b5bc afad 8f3d c745 0cbd e04c 21be
00000060: 2fe8 6a3c c4d5 0ebe ec47 363d c3ca adbd
00000070: b099 cb3d 8735 e63d a4fd a63c 383b cfbd

encoder.egnn.layers.0.edge_mlp.2.weight f4 [32, 32]
-0.2033798 -0.058344197 -0.09938018 -0.04325776 -0.14212354 -0.050353736 -0.13232248 0.20520197
0.018676136 0.037643347 -0.093295835 0.13009164 0.10027456 0.13425058 -0.1502756 -0.076509915
-0.26118222 -0.027341455 -0.22035614 -0.0047891005 -0.017493788 0.17564209 -0.034589164 0.116124794
0.057182778 0.19414686 -0.0008936127 -0.13723767 0.004222519 0.007379676 0.17800282 0.024745656
-0.04891901 -0.082073115 -0.2464974 -0.07262218 -0.12067348 -0.06328772 -0.023289897 -0.0014709403
0.09836323 0.039584767 -0.09990727 0.032881208 0.17622782 0.09388606 0.012683264 -0.1002547
-0.06764653 -0.08819355 -0.17864096 -0.067332104 -0.03889832 0.10439632 0.13983187 -0.19995014
-0.01648658 -0.10066301 0.22916085 -0.22130907 0.18906185 0.08918709 -0.06706073 -0.13280971
0.06273287 0.15538459 0.011205134 0.1348721 0.16836138 0.083679974 0.09683357 -0.11696526
0.085284576 0.19036306 -0.11997021 -0.07150744 0.03648878 0.086682774 -0.020579508 0.039728694
-0.27606174 -0.19723222 -0.27746612 0.039976235 -0.14332162 -0.11303968 -0.11540508 -0.004070932
-0.109733835 0.18368274 0.11877781 0.10377619 -0.01503671 0.14038506 -0.001607893 -0.013652571
0.13489921 0.083166316 -0.1707428 0.13253848 -0.30010366 -0.26789078 -0.21112446 0.026943129
0.06311872 -0.1567058 0.20503263 -0.020839158 0.20088293 0.24264774 -0.13450344 0.041222077
-0.028769922 -0.16653301 0.006038642 0.008439105 -0.10038483 -0.021580277 -0.073702805 -0.15715376
0.22117162 0.02238294 0.21751979 -0.0915533 0.06665921 -0.083119266 -0.089053065 0.07464252
0.15612523 -0.24599935 0.25326467 0.1093247 -0.10563906 -0.03415994 -0.1853991 -0.038677428
0.20082012 0.032674983 -0.07444916 0.022344163 -0.0023475708 0.275282 0.072963536 0.15905288
0.036899716 -0.16618386 -0.19173568 0.23121741 0.2979025 0.11127821 0.17661676 0.2558206
1.4615225e-05 -0.13925639 -0.105541386 0.35414717 0.04059914 0.253697 -0.06744053 0.1771667
0.0027808878 -0.027505146 0.0742248 -0.016650459 -0.2760703 -0.09130426 -0.15527813 0.04738518
-0.17214637 -0.09718703 0.21372403 -0.05879807 0.15511474 0.16613044 -0.20710129 0.15830436
0.09771492 -0.1918833 0.17426626 -0.056135092 -0.009572774 0.04316259 -0.07333156 0.07283927
0.07816131 0.23037742 0.039816875 -0.17739862 -0.27346507 0.031853072 -0.13420348 0.17772312
0.08026855 -0.112802595 -0.24653524 -0.10403308 0.23858823 0.101632945 0.08301889 -0.10287578
-0.035937015 0.2460509 -0.17448013 0.09108721 0.12769853 -0.24724331 0.18894935 -0.18888105
-0.00013812308 0.05533288 -0.0039077094 0.02467465 0.13155383 -0.21010347 0.10345231 -0.15977703
0.17104256 0.08819689 0.04562917 -0.028062036 0.18925218 0.074075095 0.29292113 -0.1567454
0.15318221 0.055921733 -0.09276768 -0.17707579 -0.27741054 0.08715263 -0.06577569 -0.1988315
-0.09091148 0.0023278354 0.18411955 0.13314053 0.07445785 0.032278273 -0.009990088 0.18585421
0.036578722 -0.13438547 0.19871834 -0.065339506 -0.2510541 0.15055682 -0.08061158 0.12626627
0.02350659 0.2122216 0.12992369 -0.16830543 -0.19235799 -0.18069412 -0.07369706 0.012391734
00000000: cb42 50be 53fa 6ebd d687 cbbd 0d2f 31bd
00000010: d588 11be b83f 4ebd 8b7f 07be 7720 523e
00000020: b2fe 983c e92f 1a3d e311 bfbd be36 053e
00000030: c05c cd3d fc78 093e d9e1 19be 3bb1 9cbd
00000040: adb9 85be 30fb dfbc 0aa5 61be e3ed 9cbb
00000050: 224f 8fbc 85db 333e 5ead 0dbd d6d2 ed3d
00000060: 7d38 6a3d 6fce 463e 5541 6aba 0888 0cbe
00000070: 0f5d 8a3b 36d1 f13b 5f46 363e 67b7 ca3c
00000080: 4d5f 48bd f315 a8bd d069 7cbe f0ba 94bd
00000090: a823 f7bd fe9c 81bd 74ca bebc 91cc c0ba
000000a0: a972 c93d a323 223d 2f9c ccbd 72ae 063d
000000b0: 1175 343e 5647 c03d 77cd 4f3c 5652 cdbd
000000c0: 448a 8abd d29e b4bd a8ed 36be 6ae5 89bd
000000d0: d853 1fbd bdcd d53d 1630 0f3e bbbf 4cbe
000000e0: dd0e 87bc 6828 cebd 24a9 6a3e d89e 62be
000000f0: 6e99 413e b9a7 b63d 2357 89bd 45ff 07be
00000100: 177a 803d 231d 1f3e bd95 373c e91b 0a3e
00000110: ed66 2c3e 6860 ab3d ae50 c63d 7b8b efbd
00000120: aea9 ae3d 89ee 423e f1b2 f5bd 7e72 92bd
00000130: 4275 153d bd86 b13d 5b96 a8bc 8eba 223d
00000140: f757 8dbe 3ef7 49be 0a10 8ebe 1fbe 233d
00000150: e7c2 12be 5981 e7bd 8059 ecbd 7465 85bb
00000160: 22bc e0bd 5417 3c3e c841 f33d 9c88 d43d
00000170: 885c 76bc 1ac1 0f3e f0bf d2ba 08af 5fbc
00000180: 0523 0a3e 1a53 aa3d 33d7 2ebe 2bb8 073e
00000190: 30a7 99be fb28 89be 0331 58be d6b7 dc3c
000001a0: 6344 813d 7c77 20be 13f4 513e e2b6 aabc
000001b0: 41b4 4d3e a678 783e 45bb 09be 7bd8 283d
000001c0: e6ae ebbc a187 2abe cddf c53b 2c44 0a3c
000001d0: 9096 cdbd 1fc9 b0bc 7ff1 96bd eaec 20be
000001e0: d07a 623e 6d5c b73c 82bd 5e3e 4c80 bbbd
000001f0: a084 883d 6f3a aabd 7461 b6bd 2dde 983d
00000200: 4bdf 1f3e 41e7 7bbe e8ab 813e a1e5 df3d
00000210: 4b59 d8bd 4beb 0bbd 43d9 3dbe 396c 1ebd
00000220: caa3 4d3e 34d6 053d cd78 98bd 1b0b b73c
00000230: b4d9 19bb c3f1 8c3e e86d 953d c2de 223e
00000240: 2824 173d 1a2c 2abe 5c56 44be 42c4 6c3e
00000250: ad86 983e d5e5 e33d 06db 343e ebfa 823e
00000260: ea33 7537 3a99 0ebe 1526 d8bd c752 b53e
00000270: 494b 263d 93e4 813e 431e 8abd 306b 353e
00000280: 8e3f 363b 7952 e1bc 2c03 983d 8b66 88bc
00000290: 1659 8dbe bafd babd 3b01 1fbe f616 423d
000002a0: 2347 30be fe09 c7bd 79da 5a3e 3fd6 70bd
000002b0: 66d6 1e3e 191e 2a3e 5c12 54be 8a1a 223e
000002c0: c31e c83d 0e7d 44be db72 323e e9ed 65bd
000002d0: 20d7 1cbc 42cb 303d db2e 96bd c12c 953d
000002e0: 0913 a03d 0fe8 6b3e 0517 233d fca7 35be
000002f0: 9d03 8cbe 5e78 023d a36c 09be 0dfd 353e
00000300: d663 a43d 0c05 e7bd bc73 7cbe 4c0f d5bd
00000310: 7950 743e ef24 d03d cf05 aa3d 89b0 d2bd
00000320: b132 13bd c4f4 7b3e ebaa 32be ee8b ba3d
00000330: 67c3 023e 5a2d 7dbe f07b 413e 096a 41be
00000340: 22d5 10b9 bba4 623d 3e0c 80bb 7e22 ca3c
00000350: 0cb6 063e 5d25 57be cede d33d 979c 23be
00000360: c825 2f3e 92a0 b43d a7e5 3a3d 5be2 e5bc
00000370: 53cb 413e afb4 973d c2f9 953e de81 20be
00000380: ccdb 1c3e 300e 653d fbfc bdbd 5b53 35be
00000390: c108 8ebe 147d b23d 68b5 86bd 7c9a 4bbe
000003a0: cc2f babd 998e 183b d689 3c3e fe55 083e
000003b0: 5b7d 983d 3936 043d 77ad 23bc 9150 3e3e
000003c0: 92d3 153d 589c 09be d27c 4b3e b8d0 85bd
000003d0: 2a8a 80be 912b 1a3e af17 a5bd f24b 013e
000003e0: e490 c03c 9e50 593e b70a 053e 4258 2cbe
000003f0: 7ef9 44be e107 39be 7cee 96bd b306 4b3c

encoder.egnn.layers.0.edge_mlp.2.bias f4 [32]
-0.092640765 -0.1031982 0.052977946 -0.04956499 0.07518499 0.042420257 0.0033346359 -0.10431336
0.17437811 0.05914043 -0.034453265 -0.031348113 0.009315041 -0.070305765 0.051553085 -0.056709036
-0.038867645 -0.025309715 -0.103466645 0.08125062 0.16120797 -0.12289504 0.014217111 0.0727168
-0.03179273 0.057948433 -0.13877104 0.14752011 0.0812012 0.07640527 -0.17543973 0.006709291
00000000: 71ba bdbd 9459 d3bd 67ff 583d a904 4bbd
00000010: 97fa 993d ddc0 2d3d e889 5a3b 3ea2 d5bd
00000020: 2d90 323e 3c3d 723d de1e 0dbd e166 00bd
00000030: 1d9e 183c 78fc 8fbd 5429 533d bc47 68bd
00000040: ae33 1fbd 5256 cfbc 52e6 d3bd ba66 a63d
00000050: b413 253e 65b0 fbbd e3ee 683c 8cec 943d
00000060: 1839 02bd 565b 6d3d ff19 0ebe 830f 173e
00000070: d14c a63d 5e7a 9c3d 79a6 33be 9dd9 db3b

encoder.egnn.layers.0.node_mlp.0.weight f4 [32, 48]
0.055679098 0.042765334 -0.19487004 -0.11582992 0.06282034 -0.1356117 -0.17906262 0.037392188
-0.10661589 -0.08594572 -0.1699186 0.07222694 0.061543636 -0.22405536 -0.100427404 -0.0098367715
-0.052641794 0.048749745 -0.08192068 0.14444663 -0.117921755 0.048295602 -0.13744365 -0.021274675
-0.10440825 0.21740054 -0.122770324 0.060683567 -0.17443302 0.04010247 0.22426815 0.122422434
-0.1449744 -0.13727698 -0.08590481 -0.080764174 0.2691819 -0.1623159 0.081021324 0.042063344
-0.054655984 0.02003975 0.18388982 -0.039527 0.034579817 0.15756644 0.103545584 -0.08045965
-0.14572519 0.107911855 0.11532015 -0.14360699 0.0038820668 -0.010014271 -0.17172375 -0.101460345
-0.027474891 -0.048963927 -0.023249377 -0.002772308 0.112370804 0.1698762 0.11476675 -0.012978723
0.15825029 -0.0023636553 -0.11752254 0.026542308 -0.21125922 -0.047269065 0.013309732 0.10530971
-0.17737426 -0.052946836 0.13610125 0.027395159 0.045751847 -0.09222697 -0.11983567 -0.013135945
0.10428168 0.1623584 0.119739756 -0.10661669 -0.10854881 -0.102098584 0.040602103 0.17052265
0.047807258 -0.07362632 -0.042616107 -0.116342075 0.058841355 0.16848208 0.050909173 -0.18743308
-0.16625263 0.15208481 0.16215825 -0.018210037 0.2383978 0.073655106 0.09355107 -0.09394067
0.21364948 -0.032901037 0.14214028 0.052145608 0.14778683 0.123640746 0.002021975 0.057926357
-0.12574604 -0.049243093 -0.00551618 -0.27268666 0.06645411 -0.29084727 -0.06453102 -0.033115584
0.04130891 0.021230044 -0.05544065 -0.04929005 -0.056451295 -0.09726351 0.16645914 -0.10383944
0.19010136 -0.043678578 0.15936397 -0.25074023 -0.043308545 -0.04436155 -0.13244292 -0.08860791
-0.13874486 -0.25780764 -0.04757658 -0.16945925 0.10297917 -0.032810964 0.08904884 -0.03580239
-0.12819782 0.07686934 0.014823506 -0.060395535 0.060507298 -0.044351008 -0.08070864 -0.011603778
0.12494811 0.04529308 0.15813582 0.08538774 0.11803334 0.07541082 0.07179935 0.047244187
0.1529821 0.09586473 -0.021053113 -0.026571726 -0.08820685 0.07515684 -0.015613815 0.1135565
-0.12021596 0.08145022 0.122814275 0.04987499 0.043651264 -0.021951105 -0.035263844 -0.17948158
-0.11251826 -0.121459775 -0.090395406 -0.04572421 -0.04545122 -0.015073512 0.093969174 -0.03296107
-0.1704183 -0.13968861 0.13767114 -0.08418307 0.054481756 0.09715251 0.016733635 0.1497225
0.03791927 -0.05959685 0.021352889 -0.014455209 0.02593295 -0.10708839 -0.05259822 -0.07488753
-0.08596418 -0.010263929 0.06604268 0.012271065 -0.038599335 -0.14300917 0.1404667 -0.097682066
0.08462377 0.05838482 0.051346216 -0.101568684 0.124043114 -0.05559828 -0.010539668 -0.20280698
0.054956965 -0.10477844 -0.29620704 0.02990042 0.12504163 0.208901 -0.05105972 -0.15465161
-0.20465955 0.012583817 0.18345723 -0.17761198 -0.020164976 0.121284336 -0.112194225 -0.04412694
0.05958824 -0.12669992 0.082689196 -0.02981265 0.15180977 0.11440319 -0.09209182 0.09790905
0.15281841 -0.20524028 -0.03836465 -0.20671268 -0.057881124 0.042711332 -0.04429502 -0.08399615
0.26223582 -0.07686177 0.11239759 -0.009486886 0.123945504 -0.13354333 -0.12864217 0.098813444
00000000: c40f 643d b42a 2f3d 038c 47be 3d38 edbd
00000010: f3a7 803d cbdd 0abe 315c 37be 8d28 193d
00000020: 6f59 dabd 4f04 b0bd 24ff 2dbe b8eb 933d
00000030: 2e15 7c3d c56e 65be e2ac cdbd 692a 21bc
00000040: ec9e 57bd d0ad 473d 08c6 a7bd d1e9 133e
00000050: f680 f1bd 9cd1 453d 07be 0cbe 3a48 aebc
00000060: fed3 d5bd 3f9e 5e3e 026f fbbd 558f 783d
00000070: 929e 32be 7d42 243d 8da6 653e 9db8 fa3d
00000080: 2b74 14be 5692 0cbe dcee afbd b067 a5bd
00000090: 36d2 893e 2436 26be 82ee a53d 9d4a 2c3d
000000a0: f4de 5fbd 672a a43c 9d4d 3c3e 10e7 21bd
000000b0: 91a3 0d3d 1959 213e b50f d43d 07c8 a4bd
000000c0: fc38 15be e400 dd3d f92c ec3d b60d 13be
000000d0: 466a 7e3b e612 24bc 5ad8 2fbe 71ca cfbd
000000e0: 0613 e1bc 668e 48bd 7a75 bebc 9caf 35bb
000000f0: aa22 e63d 07f4 2d3e d40a eb3d b6a4 54bc
00000100: 5d0c 223e 8ee7 1abb a8af f0bd 416f d93c
00000110: 5654 58be 359d 41bd 1011 5a3c 9eac d73d
00000120: 99a1 35be c8de 58bd 205e 0b3e d06b e03c
00000130: 4a66 3b3d 7ee1 bcbd 676c f5bd 2638 57bc
00000140: a291 d53d 4841 263e 1e3a f53d da59 dabd
00000150: d74e debd 1019 d1bd 644e 263d 7d9d 2e3e
00000160: 8bd1 433d 65c9 96bd 3a8e 2ebd c144 eebd
00000170: a203 713d 9186 2c3e 2386 503d 75ee 3fbe
00000180: 213e 2abe 1fbc 1b3e d00c 263e 372d 95bc
00000190: 8e1e 743e 7dd8 963d b497 bf3d f763 c0bd
000001a0: eec6 5a3e 3dc3 06bd 398d 113e a296 553d
000001b0: 6e55 173e 5c37 fd3d 1c83 043b 3044 6d3d
000001c0: 92c3 00be 20b3 49bd 12c1 b4bb 969d 8bbe
000001d0: 1819 883d efe9 94be d728 84bd 35a4 07bd
000001e0: 8833 293d a1ea ad3c bc15 63bd 5de4 49bd
000001f0: 7939 67bd 1732 c7bd 4474 2a3e c6a9 d4bd
00000200: eea9 423e 4fe8 32bd 4f30 233e 0661 80be
00000210: 4d64 31bd 75b4 35bd 1e9f 07be 1078 b5bd
00000220: 2213 0ebe 5dff 83be a9df 42bd ba86 2dbe
00000230: bee6 d23d ca64 06bd 3d5f b63d 87a5 12bd
00000240: 4a46 03be ac6d 9d3d 4ade 723c 4f61 77bd
00000250: 80d6 773d 67a9 35bd 924a a5bd c61d 3ebc
00000260: cbe4 ff3d 3d85 393d 5bee 213e c4df ae3d
00000270: 77bb f13d fd70 9a3d 8a0b 933d 1f83 413d
00000280: 57a7 1c3e ba54 c43d 9477 acbc f3ac d9bc
00000290: cba5 b4bd d4eb 993d 16d1 7fbc 4f90 e83d
000002a0: c933 f6bd 5fcf a63d 0d86 fb3d b849 4c3d
000002b0: abcb 323d ced2 b3bc d270 10bd 05ca 37be
000002c0: f96f e6bd e7bf f8bd 3a21 b9bd 4f49 3bbd
000002d0: 0f2b 3abd e4f6 76bc e972 c03d 3002 07bd
000002e0: 2382 2ebe 880a 0fbe aaf9 0c3e 2c68 acbd
000002f0: 4328 5f3d e5f7 c63d fa14 893c db50 193e
00000300: 3d51 1b3d d41b 74bd 41ec ae3c 8ad5 6cbc
00000310: 5771 d43c 2851 dbbd 3b71 57bd a25e 99bd
00000320: fd0d b0bd 0a2a 28bc 6241 873d 940c 493c
00000330: 561a 1ebd ff70 12be 81d6 0f3e 890d c8bd
00000340: 3a4f ad3d ec24 6f3d 6950 523d 3e03 d0bd
00000350: 510a fe3d 06bb 63bd 92ae 2cbc a2ac 4fbe
00000360: 8e1a 613d 1496 d6bd 73a8 97be baf1 f43c
00000370: ea0a 003e 25ea 553e ff23 51bd fe5c 1ebe
00000380: 4692 51be 5b2c 4e3c 36dc 3b3e eadf 35be
00000390: 0531 a5bc ec63 f83d 16c6 e5bd 73be 34bd
000003a0: cc12 743d a0bd 01be f458 a93d a939 f4bc
000003b0: 0574 1b3e 384c ea3d a39a bcbd 8a84 c83d
000003c0: 6e7c 1c3e 822a 52be 4024 1dbd 7dac 53be
000003d0: c214 6dbd 14f2 2e3d b26e 35bd 2c06 acbd
000003e0: c643 863e b469 9dbd b530 e63d e26e 1bbc
000003f0: 24d7 fd3d 95bf 08be c6ba 03be b45e ca3d

encoder.egnn.layers.0.node_mlp.0.bias f4 [32]
0.020290641 -0.09836614 -0.087223224 -0.38121495 -0.039296232 0.14663036 -0.19997987 -0.062521055
-0.22320114 0.13227151 -0.059719156 0.17913437 -0.16565946 -0.08668363 -0.0917179 0.16257577
0.075303584 0.0028950206 -0.08184902 -0.077255264 0.16221611 0.24794103 -0.10012822 -0.046800923
0.14141001 0.14390756 -0.030026456 -0.045595832 -0.14667833 0.016592529 -0.003243084 0.02734926
00000000: 8f38 a63c 3074 c9bd 17a2 b2bd 9b2e c3be
00000010: 16f5 20bd 4526 163e 86c7 4cbe 0a0b 80bd
00000020: d78e 64be 2f72 073e 139c 74bd 006f 373e
00000030: a2a2 29be 3087 b1bd 98d6 bbbd 437a 263e
00000040: c438 9a3d 63ba 3d3b 76a0 a7bd 0238 9ebd
00000050: fb1b 263e 41e4 7d3e 0610 cdbd 53b2 3fbd
00000060: c9cd 103e 815c 133e 0bfa f5bc b2c2 3abd
00000070: d832 16be 0eed 873c ec89 54bb 8e0b e03c

encoder.egnn.layers.0.node_mlp.2.weight f4 [16, 32]
0.052640475 -0.18264192 -0.20692019 -0.048266288 0.07230145 -0.14157851 0.096752286 -0.14261036
0.07864421 0.051415578 0.030274205 -0.16814387 -0.09049445 -0.09988282 -0.12726843 0.041657258
0.043192275 0.17497672 0.13539745 0.108860254 -0.13230845 -0.21573305 -0.030879727 0.09789938
-0.00048077124 -0.20046549 0.119674146 0.03169898 0.14038138 -0.16115117 -0.030314904 0.123943575
0.19615619 -0.024442848 0.07722392 0.21130165 0.07862488 -0.023007128 -0.11552856 0.15266201
0.03983836 -0.14427121 -0.096513554 0.011407154 -0.1988979 -0.06856245 0.030630862 0.09658253
0.149068 -0.17675702 0.15531299 -0.03463829 0.09069272 -0.06751849 0.003947476 0.13700679
0.06339019 0.061380275 0.14548352 -0.019816762 -0.15529385 0.13459785 -0.24138775 -0.09349069
0.002276552 -0.26899952 0.122870654 -0.13266195 0.09288792 0.056826446 -0.07415599 -0.08711284
-0.030411843 0.33127743 -0.04374771 0.08690207 -0.04513043 -0.06828303 -0.15257576 -0.21426813
0.06626673 -0.20924978 0.11520461 -0.16476375 0.059456598 -0.2508739 -0.0816248 -0.10298854
-0.17497508 -0.059301347 -0.19599521 0.096507475 0.03792867 0.0063605737 0.020526344 -0.15323728
0.07855655 0.22635235 0.3364596 0.0055298987 -0.056782436 0.08787192 0.14385222 -0.07113561
0.07918401 -0.11551029 0.1436737 0.109647505 -0.09778412 0.022117727 0.123691075 -0.053035602
0.13286878 0.0320573 0.07724043 -0.09965032 -0.14647274 0.17928948 0.103594534 -0.11920544
0.08813315 -0.021256011 -0.096725054 0.04628333 -0.052489262 0.14257652 -0.18802749 -0.1335609
-0.21325845 -0.051004544 0.18170297 0.12649581 0.05430233 -0.05446999 0.06345487 0.032830946
0.027817536 -0.3321758 0.13868843 0.16498803 0.06497874 -0.29235286 0.011090329 -0.32397696
0.20087701 -0.07793561 0.23103136 0.16121167 0.02712726 0.022405792 -0.102993295 0.075077705
0.11416382 0.10432495 0.12168935 0.19440201 -0.085708484 -0.030293513 0.060463823 -0.07204787
0.2294502 0.062847845 0.08400466 -0.0062627485 -0.19608626 -0.21244559 0.27683944 -0.015817694
-0.16769862 -0.2035832 -0.12844872 -0.002397899 0.14475144 -0.000508639 -0.1373403 -0.23907171
0.31280875 -0.13495752 -0.12618895 0.17223361 -0.13521318 0.054119304 -0.15146424 -0.10761505
0.063524924 0.08356348 -0.017766466 -0.044542033 0.15068339 -0.12176709 -0.11016162 -0.01750265
-0.05329854 0.13574329 -0.17477897 -0.13647087 0.12919429 0.022733387 -0.13729165 -0.10617007
-0.109331794 -0.17286685 0.26905704 -0.1023302 0.026117656 -0.08912752 -0.21649067 0.078176335
0.12739165 -0.068245694 0.23932396 -0.098161675 0.14600942 0.17898704 0.06870089 0.035173226
0.10956655 0.11974672 -0.0011887212 -0.065793894 0.01437535 0.11041663 -0.23947722 -0.12920766
0.04811863 0.190252 0.19955535 -0.057580817 0.19203171 0.016264712 0.1936212 0.09111239
0.097946234 -0.14135279 -0.069264874 0.11555708 -0.1182136 0.025242884 -0.051205464 0.03463967
-0.0505204 0.107141785 -0.15216677 -0.16561964 0.120691545 0.10308889 0.10503276 -0.014096448
-0.10006568 -0.18351483 -0.08858748 -0.14215748 -0.20139535 -0.022365617 0.08544951 -0.14022337
00000000: 8a9d 573d 7c06 3bbe e3e2 53be dfb2 45bd
00000010: c812 943d f5f9 10be 1026 c63d 7308 12be
00000020: 3710 a13d 2499 523d 9c01 f83c e82d 2cbe
00000030: 2755 b9bd 5d8f ccbd a852 02be cda0 2a3d
00000040: 62ea 303d 192d 333e a1a5 0a3e 20f2 de3d
00000050: de7b 07be 20e9 5cbe 7bf7 fcbc 787f c83d
00000060: 0610 fcb9 d346 4dbe b817 f53d cad6 013d
00000070: 23c0 0f3e d004 25be f656 f8bc 21d6 fd3d
00000080: 2bdd 483e 5e3c c8bc 9327 9e3d 765f 583e
00000090: 1506 a13d 7279 bcbc 3d9a ecbd 6e53 1c3e
000000a0: 8c2d 233d d5bb 13be e6a8 c5bd 12e5 3a3c
000000b0: e4ab 4bbe 786a 8cbd 93ed fa3c 10cd c53d
000000c0: 48a5 183e cbff 34be 5e0a 1f3e e1e0 0dbd
000000d0: 1bbd b93d 2247 8abd d459 813b 824b 0c3e
000000e0: b7d2 813d e269 7b3d a2f9 143e c356 a2bc
000000f0: 5a05 1fbe 05d4 093e 5a2e 77be 0c78 bfbd
00000100: 3432 153b 4eba 89be 9ca3 fb3d 89d8 07be
00000110: 063c be3d d9c2 683d 18df 97bd 3768 b2bd
00000120: 4222 f9bc 329d a93e cc30 33bd b6f9 b13d
00000130: b0da 38bd f9d7 8bbd d23c 1cbe 1b69 5bbe
00000140: dab6 873d 9345 56be 65f0 eb3d d4b7 28be
00000150: c388 733d 8b72 80be e72a a7bd a8eb d2bd
00000160: ab2c 33be f8e5 72bd f8b2 48be b6a5 c53d
00000170: 185b 1b3d 5c6c d03b dd26 a83c 3cea 1cbe
00000180: 42e2 a03d e9c8 673e 6f44 ac3e 2734 b53b
00000190: b394 68bd 31f6 b33d ff4d 133e 8caf 91bd
000001a0: 3a2b a23d a990 ecbd 331f 133e df8e e03d
000001b0: 0a43 c8bd 3c30 b53c bf51 fd3d dc3b 59bd
000001c0: c10e 083e 844e 033d 3b30 9e3d 7815 ccbd
000001d0: f3fc 15be a997 373e 5f29 d43d fb21 f4bd
000001e0: 277f b43d 1621 aebc c917 c6bd 9793 3d3d
000001f0: fbfe 56bd 94ff 113e 478a 40be 30c4 08be
00000200: 6c60 5abe 24ea 50bd 5810 3a3e 1e88 013e
00000210: 1f6c 5e3d ed1b 5fbd a0f4 813d be79 063d
00000220: 9ae1 e33c f212 aabe 5704 0e3e 9ff2 283e
00000230: 9313 853d 46af 95be 36b4 353c 4fe0 a5be
00000240: b4b2 4d3e b59c 9fbd 7c93 6c3e ac14 253e
00000250: fd39 de3c 5a8c b73c 26ee d2bd 57c2 993d
00000260: b9ce e93d 52a8 d53d 4438 f93d 5211 473e
00000270: ee87 afbd 1a2a f8bc eaa8 773d d58d 93bd
00000280: fef4 6a3e 5fb6 803d a30a ac3d be37 cdbb
00000290: d6ca 48be 568b 59be e6bd 8d3e 1c94 81bc
000002a0: 30b9 2bbe 1d78 50be 1088 03be 1226 1dbb
000002b0: b939 143e 2f56 05ba f0a2 0cbe 37cf 74be
000002c0: 7828 a03e 4e32 0abe ad37 01be 025e 303e
000002d0: 5375 0abe 34ac 5d3d 7119 1bbe 4865 dcbd
000002e0: 5b19 823d 5423 ab3d fb8a 91bc b571 36bd
000002f0: bf4c 1a3e 0661 f9bd 6a9c e1bd b861 8fbc
00000300: 924f 5abd 4a00 0b3e 42f9 32be 05bf 0bbe
00000310: 824b 043e 5e3b ba3c 2f96 0cbe b26f d9bd
00000320: 59e9 dfbd 0204 31be d8c1 893e 7f92 d1bd
00000330: b2f4 d53c 7d88 b6bd bbaf 5dbe ea1a a03d
00000340: f572 023e 66c4 8bbd 5711 753e fd08 c9bd
00000350: 7e83 153e 6148 373e 0db3 8c3d cd11 103d
00000360: 6d64 e03d c53d f53d ddce 9bba f3be 86bd
00000370: 9786 6b3c 1d22 e23d 8439 75be 034f 04be
00000380: 0a18 453d 6cd1 423e 3d58 4c3e ddd9 6bbd
00000390: f6a3 443e 933d 853c a344 463e 2299 ba3d
000003a0: 0998 c83d c9be 10be beda 8dbd 31a9 ec3d
000003b0: f919 f2bd 2aca ce3c d2bc 51bd 54e2 0d3d
000003c0: 7bee 4ebd 276d db3d 9bd1 1bbe 3298 29be
000003d0: 212d f73d 4520 d33d 6a1b d73d caf4 66bc
000003e0: 3cef ccbd 50eb 3bbe 5a6d b5bd bb91 11be
000003f0: 953a 4ebe 1938 b7bc 2700 af3d b796 0fbe

encoder.egnn.layers.0.node_mlp.2.bias f4 [16]
-2.2822567e-05 2.269044e-05 -2.9018959e-06 -5.369977e-06 1.12078815e-05 -2.9823002e-07 -1.0246193e-05 -4.370932e-06
-1.2020508e-05 -6.623216e-06 -1.6335527e-05 1.1863626e-05 1.3175462e-05 -9.502871e-06 -6.045475e-06 -2.4048645e-06
00000000: 1773 bfb7 5957 be37 31be 42b6 c02f b4b6
00000010: 7c09 3c37 6c1c a0b4 10e7 2bb7 05aa 92b6
00000020: b0ab 49b7 fe3c deb6 4708 89b7 e309 4737
00000030: 2e0c 5d37 856e 1fb7 3cda cab6 4263 21b6

encoder.egnn.layers.0.coord_mlp.0.weight f4 [32, 32]
-0.09259239 0.0966242 -0.015486646 -0.009864683 -0.03809149 -0.005326337 -0.02065282 -0.07327951
0.0802915 -0.19033621 0.26892218 0.12714715 -0.27189064 -0.058596563 0.08505705 0.18121085
-0.14121708 0.04467885 -0.25873145 0.107015945 -0.08746736 -0.14274779 -0.103765145 -0.14627914
-0.14806482 -0.013997642 -0.11244009 -0.108727574 -0.29712045 0.3316153 0.18847564 -0.03287186
-0.02704661 0.0022987209 0.039354313 -0.0134977745 0.07155973 -0.08221205 -0.018117897 0.004435322
-0.13249226 0.028176695 -0.043472476 0.009298581 0.031187717 0.028497348 -0.079291984 0.12845579
-0.040617596 -0.027373511 0.06083863 -0.13847233 0.022002025 0.01734456 -0.0053696767 -0.0512932
-0.05180113 0.05655888 -0.033670973 0.0015908456 0.07663258 -0.022617457 -0.06929159 -0.108496666
0.1532865 -0.13072377 -0.0076919356 -0.13201712 0.044707604 -0.18075745 -0.011073192 -0.18868013
-0.0882997 0.10545583 -0.27822256 -0.12463448 0.17056346 -0.02309069 -0.075808264 -0.03728629
0.15495011 -0.18094043 0.031799305 -0.02698639 -0.15593961 0.00487622 -0.008648726 -0.053749725
-0.029129555 -0.14164782 -0.037576087 0.06761319 0.16555843 -0.12101956 -0.17775716 -0.05741708
-0.047184035 -0.058003318 0.22206232 -0.110942386 0.12341261 0.062466886 -0.031253174 0.018245457
-0.09131122 -0.12599346 -0.3592999 -0.047674604 0.32105133 0.05357987 -0.20821539 0.028542394
-0.06451355 -0.1596569 0.13691942 0.063970685 -0.12892865 -0.09684404 -0.025134904 0.038128722
-0.094042055 0.01240588 -0.13445613 0.04849354 0.302889 -0.24457248 -0.08908961 -0.1356576
-0.104774654 -0.14147784 0.1563563 0.08355459 0.03195638 -0.11783513 0.12403683 0.003475167
-0.15656576 0.014810212 -0.16194236 -0.08743194 0.16092616 -0.06099448 -0.23472084 -0.05846789
0.138849 -0.20945477 0.14898768 -0.017754262 0.07084437 0.044085857 -0.12765706 0.0030664548
0.10920451 0.10560943 -0.031942062 -0.12668538 0.26597163 -0.28954333 -0.34092134 -0.19723478
0.096694216 -0.02067601 -0.077832475 0.13985367 -0.020797184 0.16338053 -0.053561706 0.06987391
0.10952626 -0.013077785 0.20548572 -0.0041230954 -0.103305005 0.03396785 0.12909667 -0.08053663
-0.035134107 0.121764146 -0.023494242 0.03860156 0.06401239 -0.07070761 0.04231492 0.03856061
-0.015559677 0.01971013 0.0072601545 -0.020845857 -0.06647158 0.20021203 0.048217364 0.12701601
-0.119002916 0.010295851 0.10790171 -0.16159402 -0.10623959 0.0048612887 0.08814736 0.01861003
-0.08795258 0.13407578 -0.09119852 0.024547487 0.06884906 -0.04939525 -0.12621059 -0.13433984
-0.042720597 0.10650279 0.09562268 -0.21949741 0.038197532 -0.12992868 0.033925418 0.12213753
-0.009083127 -0.012268985 0.023713637 0.18004447 0.15278712 -0.021760697 -0.16012307 -0.08075719
0.11219889 -0.14496556 0.22898875 0.027550863 0.022701183 -0.18406135 -0.08321224 -0.120939724
0.08142424 0.010885488 -0.12724908 -0.24960668 0.107776955 0.09367655 -0.029470563 -0.15732768
-0.120723344 -0.010860184 0.18831284 -0.2568962 -0.15096208 0.13284186 0.10462067 0.057919037
0.054852277 -0.1317205 -0.022781594 0.15618695 0.20923056 -0.08200915 -0.09243133 -0.013270131
00000000: 14a1 bdbd e9e2 c53d b4bb 7dbc 7b9f 21bc
00000010: d205 1cbd 8e88 aebb 1a30 a9bc 9113 96bd
00000020: df6f a43d 7fe7 42be 2bb0 893e dd32 023e
00000030: 4035 8bbe f302 70bd 6432 ae3d 568f 393e
00000040: 369b 10be 2b01 373d 7378 84be 2d2b db3d
00000050: 1622 b3bd 7a2c 12be d282 d4bd 33ca 15be
00000060: 4e9e 17be 5e56 65bc fd46 e6bd 90ac debd
00000070: 2c20 98be 7bc9 a93e c2ff 403e a5a4 06bd
00000080: da90 ddbc 23a6 163b fd31 213d c525 5dbc
00000090: e88d 923d cb5e a8bd fc6b 94bc 2d56 913b
000000a0: 0dac 07be d0d2 e63c 3210 32bd 1359 183c
000000b0: 627d ff3c 4573 e93c d663 a2bd ea89 033e
000000c0: a35e 26bd 6a3e e0bc ed31 793d b1cb 0dbe
000000d0: 973d b43c 2e16 8e3c 1df4 afbb d218 52bd
000000e0: 6c2d 54bd 49aa 673d 93ea 09bd ec83 d03a
000000f0: 8bf1 9c3d 3f48 b9bc c0e8 8dbd 8033 debd
00000100: 23f7 1c3e 74dc 05be a20c fcbb 7f2f 07be
00000110: 521f 373d 7b18 39be 556c 35bc 5d35 41be
00000120: 79d6 b4bd 3af9 d73d 3073 8ebe 5d40 ffbd
00000130: 30a8 2e3e b028 bdbc 5d41 9bbd 82b9 18bd
00000140: 3eab 1e3e 7348 39be fd3f 023d 9012 ddbc
00000150: a2ae 1fbe b3c8 9f3b 63b3 0dbc ac28 5cbd
00000160: 1ba1 eebc 200c 11be 62e9 19bd c978 8a3d
00000170: 2688 293e 1ad9 f7bd f905 36be 2c2e 6bbd
00000180: 0c44 41bd e394 6dbd 4e64 633e c335 e3bd
00000190: c0bf fc3d 47dd 7f3d 5403 00bd 7f77 953c
000001a0: 6001 bbbd 6e04 01be 28f6 b7be 7246 43bd
000001b0: d760 a43e 9176 5b3d 6a36 55be bdd1 e93c
000001c0: ae1f 84bd 197d 23be 9b34 0c3e 1003 833d
000001d0: df05 04be 2b56 c6bd b7e7 cdbc dd2c 1c3d
000001e0: 1f99 c0bd 0842 4b3c deae 09be 2aa1 463d
000001f0: 4414 9b3e 3571 7abe 9d74 b6bd d3e9 0abe
00000200: 1894 d6bd 91df 10be de1b 203e ab1e ab3d
00000210: b1e4 023d 8b53 f1bd 0607 fe3d a1bf 633b
00000220: c652 20be 88a6 723c 38d4 25be 840f b3bd
00000230: d4c9 243e 59d5 79bd a95a 70be 077c 6fbd
00000240: 6f2e 0e3e 507b 56be 3a90 183e 6371 91bc
00000250: da16 913d 5f93 343d 88b8 02be 93f6 483b
00000260: 9da6 df3d c249 d83d aed5 02bd d0b9 01be
00000270: 6f2d 883e 063f 94be 3e8d aebe eaf7 49be
00000280: 9e07 c63d bc60 a9bc a266 9fbd cd35 0f3e
00000290: db5e aabc 3a4d 273e 8563 5bbd 0d1a 8f3d
000002a0: 4e4f e03d 3544 56bc d96a 523e 081b 87bb
000002b0: 9391 d3bd df21 0b3d eb31 043e 63f0 a4bd
000002c0: c8e8 0fbd 7b5f f93d ff76 c0bc ab1c 1e3d
000002d0: ee18 833d 27cf 90bd 6952 2d3d bbf1 1d3d
000002e0: 04ee 7ebc 2377 a13c 97e6 ed3b eec4 aabc
000002f0: 4022 88bd 6204 4d3e 927f 453d 7c10 023e
00000300: cdb7 f3bd eeaf 283c 92fb dc3d e778 25be
00000310: 2494 d9bd 724b 9f3b 9a86 b43d 1074 983c
00000320: 7b20 b4bd 294b 093e 4ac6 babd d017 c93c
00000330: bc00 8d3d ac52 4abd 593d 01be 6290 09be
00000340: cbfb 2ebd 221e da3d d3d5 c33d eec3 60be
00000350: 0475 1c3d 060c 05be 61f5 0a3d 3e23 fa3d
00000360: 65d1 14bc da03 49bc 1a43 c23c 945d 383e
00000370: 3a74 1c3e 7d43 b2bc 4df7 23be 0764 a5bd
00000380: 88c8 e53d da71 14be 077c 6a3e 59b2 e13c
00000390: d5f7 b93c 947a 3cbe 2e6b aabd 3faf f7bd
000003a0: c0c1 a63d 0c59 323c 954d 02be e598 7fbe
000003b0: 2aba dc3d 7ed9 bf3d 406c f1bc 821a 21be
000003c0: cd3d f7bd eaee 31bc 15d5 403e e687 83be
000003d0: ce95 1abe b207 083e 5d43 d63d 833c 6d3d
000003e0: c8ac 603d bde1 06be 77a0 babc 79ef 1f3e
000003f0: 8940 563e 6af4 a7bd a34c bdbd f76a 59bc

encoder.egnn.layers.0.coord_mlp.0.bias f4 [32]
-0.021258725 0.06973808 0.04156481 -0.03160567 -0.0013034373 -0.06343847 0.097156696 0.027878368
0.1298008 0.055216197 0.11778227 0.03116842 0.014238336 -0.07414014 -0.067175254 0.02672929
0.112806626 -0.10849919 0.04482671 0.059454728 0.015018797 0.11119058 0.08351676 -0.12900083
-0.01808769 0.025645683 0.12639372 -0.093875535 -0.11353176 -0.12218925 0.029181814 0.13525376
00000000: c726 aebc d7d2 8e3d dd3f 2a3d f274 01bd
00000010: 19d8 aaba 07ec 81bd 17fa c63d 2d61 e43c
00000020: 80ea 043e 612a 623d d537 f13d ea54 ff3c
00000030: e947 693c c9d6 97bd 2e93 89bd 62f7 da3c
00000040: 2907 e73d d334 debd 369c 373d cd86 733d
00000050: 6611 763c e3b7 e33d d60a ab3d cb18 04be
00000060: a32c 94bc e516 d23c 5b6d 013e d141 c0bd
00000070: 5783 e8bd 5c3e fabd b30e ef3c f67f 0a3e

encoder.egnn.layers.0.coord_mlp.2.weight f4 [1, 32]
-0.22144699 0.028745046 0.15897034 0.21095979 0.14657077 -0.047200505 0.071199104 0.18166599
0.12476863 0.07368759 0.16537733 0.17920223 -0.11164598 -0.15864821 -0.20617758 0.04585281
0.07485977 -0.1531158 0.06848291 0.067823656 0.0663953 0.17976362 0.08748366 -0.08371916
-0.14611733 0.13619529 0.16183892 -0.090248644 0.09751168 -0.045832086 0.13852333 0.13490222
00000000: 00c3 62be bb7a eb3c 1fc9 223e d805 583e
00000010: a616 163e 5155 41bd d6d0 913d a606 3a3e
00000020: b286 ff3d 85e9 963d ad58 293e ca80 373e
00000030: a6a6 e4bd ad74 22be 3720 53be 28d0 3b3d
00000040: 1450 993d 63ca 1cbe c540 8c3d 21e7 8a3d
00000050: 42fa 873d f413 383e a22a b33d f374 abbd
00000060: c89f 15be c776 0b3e 1ab9 253e 48d4 b8bd
00000070: 34b4 c73d 6dba 3bbd 0fd9 0d3e cf23 0a3e
