log/nbody/version_0/checkpoints/best_model_valid-epoch=217.ckpt (torch, 88756 bytes, 51 tensors)

vel2node_feat.weight f4 [16, 1]
000000 ce 6d 09 be 9c 68 a2 3d f2 94 27 3a d2 83 5c be
       -0.13420793 0.07930109 0.0006392739 -0.2153466
000010 27 ca 16 bd cb 46 0c 3e 5e eb a7 3b 60 1e ca bd
       -0.03681388 0.1369888 0.0051244935 -0.09869075
000020 85 ef 19 be dc c3 28 bd a9 37 88 bc 04 72 11 bc
       -0.15032776 -0.04120241 -0.016628103 -0.008877281
000030 44 30 a1 3c de 99 a8 3d ba b6 4f be 3d b6 e5 bd
       0.019676335 0.08232473 -0.20284548 -0.112164

vel2node_feat.bias f4 [16]
000000 60 d9 d6 be 8d 72 87 3e 8d 88 2c 3a 39 0b 39 bf
       -0.4196272 0.26454583 0.0006581627 -0.7228275
000010 e9 c3 77 bd 32 19 e1 3e 7b a1 4d 3c 6a b8 97 be
       -0.06048957 0.43964535 0.012550707 -0.29632884
000020 35 86 f9 be 52 66 69 bd 43 f1 ff bc 25 3d 54 bd
       -0.48735204 -0.056982346 -0.031242972 -0.051816124
000030 5a b1 99 3d e0 9e 82 3e df 79 2a bf 34 1b b0 be
       0.0750453 0.25511837 -0.6659221 -0.34395754

egnn.layers.0.edge_mlp.0.weight f4 [32, 33]
000000 71 25 08 3c f1 00 40 bb 12 f7 aa 38 3d 12 f0 3b
       0.008309708 -0.0029297436 8.152252e-05 0.007326393
000010 05 bd b5 3a f8 47 4a bb 42 81 6e b9 e6 72 fb ba
       0.0013865536 -0.003086565 -0.00022745601 -0.0019184023
000020 8d 62 3c 3c 9d 23 c9 ba ce f0 cd 3a 22 55 e0 b9
       0.011498106 -0.0015345697 0.0015712024 -0.00042788038
000030 f1 c9 09 ba 39 c7 70 3a 7e c3 4b 3c cd 24 e0 ba
       -0.0005256227 0.000918496 0.012436746 -0.0017100811
000040 9c eb 22 3c 8d 45 0b bb fe fe 59 38 e7 4a fe 3b
       0.009943869 -0.0021251172 5.197431e-05 0.007760394
000050 43 60 e6 3a 62 bb 8d bb ba 8e 96 ba 1d 93 83 bb
       0.0017576296 -0.0043253163 -0.0011486628 -0.00401534
000060 5c 9b 3f 3c 7e 18 c6 ba a9 bc 27 3b 75 da ce b8
       0.011694755 -0.00151135 0.0025594628 -9.863536e-05
000070 31 07 1c 3b e0 5f 5c 3b 0f d0 5e 3c 10 0b 7e bb
       0.0023807997 0.0033626482 0.01359941 -0.0038763918
000080 88 45 3d 3d 55 64 51 3c 8a 3f eb bc cb 84 2d 38
       0.04620889 0.012780269 -0.028716821 4.1370087e-05
000090 41 77 5a 3d 78 1d 2d 3c f3 4c 18 bd f9 97 89 3a
       0.053336386 0.010566108 -0.03718276 0.0010497562
0000a0 fc 68 99 3d dc 5b 84 3c 9b d6 6d 3c ee 44 92 3b
       0.07490727 0.016157083 0.014516498 0.0044637835
0000b0 52 bd 88 3a 2b fd 1c bd b4 45 79 bd 04 10 14 3d
       0.0010432398 -0.038327377 -0.06085749 0.036148086
0000c0 4f 91 8b 3d 38 c0 5b 3c 89 21 e9 bc e1 32 e0 37
       0.06814825 0.013412528 -0.028458374 2.6726573e-05
0000d0 fb 1e 5b 3d 7a 6b 2e 3c d4 95 1d bd 70 e1 2c 3a
       0.053496342 0.010645742 -0.038472965 0.0006594872
0000e0 64 c9 97 3d 49 4e 84 3c 8b c6 6a 3c 4e 76 9e 3b
       0.07411459 0.01615061 0.014329563 0.0048358804
0000f0 61 5b a1 3a 90 c1 13 bd 73 5a 77 bd 2c 37 13 3d
       0.0012310558 -0.036073267 -0.060388993 0.035941288
000100 e3 c4 89 3d 94 bc e6 bd 4d 2c 25 3c b0 3d a4 bc
       0.06727006 -0.11266437 0.010081363 -0.020048946
000110 f4 d9 11 38 92 09 1b 3d 79 88 8b 3b 87 8b bb bc
       3.477368e-05 0.037850924 0.004258212 -0.02289368
000120 85 43 fc 3a 39 79 b6 3c b8 5f 62 3c 26 02 cf 3a
       0.0019246197 0.0222746 0.013816766 0.0015793487
000130 bd a1 74 3b 39 ff 02 ba 22 fc 9b bc ae 38 bc bc
       0.003732785 -0.00049971376 -0.019041125 -0.022976246
000140 7a b0 0a 3d 8c 38 c4 3c 9e b2 42 3c f3 ab b1 bc
       0.033859707 0.023952745 0.011883406 -0.021688437
000150 4a 22 11 b7 61 13 29 3d c7 cb 99 3b 16 c2 f0 bc
       -8.650657e-06 0.041278247 0.0046934816 -0.029389422
000160 2f 7b 26 3a ba 60 d1 3c 11 8a 5d 3c 96 51 ac 3a
       0.0006350753 0.025558818 0.013521687 0.0013146873
000170 40 69 a3 3b 11 91 60 b8 ef 07 89 bc 3e cb d2 bc
       0.004986912 -5.3540865e-05 -0.016727416 -0.025731679
000180 9e 9b 10 3d 7b f8 d9 3c 0d 2d d0 bc 85 24 d7 bc
       0.035304658 0.026607743 -0.025412107 -0.026262531
000190 9e f5 20 3d 90 3b 29 b7 52 2f 9f bd 65 23 6e bc
       0.03929674 -1.0087053e-05 -0.077726975 -0.014534806
0001a0 44 f3 5b 3d 45 7a 5f ba b8 a2 ed bd ad bb 03 bd
       0.053698793 -0.00085249945 -0.11603302 -0.032161403
0001b0 9a 21 ad bc 56 e3 b9 bb fb 1c 1d bb 35 37 33 3d
       -0.021134187 -0.0056728525 -0.0023973573 0.04375382
0001c0 2f 16 a3 3d 2f 9c 74 bd 6a fa c4 bd 96 a7 d3 bc
       0.079632156 -0.05971926 -0.09618075 -0.025836747
0001d0 90 ff 1f 3d 80 3a 55 b6 1b 2f 9e bd a3 e9 6e bc
       0.039062083 -3.1773525e-06 -0.077238284 -0.0145820705
0001e0 df ae 5c 3d cd d3 3f ba 63 b8 ee bd d4 bc 00 bd
       0.053877708 -0.00073176326 -0.11656263 -0.03143008
0001f0 01 f3 ac bc 8c 2e bf bb f8 f1 21 bb f5 47 31 3d
       -0.021111967 -0.0058344062 -0.0024710875 0.043281514
000200 51 c5 a3 3d b1 d2 71 bd 85 5c c4 bd 2b f2 39 3e
       0.079966195 -0.05903882 -0.09587959 0.18158786
000210 08 b2 52 3c 66 b1 d9 bc dd e7 02 38 44 02 4e 3d
       0.012859829 -0.026573848 3.1210355e-05 0.05029513
000220 e5 2d 2c 3c 77 69 0f bd 51 b0 89 3a c2 47 ad 3d
       0.010508989 -0.03501269 0.0010504817 0.08460952
000230 fb 1e 85 3c ae 0f 79 3c 7b 54 8a 3b be 09 97 3a
       0.016250124 0.015201492 0.0042214966 0.0011523289
000240 f2 7b 0d bd 24 ca 82 bd df 26 11 3d 78 c4 84 3d
       -0.03454203 -0.063862115 0.03543746 0.06482786
000250 84 18 59 3c 0f 2c d8 bc 6f d7 9c 37 dc 3d 4e 3d
       0.013250474 -0.026388196 1.8696968e-05 0.050351962
000260 19 36 2d 3c 4a 6f 13 bd 0b 56 46 3a e4 55 b1 3d
       0.01057198 -0.035994805 0.0007565922 0.086589605
000270 01 00 84 3c 4b f9 76 3c 51 d1 93 3b e7 47 ac 3a
       0.016113283 0.0150740845 0.0045110364 0.0013143987
000280 f4 b3 06 bd a6 d8 86 bd 14 3f 10 3d 8e 8b 94 3d
       -0.03288646 -0.06584291 0.035216406 0.072531804
000290 c7 ae f2 bd f0 d2 e6 3c 98 7b 59 bc 18 4d 3e 3a
       -0.118497424 0.028176755 -0.013274096 0.00072594127
0002a0 59 a0 4a 3d 27 ec 25 ba 83 8a 94 ba cb 33 0d 3c
       0.049469326 -0.000632944 -0.0011332784 0.008618305
0002b0 53 5d 85 bc e7 65 4e 3d 8d 20 f4 bb 98 1e 3f bc
       -0.016279852 0.05039015 -0.0074501694 -0.011665009
0002c0 64 35 65 bb f7 17 84 bc 36 e1 9a bc c2 12 5d 3d
       -0.003497445 -0.016124709 -0.018906217 0.053972967
0002d0 00 ca 01 3d 68 f4 92 3c 5d 7b 25 bc cb 83 67 3a
       0.031686783 0.017938808 -0.010100213 0.00088315894
0002e0 d8 de 40 3d b4 25 a1 37 38 3c 8c bb f1 9b 3a 3c
       0.04708752 1.9210253e-05 -0.0042796396 0.011389718
0002f0 9b 37 1d 3d e8 b3 29 3d 2b 14 b5 bb 3b cc 3d bc
       0.038383108 0.041431338 -0.005526086 -0.011584337
000300 f4 de a3 bb ea 74 87 bc 9a 82 93 bc bf 5b 42 3d
       -0.0050009433 -0.016535241 -0.018006612 0.047450777
000310 43 d7 36 3d 8d cc 82 3f 4d 2b 50 3d b9 f9 53 bd
       0.044638883 1.0218674 0.050822545 -0.051751826
000320 c0 d3 e3 b7 2b 92 f8 3d 1d f3 83 bc b4 e1 03 bd
       -2.7159113e-05 0.12137254 -0.016107136 -0.03219767
000330 61 9b 9a 3b f3 8c 97 3c 3a 5f a0 3d d4 d5 a6 bc
       0.0047182296 0.018499827 0.07830663 -0.020365633
000340 4d b7 0b bc 67 e9 75 bb cb 19 a6 3c 2c ea e8 bc
       -0.008527589 -0.0037523152 0.02027597 -0.028431974
000350 ef ee e8 3d a9 29 14 3d 71 55 b5 3d 5c 70 bf bc
       0.11373698 0.036172543 0.08854187 -0.023369007
000360 85 20 03 ba 2f b9 ea 3d 8b 78 90 bc a7 d1 88 bd
       -0.0005002099 0.11461102 -0.017635604 -0.06680613
000370 15 60 25 bc a3 ac b7 3a 5a e3 c1 3d 43 cf 07 bd
       -0.0100937085 0.0014013242 0.09467192 -0.033156645
000380 fa 41 41 bc 55 91 ff 3b c0 b7 4d 3c d8 a0 25 bc
       -0.011795515 0.0077993074 0.012556016 -0.010109149
000390 d2 8c f7 3d d5 92 1d 3d bb e6 2e 3e 9c eb 6a 3c
       0.12087406 0.038470108 0.17080204 0.0143384
0003a0 c4 a7 e2 bc 3d 9c de 37 ee 1e 56 3d 8f d9 35 3c
       -0.027667888 2.6537216e-05 0.05227559 0.011099233
0003b0 64 38 16 bd 42 26 85 3a 8d ad b9 3d 0d 8e 93 3c
       -0.036674872 0.0010158496 0.09066305 0.018012071
0003c0 e1 c9 84 3c ca f5 8f 3b 27 54 b3 3a 08 d6 0e bd
       0.016209545 0.004393314 0.0013681696 -0.034872085
0003d0 a8 7b 7e bd 21 e8 1b 3d 6e 93 97 3d 38 99 6f 3c
       -0.062129647 0.038063172 0.07401167 0.014623933
0003e0 ce 3c e0 bc a1 d4 80 37 42 36 55 3d 58 be 36 3c
       -0.027372744 1.5357802e-05 0.052053697 0.01115378
0003f0 b4 34 18 bd cf 44 47 3a 04 b7 ba 3d a1 e6 91 3c
       -0.037159637 0.0007601501 0.09116939 0.017810168

egnn.layers.0.edge_mlp.0.bias f4 [32]
000000 22 0e c7 bb f3 c2 be bd c5 84 91 bd 8a 17 f2 3d
       -0.006074683 -0.09314527 -0.07105402 0.11820896
000010 c7 58 b1 bd 10 6c cd bd 8c 5f 5f be 29 f9 ae bd
       -0.08659511 -0.10030377 -0.21813792 -0.08543617
000020 a8 a8 a9 bd 6a d9 0f 3d dc 47 19 3d d0 de 17 bb
       -0.08284122 0.03511945 0.037422046 -0.0023173578
000030 5a 76 fa 3c 1e fc 93 bd 5e 09 df bd 88 2d 8d 3c
       0.030574013 -0.07225822 -0.108904585 0.017233625
000040 90 f1 1f be dc 3d 12 3e b7 30 9c bd dc 38 f8 bc
       -0.15619493 0.1428141 -0.07626479 -0.03030055
000050 29 23 7a 3c 7f 62 d4 3d 8c 83 eb bc 17 25 1f bd
       0.015267172 0.10370349 -0.02874925 -0.03885373
000060 b4 f3 12 3d 1b 9e c0 3c e3 e6 9b bd 59 99 7a bd
       0.035876945 0.02351289 -0.076123975 -0.0611814
000070 b4 f4 7e be f7 20 b4 3d fc 06 3e be 9a 20 8f 3c
       -0.24898034 0.0879535 -0.18557352 0.0174716

egnn.layers.0.edge_mlp.2.weight f4 [32, 32]
000000 60 db 2c bd 3d ca 41 bd c5 95 88 bc c9 90 ae 3d
       -0.0422014 -0.04731201 -0.016672978 0.08523709
000010 df 00 3d bd ae 75 5d bd c7 9f 31 be 38 ce 29 bd
       -0.04614341 -0.054067306 -0.17346106 -0.04145643
000020 c2 fb ba bd 01 92 3e 3d 30 3f 91 3d c6 94 fe 3b
       -0.0913005 0.04652596 0.0709213 0.0077692
000030 f0 cc 8f bc db 66 db 3b f3 b7 80 bd b9 d3 ee 3c
       -0.017553777 0.006695611 -0.062850855 0.029153692
000040 53 51 1f 3c f9 01 c7 3d 9d e2 d9 bd 72 97 48 bb
       0.009723979 0.09717173 -0.10638926 -0.0030607847
000050 c7 98 2a bd 77 da 2b 3d 57 04 d7 bc 7f 0c 8f bd
       -0.041649606 0.04195639 -0.026247187 -0.06984805
000060 c2 1f 75 3c 33 f9 5e 3d 8c dc 4f bd db a4 2b bd
       0.014961185 0.054436874 -0.05074744 -0.041905265
000070 18 e6 4e bd 92 37 ca bc 0b 55 b5 bd d0 f4 21 bd
       -0.050512403 -0.024684701 -0.08854111 -0.039540112
000080 b2 2d 2c bc 25 21 9b bc fa f1 b6 3c 87 dc 77 bd
       -0.0105089415 -0.018936703 0.02233218 -0.060513046
000090 59 55 49 3c 44 bb 48 3d f8 1d 9d 3d 07 9d c4 3d
       0.012288415 0.049006715 0.07671732 0.09600263
0000a0 d1 f7 36 3d f6 4e c8 bb 8a e8 9e bc 5a d3 0d 3d
       0.04466993 -0.0061129285 -0.019397993 0.03462539
0000b0 62 cc d4 bb 17 2c 39 3c 23 7b ad 3c b8 c2 1c 3c
       -0.006494091 0.011302016 0.02117688 0.009567909
0000c0 2f 67 62 3d 91 c6 dc bd 05 5c 82 3d 04 84 f3 3c
       0.055274185 -0.10780061 0.063652076 0.029726036
0000d0 0e 8d cc 3b c8 89 77 bd 25 2a 86 3d 85 52 32 bc
       0.006242401 -0.060434133 0.06551007 -0.010883932
0000e0 c3 71 98 bd 2b 17 d1 3c 70 d2 cd 3b 75 09 04 3c
       -0.07443573 0.025523743 0.0062811896 0.008058895
0000f0 82 81 fe 3d 56 96 25 bd 53 f8 6c 3d 87 b9 37 3a
       0.124270454 -0.040426575 0.057854008 0.0007008542
000100 23 ca ca 3c 6e 71 74 3d ad 4d 04 3d 82 63 99 bc
       0.02475459 0.059678487 0.03230064 -0.018724207
000110 cb 66 b4 3d f5 d7 8e 3d 7f 05 4b 3d 52 5d bd 3d
       0.08808669 0.06974784 0.04956579 0.09246315
000120 e4 b0 db 3c c1 92 b3 3c 28 ee 35 3d 80 5e 14 3a
       0.026817746 0.021920564 0.044416577 0.00056598336
000130 1a 07 3d bc 53 ec 3f 3d 8e 1b b9 3d 4d 8b 23 bb
       -0.011537338 0.046856236 0.09038459 -0.0024954856
000140 e9 d9 51 3d 15 7e 16 bd a0 a6 d2 3c d7 04 88 3c
       0.051233206 -0.036741335 0.025714219 0.01660387
000150 f3 9f c3 3c c6 54 ac bd d7 6d 06 bd 75 5e ae 3c
       0.02387998 -0.08414607 -0.032819595 0.021285275
000160 b3 c4 d5 bc 8f 5f 73 bb 19 8f 6e bb f5 4f fa 3c
       -0.02609477 -0.0037135815 -0.003640121 0.030555705
000170 aa 49 6a 3d d9 c9 81 bd a6 ba a5 3d 78 25 1d bc
       0.057199158 -0.063373275 0.08092241 -0.009591453
000180 65 e3 f9 bb be 90 11 3c de 05 0d 3c fd 9c 27 bd
       -0.0076259845 0.008884607 0.008607356 -0.0409212
000190 cc 9f 2d 3c c6 c6 e7 3d da 0b b8 3d 31 a8 86 3d
       0.010597181 0.1131721 0.089866355 0.06575049
0001a0 b1 19 cb 3b df 8e aa bd b7 a2 85 bd e9 72 4d bd
       0.006198131 -0.08328032 -0.06525176 -0.050158415
0001b0 38 ec ff bc ac 63 94 3d ab ba ae 3d 5f 5b fe bc
       -0.031240568 0.072455734 0.08531698 -0.031049429
0001c0 b1 9d d9 3d 9b b3 8e bd 27 88 17 3d 33 a4 7d 3d
       0.106257804 -0.06967851 0.03699508 0.06192417
0001d0 e1 36 a3 3d 77 f7 a2 bd 2b f8 06 3d 19 cf d2 3c
       0.07969452 -0.079573564 0.032951515 0.025733517
0001e0 09 20 7c 3d 55 aa 67 3a ea 09 3d 3d 5c 5f 3a 3d
       0.06155399 0.0008837332 0.046152033 0.045501098
0001f0 1f f5 0c 3e b7 a4 94 bd 75 92 02 3e d4 db f8 bc
       0.13765381 -0.07257979 0.12751181 -0.03037826
000200 dc 68 5e b8 06 86 00 bd 6e f2 23 bb 41 a2 c3 3d
       -5.3026582e-05 -0.031377815 -0.0025016326 0.09552432
000210 e3 bc b1 bc 95 30 93 bd 56 86 52 bd 7c 59 7c bd
       -0.021696514 -0.07187001 -0.051397644 -0.061608776
000220 59 06 93 bc 44 5b 0e 3d 4e 48 36 3d 25 d2 90 bc
       -0.017947363 0.034755006 0.04450255 -0.01767833
000230 5a 2c 99 ba cb f7 d9 bc 54 c6 32 bd 8b 46 2f b9
       -0.0011686191 -0.026607415 -0.04364617 -0.0001671558
000240 1a 41 7b 3c 41 fd ae 3d 6f 50 1a bd 0c 9c d9 bb
       0.015335346 0.08544398 -0.037674364 -0.0066409167
000250 0f 81 94 3c d4 76 60 3c c0 26 9d 3c 05 b1 aa 3c
       0.018127946 0.013700206 0.019183517 0.020836363
000260 09 5a 8c bc 73 6b fe bc b8 10 2b bd a8 c3 a8 bb
       -0.017132776 -0.031057095 -0.04176399 -0.005150277
000270 b7 22 17 bd 05 17 23 3d 1d 5a 1c bd 57 d5 fd 3c
       -0.03689834 0.039816875 -0.038171876 0.030985517
000280 d6 20 92 bb bf 0f ce 3c 21 5a e8 b9 0c 9c f0 bc
       -0.0044594808 0.025153993 -0.0004431764 -0.029371284
000290 b8 e2 56 bc f1 0d b5 3d 92 91 0c 3d 4d 40 52 bd
       -0.013115577 0.0884055 0.034318514 -0.051330853
0002a0 7e b8 08 3d f8 a0 af bd 61 a7 2d bc 9b e9 3a 3c
       0.03337907 -0.08575624 -0.010598988 0.011408235
0002b0 f6 c3 7c bc 5d 41 99 3c 86 d4 20 3c 62 4b 96 bb
       -0.01542758 0.018707925 0.009816295 -0.004586623
0002c0 d2 95 bb 3c e4 43 67 bd 18 d1 93 3d 01 3f 26 3c
       0.022898588 -0.05646123 0.07217616 0.010146857
0002d0 90 66 aa bc fb 68 84 bc 13 af 9d 3c 42 fe 3a bd
       -0.020800859 -0.01616334 0.019248521 -0.045652635
0002e0 11 60 83 bd e7 53 2c 3c c7 ff 9e 3d a9 f0 95 3c
       -0.064148076 0.010518051 0.077636294 0.018303232
0002f0 1f 88 2f 3d 05 50 9d bb 9f 1b 8b 3d b3 7a 7e 3b
       0.042854425 -0.004800799 0.06792378 0.0038830459
000300 cb 7b ad 3b dc 67 e7 bc e0 7f a6 bb b2 bd d5 3d
       0.0052942983 -0.028247766 -0.005081162 0.10436572
000310 54 d9 16 3d 96 fe ef bd a8 54 9c bd 6e 8e 03 3d
       0.036828354 -0.1171848 -0.076333344 0.032118253
000320 58 fe 91 bc 56 0b a3 3c 48 c8 87 3b c4 47 b8 bc
       -0.017821476 0.019902866 0.0041437484 -0.022495158
000330 2c d5 13 3d 1c ac 8c bc 84 f4 3e 3a 02 30 cd bc
       0.03609197 -0.017171912 0.00072843605 -0.025047306
000340 37 44 7f bd 30 c0 9e 3d ad d3 62 bd 97 2d 1e bd
       -0.062320914 0.077515006 -0.05537765 -0.038617697
000350 16 2a cb 3c ba f4 b1 3d 27 48 85 bd 8c cf ae bc
       0.024800342 0.08689256 -0.065079026 -0.0213392
000360 2e f4 84 3d 00 1b 15 3d 77 b1 ce bd e7 92 8f 3c
       0.06491886 0.036402702 -0.100924425 0.017526103
000370 5d d4 8f bd b9 b8 6b 3d fe 0a f5 bd 7a ac 26 3d
       -0.07022927 0.057549212 -0.11964987 0.04069183
000380 0f 7b 11 bc 8c 9a 5f 3b bb f3 be 3b 6d c4 39 bc
       -0.008879437 0.0034119217 0.005827395 -0.011338335
000390 9f dc 7a 3c 87 7f ca 3c 69 51 09 3d 50 79 3b 3c
       0.015311389 0.024719013 0.033524904 0.011442497
0003a0 5e 98 cb 3c a2 30 84 bc 9c 9d 74 3b b5 d7 c9 3b
       0.024852928 -0.016136471 0.0037325388 0.0061597475
0003b0 0c e7 d5 bb 06 25 8d 3c 3d 34 10 3d e8 98 07 bc
       -0.006527787 0.017229568 0.03520607 -0.008276202
0003c0 97 e3 f5 3c f3 1c 27 bd 74 24 24 3d f0 92 b1 3a
       0.03001575 -0.040799093 0.040073827 0.0013547819
0003d0 c1 13 8f bc 9b 9a e6 bc a1 f1 1a bc 0c 66 d0 3a
       -0.017465474 -0.028149894 -0.009457023 0.0015899553
0003e0 b8 f9 51 bc b8 0c b5 3c 49 42 29 3d bd 89 88 3c
       -0.012815885 0.022100791 0.04132298 0.016667241
0003f0 d6 9e 1e 3d d1 7b f5 bb 45 0e 59 3c 39 9d 01 bc
       0.038725697 -0.0074915667 0.013248031 -0.00791102

egnn.layers.0.edge_mlp.2.bias f4 [32]
000000 79 2d bd 3d 1f 62 a5 bd bf e4 6e bd 82 0c ff bd
       0.09237189 -0.08075356 -0.058323618 -0.124535576
000010 63 2d 34 3d 5d 7e e8 bd 4c c1 1f 3d af 32 04 bd
       0.043988597 -0.11352227 0.0390027 -0.0322749
000020 d5 3b c7 bb 5a 3d 90 3d fb c3 eb 3c a7 d9 bd bc
       -0.0060801306 0.07042952 0.028779974 -0.023175074
000030 1a bf 9b 3d 03 56 4c bc e6 61 cd 3d 84 f0 a1 3d
       0.07604809 -0.012471679 0.10028438 0.07907203
000040 3d 67 1f 3d 42 1d 13 be 97 29 bd 3c fa fc 8e bd
       0.038916815 -0.1436663 0.02309112 -0.06981845
000050 ac fa b0 3d 1d a4 b0 bc 24 6e c8 bd d4 0c b0 3c
       0.08641562 -0.02156263 -0.09786633 0.021490492
000060 81 cd 2c bd 95 76 a1 bd bd 99 3c bd 98 52 86 bc
       -0.04218817 -0.07883946 -0.046045054 -0.016396806
000070 c4 b6 c8 3c 9f c0 43 bd f7 84 66 3d 23 bc cb bc
       0.024501212 -0.04779112 0.05627915 -0.024869984

egnn.layers.0.node_mlp.0.weight f4 [32, 48]
000000 74 3c 0d ba bd 1a 02 3a 9e 1e 16 36 dc 5e 7c ba
       -0.00053877314 0.0004963091 2.2369563e-06 -0.0009627172
000010 2e 0a 73 b9 28 7b 2d 3a 4d cf 2e 37 65 03 df 39
       -0.00023178078 0.0006617778 1.0419474e-05 0.00042536404
000020 a5 11 1a ba 16 26 8d b9 78 73 e9 b8 37 ad 23 b8
       -0.0005877263 -0.00026921992 -0.000111318135 -3.9023547e-05
000030 b1 63 89 39 d5 de da 38 3f 89 7a ba 49 6f 3d b8
       0.00026204952 0.00010436556 -0.00095571944 -4.5164754e-05
000040 db eb 4c b9 f3 04 19 38 ac 16 f5 37 05 a8 73 b6
       -0.00019542819 3.6482652e-05 2.9216833e-05 -3.6307622e-06
000050 53 8e c6 b8 b6 14 e0 38 f0 cf bb b6 b6 f5 26 38
       -9.467886e-05 0.0001068501 -5.5972414e-06 3.980632e-05
000060 e5 68 45 38 89 68 b8 b8 02 41 be 37 f4 00 9d b8
       4.706615e-05 -8.793275e-05 2.2680037e-05 -7.486521e-05
000070 9d da 1f b9 cb 78 99 b8 22 2e 1f b8 95 3e 73 b9
       -0.00015244861 -7.318108e-05 -3.795152e-05 -0.000231976
000080 d6 20 53 b8 e2 71 3f 39 df d5 3a bb 89 78 8e 38
       -5.03369e-05 0.00018257604 -0.0028508825 6.793539e-05
000090 4f 40 36 37 e4 de a0 ba c6 3b 8f 3a 6b e9 0f b8
       1.0863018e-05 -0.0012273458 0.0010927848 -3.4311244e-05
0000a0 18 25 cc 37 1f d9 5b 3a 4a 0e c2 38 e1 ba 45 3b
       2.4335968e-05 0.00083865406 9.2533024e-05 0.0030171203
0000b0 5f 92 04 bb 21 5f eb 38 67 55 95 ba c2 56 23 39
       -0.0020228846 0.00011223392 -0.001139325 0.00015577211
0000c0 ac 1d 40 3d 0a 66 25 bd 57 74 4d ba 7f fb c3 3d
       0.046903297 -0.040380515 -0.00078374654 0.095694534
0000d0 30 c2 d1 3c de 02 83 bd 53 f7 ef 37 f0 91 73 3d
       0.025605291 -0.06397031 2.860619e-05 0.05946535
0000e0 5f 7e 5a 3d 9c 4a 0c 3d 04 f1 05 3c 9e f1 a8 3b
       0.053343173 0.03425084 0.008175138 0.005155756
0000f0 1c 15 aa bc 05 c1 4b bd 0f 66 ae 3d 88 53 82 3d
       -0.020762019 -0.049744625 0.0851556 0.063635886
000100 03 d0 e3 bc 72 25 61 3d 4a 1e 4e 3d 2e a1 94 3d
       -0.027809149 0.05496735 0.050321855 0.07257305
000110 84 eb b5 bc 10 5d b9 3c b5 4f 76 bd b4 08 9b 3c
       -0.02220703 0.022627383 -0.06013461 0.018925048
000120 be 18 5b bc 0b 9d 5b bd d3 18 0a bd e1 1d 00 3d
       -0.013372598 -0.053616565 -0.03371508 0.031278495
000130 8a 5e 45 bd 62 48 1c bd 0b 8c 4a bd e7 ba 14 bd
       -0.048185863 -0.038154967 -0.04944996 -0.036311056
000140 a6 96 44 bd 7b 8c 47 3d 5d c8 bd 3d a8 50 2f 3d
       -0.047995232 0.048717957 0.09266732 0.04280153
000150 d5 9f 88 bd a3 06 0f 3d 7b 7a 46 bd 67 0e 8d bd
       -0.066711105 0.03491844 -0.04845665 -0.06887513
000160 08 82 df 3c e8 b9 44 bc a7 39 18 3d 69 07 bd bd
       0.027283683 -0.012007214 0.037164357 -0.09229929
000170 54 e4 a8 3d 78 d0 1c 3d 1b 5f 6c 3d 71 bf 47 3d
       0.08246675 0.03828475 0.057707887 0.048766557
000180 4d 7f 87 ba 01 e1 8c 3a 3d c4 97 36 28 24 04 bb
       -0.0010337621 0.0010748209 4.522996e-06 -0.0020163152
000190 01 fa 06 ba 98 4a bd 3a a4 41 e9 b5 ff 82 c8 ba
       -0.0005148948 0.0014441786 -1.7378957e-06 -0.0015297829
0001a0 44 bf 95 ba 39 fc 28 ba df 14 6e b9 93 b5 9e b8
       -0.00114248 -0.00064462755 -0.00022705224 -7.567848e-05
0001b0 73 fa 5c 3a 2a 56 a9 3a 6c f6 02 bb 8e a8 c4 ba
       0.0008429654 0.0012919356 -0.0019983305 -0.0015003846
0001c0 e6 a7 38 ba ee 30 4a b8 9e 50 fd b7 f5 c1 94 37
       -0.0007044062 -4.8206122e-05 -3.019749e-05 1.7733293e-05
0001d0 7a 21 9f b8 80 03 dc 38 3f 75 8d b8 05 04 10 b8
       -7.587946e-05 0.000104910694 -6.745243e-05 -3.433602e-05
0001e0 70 66 4b 39 e4 7d 59 37 66 c0 4a 39 75 5b da b9
       0.0001939775 1.2963519e-05 0.00019335895 -0.0004164834
0001f0 d9 a6 cb b9 95 d5 10 b9 83 44 34 b9 82 65 87 b9
       -0.00038843488 -0.00013812476 -0.0001719166 -0.00025824836
000200 25 56 ce 37 76 b0 9e 39 57 a8 71 bb 00 11 bd 36
       2.4597228e-05 0.00030267582 -0.003687402 5.634618e-06
000210 db 57 50 37 28 ac 26 bb ad d8 16 3b ba ec ac 38
       1.2418222e-05 -0.0025432203 0.0023017332 8.245693e-05
000220 fe 27 ed b8 f0 40 e3 3a cd f5 4c 38 ae 77 75 3b
       -0.0001130849 0.0017338078 4.886631e-05 0.0037455368
000230 ab fb 4f bb 00 0d a9 39 6b 54 16 bb b5 7e b9 39
       -0.00317357 0.00032243878 -0.00229385 0.00035380354
000240 65 74 c3 bc 12 78 29 bb ec 10 db 38 f3 14 e1 bc
       -0.023859212 -0.002585892 0.00010445886 -0.02747581
000250 de 93 e1 3a 13 20 bf 3b b7 08 a1 3a aa 14 21 3d
       0.0017210206 0.005832681 0.0012285922 0.039326347
000260 b9 4c ea bc d2 57 fe 3a 64 df 9f 39 aa 42 13 38
       -0.028601037 0.0019404835 0.00030493282 3.5109617e-05
000270 14 33 b3 bc 5a cb de bc 22 61 fe bc ce d8 ec 3c
       -0.021874942 -0.027196575 -0.031052176 0.028911974
000280 bc 4d d3 3b f1 b1 c7 bb 91 2a 1b bc 51 b2 0f bc
       0.0064484756 -0.0060942103 -0.009470598 -0.008770541
000290 d5 db 28 3c d0 70 40 bc 1b 6b 30 3c e7 e5 ca bb
       0.010306318 -0.011745647 0.010767723 -0.0061919573
0002a0 67 29 b3 bb c6 e2 a6 3b 43 d6 0c 3c dd bf 77 3b
       -0.005467582 0.0050929515 0.008596006 0.0037803568
0002b0 24 28 de 3b a1 b0 27 bb c1 86 df 3a 04 fe ee 3a
       0.0067796875 -0.0025587457 0.001705371 0.0018233662
0002c0 2e 1f 02 3a 42 cb bf ba 4b 53 cc 3d f2 9a 2a bc
       0.00049637526 -0.0014632719 0.099768244 -0.010412918
0002d0 08 32 d6 3b 3b d4 cf 3a 43 f1 ae bc 5d c0 bb 3b
       0.006536726 0.0015856096 -0.021355277 0.0057297186
0002e0 11 4f 49 39 de 3f ac ba 21 56 b8 b9 cb 49 e4 bd
       0.00019198308 -0.0013141592 -0.00035159386 -0.111468874
0002f0 36 64 73 3d a8 85 5e bc ff c1 ff 3c 6b 74 16 bc
       0.05942174 -0.013581671 0.031220434 -0.00918303
000300 73 45 a0 ba 45 da b9 3a 5c 86 d3 36 fe 54 27 bb
       -0.0012227729 0.0014179429 6.3039315e-06 -0.0025532837
000310 10 f0 35 ba 9f 81 f8 3a 17 cc 71 b8 30 a3 42 bb
       -0.0006940374 0.0018959529 -5.764895e-05 -0.0029699318
000320 e6 ba af ba ea a2 67 ba f0 50 a4 b9 f7 56 ca b8
       -0.001340714 -0.0008836227 -0.0003134082 -9.648309e-05
000330 6a 4b aa 3a 3c 6f 0e 3b 04 f7 20 bb c4 f5 26 bb
       0.0012992446 0.0021733781 -0.0024561295 -0.0025476078
000340 7e 62 35 ba 62 d1 f6 b9 10 9a b8 b9 5e e4 da b9
       -0.00069192785 -0.0004707678 -0.0003521 -0.00041750347
000350 88 0d dc 37 1e df 41 b7 fd de 91 39 88 13 09 b8
       2.6232345e-05 -1.1555645e-05 0.00027822694 -3.2681535e-05
000360 72 0a be 39 be f6 f9 39 17 d1 d4 39 e8 d7 4f ba
       0.00036247406 0.00047676818 0.00040591575 -0.0007928596
000370 b1 4d d7 b8 ed b5 28 39 44 d3 16 39 e3 7a 3b 39
       -0.0001026647 0.00016089501 0.00014383817 0.00017879489
000380 e6 33 e0 39 5f a9 c1 b8 ee 31 66 bb 25 a3 a1 b9
       0.00042763277 -9.234505e-05 -0.0035124975 -0.00030829865
000390 e5 67 e1 39 cf 9d 56 bb c2 c6 48 3b a3 74 19 3a
       0.00042992752 -0.003274787 0.0030636047 0.0005853867
0003a0 32 eb 97 b9 66 f3 0b 3b e5 e9 92 b9 8a a2 64 3b
       -0.00028976199 0.0021354794 -0.00028021555 0.003488692
0003b0 66 f6 5e bb 8e 78 26 39 94 df 3e bb b4 38 9a 38
       -0.0034021377 0.00015875904 -0.0029124962 7.353854e-05
0003c0 69 3b 55 3a 2d ab 5b ba 25 17 67 b6 03 ee ce 3a
       0.0008134158 -0.0008379694 -3.4435154e-06 0.0015787486
0003d0 01 11 cd 39 9a 3a 92 ba 0e 17 58 b7 d5 85 13 3a
       0.00039113316 -0.0011156381 -1.2879971e-05 0.00056275475
0003e0 43 f0 6a 3a b6 31 fd 39 71 99 33 39 3c cf 71 38
       0.00089621934 0.00048292958 0.00017127932 5.765188e-05
0003f0 f9 0f 1c ba d8 16 46 ba 4a a1 cc 3a d5 0f 5a 3a
       -0.0005953308 -0.00075565046 0.0015612033 0.0008318399

egnn.layers.0.node_mlp.0.bias f4 [32]
000000 4e 82 bf 3a 16 04 44 bd dc 5b a7 3a c8 4c 55 3d
       0.0014610977 -0.04785546 0.0012768465 0.052075177
000010 0c b4 d8 3a 64 da b5 ba e8 2c a6 bd 46 cf 20 3a
       0.001653315 -0.001387429 -0.08114034 0.0006134402
000020 33 29 87 3d 8f 03 43 3d db d6 84 ba dc d0 02 ba
       0.06599655 0.047610816 -0.0010134833 -0.0004990229
000030 cd 85 64 bd 3c 10 b1 ba 70 7d e7 3a ec ec ad b7
       -0.055791665 -0.0013508867 0.0017661285 -2.0733532e-05
000040 18 e2 4b 3d 91 f6 c4 3c 86 4a 13 3d 73 c6 30 bd
       0.049776167 0.024043353 0.035959743 -0.043158006
000050 36 8c e7 ba 96 0e 0e b9 91 d5 a8 3c 0c f4 4d 3a
       -0.0017665687 -0.00013547609 0.020609649 0.0007856495
000060 23 bb 8a ba b8 a8 28 bd e7 18 07 bd 4b 20 4a bd
       -0.0010584336 -0.041176528 -0.032982733 -0.049347203
000070 45 94 24 bd 20 68 34 3d 70 52 54 bd 5b 0d c6 3a
       -0.040180463 0.044044614 -0.05183643 0.0015110181

egnn.layers.0.node_mlp.2.weight f4 [16, 32]
000000 70 ac 94 39 91 94 a2 3c 01 55 2b 3b 19 13 17 bd
       0.00028357236 0.019846233 0.0026143196 -0.036883447
000010 f2 21 65 3b cd 50 61 ba f8 21 04 3e 3c 22 b9 b9
       0.003496286 -0.0008595109 0.12903583 -0.00035311456
000020 43 91 c8 bd b7 1e ef bc f6 ee dd 3a a0 5e 9f 39
       -0.097933315 -0.02918945 0.0016932178 0.00030397344
000030 72 25 94 3d 99 18 b7 ba 34 4f bf 3a d5 a3 70 3a
       0.072337046 -0.0013969123 0.0014595748 0.00091796863
000040 55 85 8e 3b 5d 8a 52 bd 7c 42 bc bd a2 c5 22 3d
       0.0043493905 -0.051401485 -0.091923684 0.03973926
000050 b3 07 b5 3a f3 9a 9a 3b 4a 32 26 3c b6 fa 4c ba
       0.0013811499 0.0047181784 0.010143826 -0.0007819341
000060 fe 08 fc ba d6 cb 66 3d 37 ed 93 3d 55 7f 4f 3d
       -0.0019228754 0.056346737 0.072229795 0.050658543
000070 cc 1f 8a 3b a8 6a 4b bd be 98 8c 3d 93 6f 6c ba
       0.0042152163 -0.049662262 0.06865071 -0.00090193114
000080 b8 a5 20 39 ee 2e 22 bd 7a b7 a9 3a cb 1a 20 3c
       0.00015320524 -0.039595537 0.0012948357 0.009772013
000090 f2 42 ec 3a 2a 95 68 ba d7 91 18 3b 88 45 24 38
       0.0018025322 -0.0008872325 0.0023280287 3.9165403e-05
0000a0 3d ba 3d bc 62 16 33 3d ac a1 62 38 23 3a d8 39
       -0.011580047 0.043722518 5.4033168e-05 0.00041242046
0000b0 88 fc 29 3a 05 65 7a ba 91 aa 29 3a 4d 12 11 3a
       0.00064844685 -0.0009551796 0.0006472255 0.0005534038
0000c0 9a fa 5a 3d a8 ec a7 ba 34 30 19 bc 1f 2c 98 bd
       0.05346165 -0.0012811618 -0.009349871 -0.074302904
0000d0 cf ef c3 39 2b d9 15 3b 90 e7 8a 3d c5 9c c1 b8
       0.0003737197 0.0022865038 0.06782448 -9.232158e-05
0000e0 69 73 7d ba 3f 66 49 3c 53 09 ab 3b a1 03 34 bd
       -0.00096683815 0.012292444 0.0052196174 -0.043948773
0000f0 06 4b 5e bc 88 67 89 3d 0b 46 5b bd b9 e2 49 b9
       -0.013567692 0.067092 -0.053533595 -0.00019253315
000100 bb c0 0f b7 05 24 87 b9 d5 73 16 37 6a 49 43 ba
       -8.568338e-06 -0.00025776043 8.967666e-06 -0.0007449599
000110 9e ff a2 35 0b cc 4c 38 8b b6 e5 ba b3 82 2d b7
       1.2144335e-06 4.882742e-05 -0.0017525716 -1.0342034e-05
000120 0a 1d 7e 3a f2 57 b4 39 1f 1f e7 b5 93 cc ad 37
       0.0009693658 0.000343978 -1.7219899e-06 2.071847e-05
000130 fa e0 2b ba 65 09 f6 37 19 55 9f b7 bd 2a 69 b7
       -0.00065566564 2.932986e-05 -1.8993904e-05 -1.3897833e-05
000140 7b 1a 27 39 6e c4 64 b9 7a d3 96 39 92 99 15 ba
       0.00015936226 -0.0002181695 0.00028767792 -0.00057067827
000150 09 fb c2 b6 68 94 f4 b7 37 64 85 b8 7d dd a6 b7
       -5.810875e-06 -2.9156174e-05 -6.360601e-05 -1.989188e-05
000160 ab 8f 9d b7 15 5d 03 ba 72 96 be b7 88 26 97 b9
       -1.8782759e-05 -0.0005011124 -2.2719822e-05 -0.00028829672
000170 28 42 33 39 1e 26 78 39 c3 ca 14 ba b8 1f cd b7
       0.00017095415 0.00023665323 -0.0005675966 -2.4452675e-05
000180 04 1a bb 3a 13 eb 9d 3d 60 d4 44 b8 e1 8c 01 bd
       0.0014274721 0.077108525 -4.692783e-05 -0.031628493
000190 f6 3b 1f 38 49 d1 ce ba 0e 94 c1 3d d0 0d bb b7
       3.7964397e-05 -0.0015778925 0.09452067 -2.229857e-05
0001a0 ab 4c 9e bd 35 ed e1 bd 90 1a 31 ba f0 0a 12 ba
       -0.07729467 -0.11031572 -0.0006755972 -0.0005571088
0001b0 b7 e4 02 3c b7 6b 4c ba bc 3b 73 3a 1a c7 fd b7
       0.0079891 -0.0007798033 0.00092786155 -3.0252664e-05
0001c0 39 4b c7 bc 24 3d c2 bc a2 7e 4d bd 8a 76 07 3e
       -0.024327861 -0.023710795 -0.050169595 0.13228813
0001d0 49 49 46 b8 e4 0c 30 3a 1f 0f b1 bd c8 3f 44 3a
       -4.727513e-05 0.0006715788 -0.08645462 0.0007486311
0001e0 15 aa 94 39 89 c7 c6 3c ae 53 9f bb 60 82 5c 3d
       0.0002835548 0.024265068 -0.0048622703 0.053835273
0001f0 3a 6c a8 3c c6 36 d5 bd cf 10 04 3e 67 f5 22 39
       0.020559419 -0.10410838 0.12897037 0.00015540943
000200 a7 76 6d b8 f7 c6 b8 3c 04 58 1c 3a 16 d8 f7 3c
       -5.6615707e-05 0.022555811 0.0005964043 0.030254405
000210 20 13 f6 3a 40 3c 1b 39 c4 e4 95 bb e0 39 21 3a
       0.001877401 0.00014804397 -0.00457439 0.00061502866
000220 87 21 0e 3c 1c e8 bc bc 31 ab 69 ba 11 94 fc 38
       0.008674986 -0.023059897 -0.0008913754 0.00012043876
000230 a3 14 1f bc 45 ec f3 38 78 4d 7c b9 13 60 03 3a
       -0.00970951 0.000116311516 -0.00024061452 0.00050115696
000240 2c bc b3 bc 94 e2 08 3c f1 ed 1a 3c 5c c7 c7 3c
       -0.021940313 0.008354802 0.009456144 0.024387054
000250 12 f5 a4 b9 94 bf 99 3b 2a 5a ab bc d7 7a 8d b8
       -0.0003146311 0.0046920273 -0.020917017 -6.7462846e-05
000260 6c 08 0e b9 be af 14 bc e7 31 28 bc ba 2b ba 3c
       -0.00013545313 -0.009075103 -0.010265804 0.022725929
000270 3b 3f a0 3c 4c d7 b9 bc 1e 43 c7 3c 70 28 41 3a
       0.0195614 -0.02268567 0.024323996 0.00073683914
000280 7e 35 21 3b 4b c8 9f bd 7f e1 85 3a 63 10 45 bd
       0.0024598534 -0.07801875 0.0010214298 -0.04811133
000290 00 35 e6 39 16 60 37 bb 66 59 02 bd da c7 30 ba
       0.00043908507 -0.0027980856 -0.03182354 -0.00067436474
0002a0 d1 87 96 3b 39 83 6a 3d 87 a3 17 ba 61 fd 4b 3a
       0.0045938273 0.05725405 -0.00057845603 0.0007781592
0002b0 6e 8d ad bc c2 da 48 bb ad b9 50 3b 0e 0c 84 ba
       -0.021185603 -0.0030647968 0.0031848953 -0.0010074393
0002c0 d6 79 b2 3d fe 6f 5f 3c 20 98 36 3b a0 fa a6 bd
       0.087146446 0.013637541 0.002786167 -0.08153272
0002d0 01 39 24 ba b7 c4 41 b9 1e 9a b0 3d ab 72 90 3a
       -0.0006264598 -0.00018479196 0.086231455 0.0011020502
0002e0 f8 86 93 ba c7 94 16 bd 4f 14 89 bc 10 3d cc bd
       -0.0011255434 -0.03676298 -0.016733317 -0.09972584
0002f0 7f 4b 5f bd 54 c1 9a 3d b5 b4 0b bd 18 37 4e ba
       -0.054515358 0.07556406 -0.034107883 -0.0007866486
000300 3b d6 39 ba ae 0c 65 3b 71 57 b0 ba 38 4c 9e bc
       -0.0007089113 0.0034950185 -0.0013453794 -0.019323453
000310 bc d3 d4 ba 05 1e 91 3a 94 b9 b1 bc a5 52 e3 39
       -0.0016237418 0.0011071569 -0.021694936 0.0004335839
000320 99 53 72 3c fc e6 30 bb 24 2a 1d ba 84 c9 c8 b9
       0.014790439 -0.0026993146 -0.0005995354 -0.00038297113
000330 e9 5c 48 bc 79 4d 97 3a 57 f2 8a ba 36 30 53 b9
       -0.012229183 0.0011543474 -0.0010600787 -0.00020140488
000340 9a 45 8e bb 3f 55 91 3b cb e1 26 3c 29 62 fd 39
       -0.0043417932 0.004435211 0.010185669 0.00048329055
000350 5a 4f 41 ba cc 39 ca ba 0c 81 e7 bb 78 07 81 b8
       -0.000737419 -0.0015428602 -0.007064944 -6.1525905e-05
000360 f0 cd 7d 3a 9d 40 40 bc f9 5c f6 bb 91 a2 52 3b
       0.0009681871 -0.011734155 -0.0075184074 0.0032140354
000370 fc 71 fc 3b 54 eb 7c bb 70 42 e5 39 63 bd 2d 3a
       0.0077040177 -0.0038592415 0.00043727783 0.0006627647
000380 b4 23 86 bb c6 d0 25 3e f5 69 eb bb 25 f0 61 3d
       -0.0040936116 0.16192922 -0.007184262 0.05516066
000390 e2 4c 1b bc 11 a1 c4 3b e6 4d 25 be 78 37 ee 3a
       -0.0094787795 0.006000646 -0.16142997 0.001817449
0003a0 02 0c 14 3e 57 3b 3b be 7a da 38 bb ad 36 15 bb
       0.14457706 -0.18284355 -0.0028206394 -0.0022768185
0003b0 89 de 06 be 76 d3 c8 3b 89 0b ba bb db 2c ba ba
       -0.13170828 0.0061287237 -0.0056776446 -0.0014204042
0003c0 33 0c 39 be 74 27 a9 3d 10 e8 f1 3d ab f6 42 3e
       -0.1807106 0.08259478 0.118118405 0.19039409
0003d0 be d0 73 bb 56 4e 4f bc 53 45 43 be 9f 3d 72 3a
       -0.0037203277 -0.012652954 -0.19069414 0.00092407496
0003e0 57 f3 a9 3b 6a 48 01 be 21 3b d7 bd 6f 49 25 3e
       0.005186479 -0.1262528 -0.10509325 0.16141294
0003f0 09 b4 2f 3e 86 84 40 be 4e 6a 3c 3e 54 9d 48 3b
       0.17158522 -0.18800554 0.18399927 0.0030611353

egnn.layers.0.node_mlp.2.bias f4 [16]
000000 be 94 cb bd 8f 3d 47 3d 3b 01 20 3b 7d 5f b6 bd
       -0.0994048 0.04864269 0.0024414796 -0.08904932
000010 85 9a e8 bc 77 14 f0 3c b5 06 c9 3c 53 46 cb bd
       -0.028393993 0.029306633 0.024539331 -0.09925523
000020 45 a5 04 be 44 0c 19 bd f5 92 47 bc f2 e8 2d 3b
       -0.1295367 -0.037365213 -0.012181033 0.0026536551
000030 66 a7 66 3d c7 ba 47 3d db 9f a6 bd 67 be 7a bd
       0.056311987 0.04876211 -0.08135959 -0.061216738

egnn.layers.0.coord_mlp.0.weight f4 [32, 32]
000000 eb 6a 9b 3d 46 ca de bc 00 3d 81 3c 57 2b 40 bd
       0.07588752 -0.02719606 0.015776157 -0.046916332
000010 c0 1f 75 bc 35 ba b0 bd b5 b2 38 3d c3 e2 52 bd
       -0.014961183 -0.08629266 0.045092303 -0.051485788
000020 7d 58 93 3b 60 3a 49 3d 8d c4 74 3d 0b bd 03 3d
       0.0044966326 0.049127936 0.059757758 0.032162707
000030 f1 78 93 3d 1a bb c5 3d 8f 3b 27 3d 34 1c c0 3d
       0.07200802 0.096548274 0.040828284 0.09380379
000040 c6 15 3a 3d 65 3f 1e bd 30 44 04 3c 40 00 4e bd
       0.04543092 -0.038634676 0.008072898 -0.050293207
000050 34 6e 09 3e cb 54 ac 3d 29 eb 01 3e e2 90 7d 3d
       0.13420945 0.084146105 0.12687363 0.06190575
000060 4d bd c0 3b 36 23 c3 bd dd fa 2d 3c 46 b5 53 be
       0.0058819414 -0.095282 0.0106188925 -0.20674619
000070 e3 cc 3a 3e 05 9a 74 bd a9 48 ce 3d 48 a5 0c 3b
       0.1824222 -0.059717197 0.100724526 0.002146082
000080 63 fd 16 3c 73 dd 52 3c 26 e7 8b 3b fe e0 8f bb
       0.009215686 0.01287018 0.0042694984 -0.004390835
000090 c3 1c 62 bc 29 e2 d2 3b 92 2a 7b 3c a8 b3 a2 bc
       -0.013800803 0.006435652 0.015329974 -0.019861057
0000a0 b2 f6 3a ba 72 70 cb 3b 19 f1 d1 bc b8 32 ab ba
       -0.00071320974 0.006208473 -0.02562766 -0.001306138
0000b0 57 fc d1 bb 41 83 ec bb ac 94 48 bb 17 ea 63 bb
       -0.006408255 -0.007217795 -0.0030606193 -0.003477698
0000c0 4d 0e a2 3b 8b 98 7d 3c 2d 67 91 bd 3f 51 5c bc
       0.0049455524 0.015478264 -0.07099757 -0.013447105
0000d0 4c a1 2f bc 39 fe 03 3d f7 80 54 bd 6f f2 00 bc
       -0.0107196085 0.032224867 -0.051880803 -0.007870301
0000e0 ff 73 26 bc a7 5c 7c 3c f8 83 92 bc f9 bf 29 3d
       -0.010159492 0.015402949 -0.017885193 0.041442845
0000f0 cb b7 96 3d 7c 5f 3d bc 38 2c bf 3b 23 3f 64 3c
       0.073592745 -0.01155841 0.0058341287 0.013931069
000100 0d 95 d6 3a e6 14 46 bc 27 47 5a bc dd 4c 5c bc
       0.0016371325 -0.0120899435 -0.013322628 -0.01344606
000110 17 c1 1e 3c 34 43 45 bc 48 5a 56 3c 20 f9 45 bc
       0.009689591 -0.012039948 0.013083048 -0.012083322
000120 fe 67 4a bb 3e 29 39 3c e2 21 73 3c fb ff d4 bb
       -0.0030884738 0.011301337 0.014839621 -0.006500242
000130 39 c8 0e 3c 79 49 49 3c 4c 83 42 3c ba be 57 3c
       0.008714729 0.012285584 0.011872124 0.013168031
000140 b6 e4 49 3c 59 5b 02 bc 6f bb 99 3d 0f 3a 5f bc
       0.012322595 -0.007956349 0.07506453 -0.013624682
000150 c5 5f 38 3c 37 4e 10 3d 79 d7 a1 bc 57 ed 5a 3c
       0.011253302 0.03523084 -0.019756066 0.01336225
000160 2c b7 f0 bb 84 25 f4 bc 32 02 17 bc 49 3c f8 3b
       -0.0073460545 -0.029803045 -0.009216832 0.007575546
000170 a7 96 65 3d d4 eb 30 bc 5c 96 13 3c 67 17 e0 bb
       0.056051876 -0.010798413 0.009008016 -0.0068387273
000180 d2 1f f8 3a 2b a7 15 bc c8 72 1d bc 60 a7 10 bc
       0.0018930382 -0.009134094 -0.0096098855 -0.008828968
000190 fe 99 bb 3b db a2 c7 bb aa ea 11 3c 9b 7a 5d bb
       0.0057251444 -0.006092412 0.008906046 -0.0033795002
0001a0 37 12 c7 3a 05 4e 51 3c a1 cd 1e 3c f2 a7 f3 ba
       0.0015187924 0.012774949 0.00969258 -0.001858948
0001b0 6f 1b 0e 3c 41 c5 cf 3b ef 3e 26 3c 23 57 6d 3c
       0.008673533 0.006340653 0.0101468405 0.014486107
0001c0 1a ff 3c 3c ab 73 63 bc dd 2c 83 3d 7c 98 d6 bb
       0.01153543 -0.013882558 0.06405041 -0.0065489393
0001d0 48 6c 42 3c 2d 60 2b bd 63 84 94 bd fb 9a 72 3c
       0.011866637 -0.041839767 -0.07251813 0.014807458
0001e0 6c ed e9 bb f7 e6 6d bd 3f e5 a7 bb ec 2c 28 bd
       -0.0071388986 -0.058081593 -0.005123764 -0.041058466
0001f0 2a cd 73 bd 7a 7e d2 bb ac a4 71 3d b8 9d 00 bc
       -0.05952183 -0.0064237686 0.058994934 -0.007850103
000200 36 38 ba 3b 24 c5 41 bc be 56 8a bc bf 05 3f bc
       0.0056829704 -0.011826787 -0.016887065 -0.011659085
000210 f5 06 92 3c 62 43 8f bc f9 b8 91 3c 29 f0 d6 bc
       0.017825583 -0.017488185 0.017788397 -0.026237564
000220 78 c4 81 3c 8b 12 b4 3c e1 4f 52 3c 78 ce c6 bc
       0.015840754 0.021981498 0.012836427 -0.024268374
000230 8d ee da 3b 58 ec 4f 3c d8 cf 30 3c ab da 0d 3c
       0.0066812695 0.012690626 0.010791741 0.008658092
000240 7c ff 99 3c bc fd 2a bc 4a d1 6a 3c 61 4c 8a bc
       0.018798582 -0.010436472 0.014332125 -0.016882123
000250 58 4e 02 3c 31 f6 bf 3d 7a 9f c5 bc 10 c1 9b 3c
       0.007953249 0.09373129 -0.024123896 0.019012958
000260 c5 be 9a bc b1 75 7e bd f2 02 85 bc b5 59 f0 3b
       -0.018889794 -0.062123958 -0.016236756 0.0073349127
000270 d0 80 d8 3d 01 1b 73 bc c6 da d7 3d 76 e7 e9 bb
       0.10571444 -0.014837981 0.105397746 -0.007138188
000280 d4 c2 36 3d 85 8a 34 bd b1 cd 37 bd 33 c4 8c bd
       0.044619396 -0.044077415 -0.044873897 -0.068733595
000290 38 2b ee 3c 91 c0 ca bc 34 c9 3d 3d 27 23 65 bc
       0.029073343 -0.024750026 0.04633446 -0.013985432
0002a0 83 4f 7a ba 44 44 05 3d 4d 03 e7 3c ec 94 f2 bb
       -0.00095485913 0.032535806 0.028199816 -0.007403007
0002b0 c9 f2 a9 3c 11 d0 e9 3c 8b cb 4c 3d 7a 9c 91 3d
       0.020745652 0.028541597 0.0499988 0.07109924
0002c0 b4 d5 e0 3c 88 36 44 bd d1 3f 01 3e ba 1c 5b bd
       0.027445652 -0.047903568 0.12622 -0.053494193
0002d0 ef 94 0c 3d d3 5e 40 bc 69 09 64 bd 50 16 3e 3d
       0.03432172 -0.011741358 -0.055673037 0.046407998
0002e0 33 53 05 bc 43 15 f3 bd c9 eb 8f bc 2e 45 02 be
       -0.008137512 -0.1186929 -0.017568486 -0.12721702
0002f0 b0 27 d2 3d 85 72 fb bc 2e 9d 76 3d 50 47 47 bd
       0.10261476 -0.030694256 0.060208492 -0.048651993
000300 37 7f 11 bd a3 fd 95 3c 07 47 9b 3c 82 20 d3 3c
       -0.035521712 0.01830942 0.018954767 0.025772337
000310 77 5f ac bc 25 8e 3c 3c 96 2a b9 bc b7 a3 58 3c
       -0.021041615 0.011508499 -0.022603314 0.013222626
000320 45 f6 9c bb 15 ad d3 bc 22 77 ca bb 05 4e 67 3c
       -0.0047901 -0.025839368 -0.0061787525 0.014117722
000330 0e 7b b2 bc a7 87 96 bc 37 1f fe bc 5f 15 28 bd
       -0.021787193 -0.018375231 -0.031020744 -0.041036006
000340 f5 47 8f bc 5f b3 35 3d 3e 4d ed bd 52 45 7f 3c
       -0.017490366 0.044360515 -0.115869984 0.015580492
000350 a1 9b 58 bc ed d6 ea 3c 70 e6 b9 3d eb c7 ab bc
       -0.013220699 0.028666938 0.090771556 -0.020969352
000360 4c 9d 31 3c 23 c5 44 3d f4 1b 78 3c c0 33 84 3d
       0.010840725 0.048039567 0.015143383 0.06455183
000370 94 86 03 bd 03 be c6 3c 2e ae 37 bd ab a0 ee 3c
       -0.032110766 0.024260527 -0.044843845 0.029129347
000380 9f f7 33 39 45 d7 2d bc fe 50 1c bc 93 18 4f bc
       0.00017163016 -0.010610406 -0.009540794 -0.012640136
000390 66 5f c9 3b 9d 62 2f bc 89 65 45 3c e0 48 60 bc
       0.0061454056 -0.010704664 0.012048134 -0.01368925
0003a0 18 db 54 bb bf de 40 3c cb 14 57 3c 75 7f 22 bb
       -0.0032479223 0.011771857 0.013127516 -0.0024795209
0003b0 d3 a0 dc 3b ee b3 45 3c 17 30 0f 3c 33 90 4a 3c
       0.006733039 0.012066824 0.008739493 0.012363481
0003c0 3d 1c 21 3c a3 2e b7 bb f8 75 a1 3d 12 c1 46 bc
       0.009833393 -0.0055902763 0.07883829 -0.0121309925
0003d0 c5 b9 38 3c 3d 89 6a 3d b6 9e a8 bc e7 2b 3e 3c
       0.01127476 0.057259787 -0.020583492 0.011607147
0003e0 28 5d 87 bb 96 c8 66 3b aa b0 ec bb 44 38 bf 3b
       -0.004130978 0.0035214773 -0.0072232084 0.005835565
0003f0 da 79 29 3c 21 dc 03 bc 30 7f b0 3c fe 39 d5 bb
       0.010343993 -0.008048088 0.021545023 -0.0065071573

egnn.layers.0.coord_mlp.0.bias f4 [32]
000000 73 15 d9 3d f5 4d 1d 3b d3 9d 1d 3d 16 16 e8 3c
       0.10599794 0.0024002765 0.03848059 0.028330844
000010 a7 6e 7c 3d aa 57 d3 3d be 8d 87 bd 8d 24 06 3d
       0.061628964 0.10319455 -0.06618832 0.0327497
000020 96 f2 e3 bd 76 3c 6f 3c a0 03 88 bd 48 23 5a 3a
       -0.11130254 0.014601817 -0.066413164 0.00083212974
000030 dc 76 04 3e 25 98 78 bc 54 75 bb bd c0 fb 6f 3b
       0.12935966 -0.015172993 -0.09153238 0.003661856
000040 90 fa 13 3d 60 a9 3d 3d 8a 75 64 bd 45 0d c7 3c
       0.036127627 0.046304107 -0.055776156 0.02429832
000050 5f 3d 6a bd 7b da 91 bd 1b c6 8f bd 25 18 c9 3c
       -0.057187434 -0.0712175 -0.070202075 0.024547646
000060 37 f3 02 3e 4b 53 85 3d ec 90 4b 3d 71 15 e4 3d
       0.12788092 0.065100275 0.049698755 0.11136902
000070 69 c5 27 bd 1a f6 b3 3d a3 73 cd 3c bf f0 db 3d
       -0.04095975 0.087871745 0.025079554 0.10739278

egnn.layers.0.coord_mlp.2.weight f4 [1, 32]
000000 73 44 65 bc 8a fa 4e b8 84 55 94 ba 7a 23 78 ba
       -0.01399337 -4.934756e-05 -0.001131699 -0.00094657356
000010 5d 05 cf ba 13 85 ef bb 74 36 57 3b e4 0a 78 ba
       -0.0015794445 -0.007309565 0.0032838853 -0.0009462072
000020 3d cf 00 3c 25 b7 e8 b9 30 63 43 3b 9e 08 43 b9
       0.007861909 -0.00044386942 0.002981376 -0.0001859986
000030 99 67 ec bc 86 73 fc 39 e5 6d d0 3b eb c1 21 b9
       -0.028857993 0.00048151257 0.0063607567 -0.00015426397
000040 31 7d 97 ba 48 d6 17 bb dd 88 1b 3b db a9 2a ba
       -0.0011557696 -0.0023168493 0.00237327 -0.0006510296
000050 c2 84 2c 3b fa 0f 16 3c 3c c2 7d 3b 6d 30 34 ba
       0.0026324247 0.009159083 0.003872051 -0.0006873671
000060 e7 fa bb bc 66 6c 50 bb 54 ef 09 bb ed 17 66 bc
       -0.022946788 -0.0031802892 -0.0021047192 -0.01404379
000070 32 6b a4 3a ce 36 b6 bb 6a 2d 76 ba b3 1e 4e bc
       0.0012544154 -0.0055607324 -0.00093909225 -0.012580561

egnn.layers.0.attention_mlp.0.weight f4 [1, 32]
000000 06 0d 16 3e 50 38 c4 bd 6c ce 8c bd 75 4f 20 be
       0.14653406 -0.09581053 -0.06875309 -0.1565531
000010 a3 8a 97 3d 63 af 99 bd 19 a9 c7 3d 6e a1 a4 bc
       0.0739949 -0.075041555 0.0974905 -0.020096507
000020 48 52 ca ba 88 bd ce 3d 09 3e 3d 3d 88 04 61 bc
       -0.0015435899 0.10094744 0.04620174 -0.0137339905
000030 94 8e 12 3e 49 8e b6 3d fe 6c 08 3e cf de 48 3e
       0.14312202 0.089138575 0.13322827 0.19616245
000040 41 b1 88 3d ec 0d 4d be eb e4 84 3e ea 6d a2 bd
       0.066744335 -0.20024842 0.259559 -0.07931121
000050 0d 8c dd 3d 4e c4 5b 3e bd 99 42 be 4a 02 f8 3d
       0.10817728 0.21461603 -0.19003959 0.121098116
000060 8d b7 22 bd da 7a 52 be d3 d3 8b bd c1 17 76 be
       -0.03972583 -0.20554677 -0.06827512 -0.24032499
000070 32 d9 4c 3e 28 70 da bd 99 06 36 3e 2e 7e 0c be
       0.20004728 -0.10665923 0.17775954 -0.13720009

egnn.layers.0.vel_mlp.0.weight f4 [8, 17]
000000 98 d7 ea 3d 9f 2f 09 be 82 17 c7 b9 dd 02 70 3e
       0.114669025 -0.13397072 -0.00037973752 0.23438592
000010 f3 21 56 3d a3 96 52 be 4b f3 8c 3c dd 86 86 3e
       0.05227847 -0.20565276 0.017205855 0.26274768
000020 9a e0 02 3e 78 50 85 3d da 7d ee 3c d7 fb 0c 3c
       0.12780991 0.06509489 0.029112745 0.008604965
000030 b8 15 fe bd d8 8c 5d be 79 a0 4f 3e e9 6f 7e 3e
       -0.12406486 -0.21635759 0.20276059 0.24847378
000040 d5 70 06 3e a3 99 82 3e 69 10 57 3d fb 08 53 bb
       0.1312898 0.2550784 0.052505884 -0.0032201398
000050 d1 2e 0a 3e ba c2 d9 3c e2 a0 1f bd 55 1a b9 bd
       0.13494422 0.02658211 -0.03897179 -0.090382256
000060 06 a5 85 be 69 25 8a 3e 26 24 c6 3c 3e 89 f9 3a
       -0.26102465 0.26981667 0.024187159 0.0019038094
000070 7b 72 81 3c 72 07 6d 3e 30 88 4e 3e 87 bd 68 3e
       0.015801659 0.23147371 0.20169139 0.22728549
000080 64 78 41 be 9d a6 54 3e fa 5c c4 3d 07 cd fd bd
       -0.18893582 0.20766683 0.09588046 -0.123926215
000090 61 e2 3d b9 92 81 45 3e c9 2e 43 3d b2 52 1d be
       -0.00018108777 0.19287708 0.04765204 -0.15363577
0000a0 ae 02 7a 3c b8 4d 91 3e 85 91 da 3d 7e 80 77 3d
       0.015259428 0.28379607 0.10672287 0.060425274
0000b0 9a f2 cf 3c 3a 3c 5e 3b c0 91 f2 bd 6a d2 cc bd
       0.025384236 0.003391041 -0.11844206 -0.10001071
0000c0 4c 76 48 3e 1d 1d 77 3e e8 9c c4 3d ce e2 a8 3d
       0.19576377 0.241322 0.0960024 0.082463846
0000d0 41 3e d2 bd 2a 96 93 b8 54 9e 7d 3e ee f4 45 3d
       -0.1026578 -7.0374765e-05 0.24767429 0.048329286
0000e0 de 23 26 be 58 08 2c 3d 99 3b 5d 3e 11 b4 bf 3d
       -0.1622462 0.042000145 0.21604766 0.09360517
0000f0 4c f0 7a 3d e3 00 dc 3c 4a 31 d6 ba 88 4e 54 bd
       0.06126432 0.026855892 -0.0016341594 -0.051832706
000100 7e 20 2c be b2 b6 39 3e 93 ec 65 3e bc 96 16 3e
       -0.1680927 0.18136099 0.22453527 0.14705938
000110 31 f1 22 ba 55 3b 11 39 98 19 ed 36 09 38 51 ba
       -0.000621575 0.0001385038 7.06613e-06 -0.0007981067
000120 36 7d 86 37 8b 6c d2 39 1a 3e 63 b8 ad 69 45 39
       1.603235e-05 0.00040135192 -5.4178854e-05 0.00018826751
000130 2f e1 68 ba 4c 12 03 39 15 b5 cb b9 3d 9d ec 35
       -0.00088836526 0.0001249995 -0.00038854094 1.7629133e-06
000140 17 c8 11 ba 15 09 0a ba 7d 49 e7 ba 14 25 21 3a
       -0.0005561127 -0.00052656356 -0.0017645803 0.00061471877
000150 ec b7 8a ba 21 66 17 be 01 6c 3e 3e f6 60 04 3a
       -0.0010583377 -0.14785053 0.18595888 0.00050498487
000160 5a 6b b0 be e6 f1 74 bd da 3e 81 3e 84 57 b1 bc
       -0.34456903 -0.059801005 0.25243264 -0.021648176
000170 1e 3e 91 be fa ca 24 be a6 a2 94 bd 64 f8 18 bd
       -0.28367704 -0.16093054 -0.07257585 -0.03734626
000180 ed 3f b8 bc b8 d8 2b 3e b6 0b 8d 3e 46 d0 83 be
       -0.02249142 0.1678189 0.27547997 -0.25744838
000190 95 08 87 be 1a c7 9d be d2 5f 29 3c 30 aa 13 bd
       -0.26373735 -0.30815965 0.010337787 -0.036050975
0001a0 79 89 b7 3a 44 b3 60 3d 59 96 b3 3c 2f f0 6a bc
       0.0014002762 0.05485846 0.021922277 -0.014339491
0001b0 ae 6a 20 3c 11 f2 41 3b d5 c5 57 3c 27 5e ef 3c
       0.009791059 0.0029593746 0.013169725 0.0292197
0001c0 68 99 8e 3b 3c f8 48 bc d1 01 93 3c ee 41 02 be
       0.0043517835 -0.012266215 0.017945202 -0.12720463
0001d0 55 04 82 3c 02 05 ad 3d 97 20 db bc 03 23 82 ba
       0.015871206 0.08448221 -0.026748938 -0.0009928647
0001e0 1b 4c 38 b7 25 7a a5 b7 da 11 41 ba 26 00 24 b9
       -1.0984974e-05 -1.972641e-05 -0.0007365026 -0.00015640314
0001f0 b1 99 1a 39 e6 70 11 b9 45 6a 51 3a ec 3c 92 ba
       0.00014743839 -0.00013870336 0.00079885527 -0.0011157072
000200 98 fa 92 39 9e 2d e5 b9 0e a4 62 38 77 3e 0c ba
       0.00028033997 -0.0004371227 5.4035387e-05 -0.0005349884
000210 ec 21 36 ba 10 18 ea ba 9e 0e 32 3a 92 5d a3 3b
       -0.0006947804 -0.0017859954 0.0006792339 0.0049855197

egnn.layers.0.vel_mlp.0.bias f4 [8]
000000 34 aa a8 be 62 0c 25 bd fa da 9d be f7 f7 82 be
       -0.32942355 -0.040295012 -0.30831128 -0.25579807
000010 a8 23 a2 3a 47 50 58 3e 5c 2e 28 be ab 29 fe 3a
       0.0012370246 0.21124373 -0.16423935 0.001939108

egnn.layers.0.vel_mlp.2.weight f4 [1, 8]
000000 60 28 95 be 4a 46 30 be 03 83 51 be cb cf 3e be
       -0.29132366 -0.17214313 -0.20460133 -0.18633954
000010 d7 7a c4 b6 ee 56 ec 3e 54 0d 0f bd 56 8a df 39
       -5.8555556e-06 0.46160072 -0.03492482 0.00042636943

exp_avg f4 [16, 1]
000000 f9 6f a5 b5 aa 08 40 35 18 51 d8 31 fe a6 00 b6
       -1.2326046e-06 7.153818e-07 6.2956467e-09 -1.9170689e-06
000010 5e 4e d3 b4 f0 be ab 35 2f 11 45 33 00 b8 72 b5
       -3.9358832e-07 1.2796063e-06 4.5883265e-08 -9.041978e-07
000020 85 de b4 b5 95 69 f4 b4 20 cd 44 b4 34 80 bd b3
       -1.3475807e-06 -4.5525363e-07 -1.8328547e-07 -8.824318e-08
000030 de 21 27 34 2a 0e 4a 35 7b ab f2 b5 d0 62 8a b5
       1.5565408e-07 7.5271475e-07 -1.8080312e-06 -1.031056e-06

exp_avg_sq f4 [16, 1]
000000 74 ba 61 2f d2 1f 9e 2e 22 14 07 2a 4b 17 f9 2f
       2.0529872e-10 7.1906606e-11 1.1997394e-13 4.5309387e-10
000010 a2 60 f8 2d 2d ec 79 2f 2f 64 8d 2b cc aa 0c 2f
       2.823725e-11 2.2730325e-10 1.0046459e-12 1.2793605e-10
000020 d9 4e 7c 2f 3f e6 33 2e 99 e6 1c 2d 5d ea 49 2c
       2.2947279e-10 4.0904388e-11 8.918776e-12 2.8693916e-12
000030 24 1a 33 2c 2c ac bf 2e 1f 76 da 2f b5 71 2d 2f
       2.545194e-12 8.716258e-11 3.97379e-10 1.5774655e-10

exp_avg f4 [16]
000000 ab cc ee b6 a0 30 8f 36 ae ee 02 33 03 b7 3a b7
       -7.116779e-06 4.267393e-06 3.048506e-08 -1.1129075e-05
000010 07 95 01 b6 6a 2d fa 36 54 cc 8b 34 d9 14 a8 b6
       -1.9309243e-06 7.4558675e-06 2.6039436e-07 -5.009217e-06
000020 13 0a 03 b7 a6 0e 19 b6 be 6e 85 b5 1e 3f 4b b5
       -7.810554e-06 -2.2807303e-06 -9.941502e-07 -7.571524e-07
000030 15 b4 7e 35 e0 b1 92 36 c3 0a 2e b7 96 50 c4 b6
       9.488443e-07 4.3718464e-06 -1.0373714e-05 -5.8506366e-06

exp_avg_sq f4 [16]
000000 57 da a2 31 1a 7c e4 30 43 f3 5e 2c 3b 63 31 32
       4.739643e-09 1.6624455e-09 3.1683135e-12 1.0325318e-08
000010 f9 22 48 30 15 79 b6 31 49 ce db 2d 63 f4 4f 31
       7.2809275e-10 5.3106626e-09 2.4989026e-11 3.0261382e-09
000020 52 ac b3 31 7c 09 93 30 2c 0a 80 2f 2b 70 99 2e
       5.229176e-09 1.0698353e-09 2.3290292e-10 6.9775595e-11
000030 73 71 6c 2e 21 60 0d 31 36 15 1b 32 33 92 80 31
       5.376095e-11 2.0572843e-09 9.02701e-09 3.7419112e-09
