log/nbody/version_0/checkpoints/last_model.ckpt (torch, 87924 bytes, 51 tensors)

vel2node_feat.weight f4 [16, 1]
-0.13373297 0.054386653 -0.00039256352 -0.23992574 -0.00041942124 0.13592325 -0.00047849084 -0.10813038
-0.16231172 -0.00038632483 -0.0004781763 -0.0004539001 0.019598132 0.073709875 -0.22697476 -0.11406119
00000000: 4cf1 08be 8ac4 5e3d fcd0 cdb9 18af 75be
00000010: c4e5 dbb9 772f 0b3e f4dd fab9 7673 ddbd
00000020: 0b35 26be a48b cab9 bdb3 fab9 71f9 edb9
00000030: 438c a03c 34f5 963d 126c 68be ea98 e9bd

vel2node_feat.bias f4 [16]
-0.3608324 0.16562036 -0.001949362 -0.6738368 0.00019647727 0.36074114 0.00048241628 -0.27049798
-0.46619013 -0.0018933796 8.835894e-05 0.00039603523 0.08072865 0.20186688 -0.6416713 -0.30020097
00000000: 06bf b8be 6298 293e bc81 ffba 9280 2cbf
00000010: 7705 4e39 10b3 b83e d1ec fc39 b67e 8abe
00000020: 79b0 eebe 472b f8ba 584d b938 f3a2 cf39
00000030: 1055 a53d 31b6 4e3e 9244 24bf f1b3 99be

egnn.layers.0.edge_mlp.0.weight f4 [32, 33]
0.005043173 -0.0067967153 2.6764972e-05 0.032851223 -5.7747347e-05 -0.017944671 -8.131498e-05 0.06330093
0.007995322 2.4757086e-05 -3.4725832e-05 -7.805223e-05 -0.020695575 -0.040953957 0.01795663 0.05199346
0.0046374714 -0.006685254 1.543556e-05 0.032882407 -7.4983735e-05 -0.01840909 -0.000101251804 0.06342085
0.007362886 1.3428835e-05 -4.856611e-05 -9.728374e-05 -0.019930702 -0.040827826 0.017680697 0.052024223
-0.08817265 -0.0015929672 -0.0049040425 -6.8834015e-05 0.011666475 -0.00016437586 -0.009534583 -0.00020158099
0.03798516 -0.0021409423 -6.895782e-05 -9.222116e-05 -0.00020006984 -0.0125326095 -0.022083787 0.003865922
0.028273795 -0.0014940156 -0.004812867 -7.294965e-05 0.011649168 -0.00017033979 -0.0096241115 -0.0002080562
0.03646901 -0.0021002262 -7.305907e-05 -9.671593e-05 -0.00020647072 -0.011199918 -0.020717893 0.004366395
0.026915664 -0.09687842 0.064078346 -0.024044178 0.0011160283 0.047811165 0.0012197744 -0.03281596
0.00119625 0.028768977 0.088433705 0.0011078317 0.001349052 0.0012240373 -0.020715032 -0.026698036
0.068400204 0.028813476 0.06862314 -0.029058909 0.00094725646 0.054743297 0.0013171834 -0.042847198
0.0010488158 0.038285367 0.086559065 0.0009476876 0.0015601155 0.0011061261 -0.026985692 -0.035227496
0.07442205 0.03777765 0.008258088 -0.020905875 0.018456204 -0.00013534585 -0.07294344 2.3516986e-05
0.042653237 5.35353e-05 -0.11027969 -0.029667163 -0.00013090733 5.4212937e-06 4.740131e-05 0.03845919
0.07075087 -0.05132968 -0.09031404 -0.019871287 0.018352158 -0.0001230751 -0.07251741 4.2684682e-05
0.04272399 7.576308e-05 -0.11210306 -0.028454049 -0.00011855747 2.1959646e-05 6.870782e-05 0.03913116
0.07193995 -0.050259218 -0.09166551 0.18969658 -0.0046389853 -0.002648381 -0.000102704114 0.0039004222
-0.00017891996 -0.005270866 -0.00019494495 0.033638675 -0.006965933 -0.00010256912 -0.00011186046 -0.00019985031
-0.009757572 -0.018521642 -0.0034617267 0.023929518 -0.0037178267 -0.0026721344 -9.0095185e-05 0.0040571745
-0.00015852926 -0.005095871 -0.00017116946 0.03245548 -0.005851205 -8.986172e-05 -9.508512e-05 -0.00017701092
-0.009203346 -0.017629888 -0.002729348 0.022958834 -0.06360418 0.029310286 -0.010807169 0.0010747158
0.067666635 0.001606532 -0.0031647466 0.0020773578 -0.010693131 0.068686254 0.0010527537 0.00060749083
0.0020132528 -0.02134878 -0.012717228 0.073681094 0.021895288 0.017043328 -0.012159817 0.0004766399
0.065665 0.0010141616 -0.002246921 0.0015840152 0.035237066 0.059444785 0.00044207 -0.00011653293
0.0014937134 -0.03377446 -0.023407625 0.06405705 0.039927915 1.0801358 0.018969495 -0.027711121
0.00017387402 0.11350799 -2.3138065e-05 -0.040509894 -2.5529424e-05 0.03661481 0.030854573 0.00016681109
-3.4078046e-05 -3.3330227e-05 -0.009072442 -0.040211912 0.084233575 0.04953675 0.019495044 -0.026000146
0.00016559438 0.119757704 -3.1211595e-05 -0.06723245 -5.3128122e-05 0.034469914 0.028359616 0.00016005425
-2.2918011e-05 -5.5450735e-05 -0.013050751 -0.037050895 0.08674948 0.06123931 -0.046101257 0.0036303678
-0.0065445513 -1.2780969e-05 0.026350224 -0.00013616814 -0.015937392 -0.00017486107 0.06019101 0.0056202486
-1.4588014e-05 -8.1466744e-05 -0.00017134972 -0.018659921 -0.03565691 0.014417872 0.046122212 0.0033031644
-0.006452201 -2.2722636e-05 0.026249161 -0.00015093357 -0.016214877 -0.00019197426 0.060235158 0.005191798
00000000: 3441 a53b fbb6 debb 5785 e037 018f 063d
00000010: be35 72b8 b400 93bc a687 aab8 eba3 813d
00000020: d0fe 023c 70ad cf37 94a6 11b8 f9af a3b8
00000030: c489 a9bc 56bf 27bd c819 933c 18f7 543d
00000040: eef5 973b fa0f dbbb 9d7b 8137 b4af 063d
00000050: 9640 9db8 a9ce 96bc 2657 d4b8 cae2 813d
00000060: 5d44 f13b 684c 6137 77b3 4bb8 cf04 ccb8
00000070: b645 a3bc 143b 27bd 1cd7 903c 5a17 553d
00000080: dd93 b4bd 1ccb d0ba 17b2 a0bb fb5a 90b8
00000090: be24 3f3c 4f5c 2cb9 f136 1cbc 7c5f 53b9
000000a0: 5496 1b3d 0d4f 0cbb 739d 90b8 dc66 c1b8
000000b0: d7c9 51b9 9355 4dbc 0fe9 b4bc 695b 7d3b
000000c0: 729e e73c d8d2 c3ba 41b5 9dbb 8cfc 98b8
000000d0: 27dc 3e3c 3d9d 32b9 73ae 1dbc a929 5ab9
000000e0: 8760 153d f3a3 09bb 4a37 99b8 f8d3 cab8
000000f0: 1080 58b9 dc7f 37bc 92b8 a9bc fa13 8f3b
00000100: 3d7e dc3c 3168 c6bd 823b 833d 4cf8 c4bc
00000110: b247 923a a4d5 433d d6e0 9f3a 076a 06bd
00000120: 7dcb 9c3a ebac eb3c bb1c b53d aa34 913a
00000130: acd2 b03a e06f a03a 92b2 a9bc d7b5 dabc
00000140: 6815 8c3d 3d0a ec3c 4a8a 8c3d f30c eebc
00000150: 4e51 783a 823a 603d 57a5 ac3a 8b80 2fbd
00000160: 6b78 893a 1ed1 1c3d e145 b13d 3d6e 783a
00000170: ca7c cc3a 6ffb 903a 1911 ddbc b54a 10bd
00000180: 966a 983d bdbc 1a3d ee4c 073c cc42 abbc
00000190: 7731 973c a0eb 0db9 5f63 95bd 5846 c537
000001a0: 29b5 2e3d 178b 6038 51da e1bd 8d08 f3bc
000001b0: 2b44 09b9 8fe8 b536 c5d0 4638 6287 1d3d
000001c0: d5e5 903d 123f 52bd 91f6 b8bd 1cc9 a2bc
000001d0: 4457 963c b80d 01b9 0284 94bd 5408 3338
000001e0: 5aff 2e3d fee2 9e38 4a96 e5bd 7718 e9bc
000001f0: 0fa2 f8b8 fb35 b837 3b17 9038 ff47 203d
00000200: 4155 933d 9cdc 4dbd 20bb bbbd d23f 423e
00000210: a102 98bb 7690 2dbb da62 d7b8 3a9e 7f3b
00000220: 769c 3bb9 3bb7 acbb 236a 4cb9 b5c8 093d
00000230: 7b42 e4bb 611a d7b8 a196 eab8 e98e 51b9
00000240: 39de 1fbc b3ba 97bc 23de 62bb d607 c43c
00000250: c8a6 73bb fa1e 2fbb 7cf1 bcb8 0cf2 843b
00000260: e03a 26b9 44fb a6bb f47b 33b9 0af0 043d
00000270: 77bb bfbb 2574 bcb8 6f68 c7b8 029c 39b9
00000280: a2c9 16bc 8e6c 90bc dcde 32bb 2a14 bc3c
00000290: e942 82bd 201c f03c 8d10 31bc 7add 8c3a
000002a0: ce94 8a3d 4592 d23a a367 4fbb 4824 083b
000002b0: 3e32 2fbc 61ab 8c3d 8dfc 893a 0540 1f3a
000002c0: c7f0 033b a3e3 aebc ec5b 50bc 1de6 963d
000002d0: bf5d b33c 739e 8b3c f839 47bc 86e5 f939
000002e0: 5f7b 863d 9eed 843a 1441 13bb bb9e cf3a
000002f0: be54 103d 607c 733d a2c5 e739 2463 f4b8
00000300: b4c8 c33a 1757 0abd 59c1 bfbc 5830 833d
00000310: 748b 233d e441 8a3f ea65 9b3c 6f02 e3bc
00000320: f451 3639 e176 e83d 9e18 c2b7 b4ed 25bd
00000330: 0528 d6b7 69f9 153d bbc2 fc3c 03ea 2e39
00000340: 06ef 0eb8 0fcc 0bb8 94a4 14bc 3fb5 24bd
00000350: a782 ac3d 0ce7 4a3d 12b4 9f3c 42fe d4bc
00000360: 67a3 2d39 8743 f53d 32e9 02b8 2bb1 89bd
00000370: e3d5 5eb8 5330 0d3d 6d52 e83c 3cd4 2739
00000380: 0e40 c0b7 c693 68b8 d1d2 55bc aec2 17bd
00000390: b6a9 b13d 12d6 7a3d acd4 3cbd 77eb 6d3b
000003a0: ad73 d6bb d86d 56b7 6ddc d73c 5bc8 0eb9
000003b0: 228f 82bc e95a 37b9 d98a 763d 102a b83b
000003c0: 0bbf 74b7 20d9 aab8 57ac 33b9 b1dc 98bc
000003d0: fb0c 12bd f038 6c3c a5ea 3c3d e779 583b
000003e0: fc6c d3bb 7d9c beb7 7b08 d73c ec43 1eb9
000003f0: 10d5 84bc b34c 49b9 24b9 763d f51f aa3b

egnn.layers.0.edge_mlp.0.bias f4 [32]
-0.060125954 -0.017941365 -0.07475063 0.11055714 -0.0049451995 -0.12263522 -0.23783521 -0.043975938
-0.061119206 -0.10207509 -0.0813486 -0.04046625 0.013248007 -0.014958434 -0.20224084 -0.007755572
-0.01847244 0.2048357 -0.108654544 -0.031321432 0.12182855 0.042123523 0.11028136 0.0055539543
-0.0884533 0.07093692 -0.03529643 -0.014390211 -0.13072763 0.06800545 -0.24800013 0.05773453
00000000: a246 76bd c5f9 92bc dc16 99bd c86b e23d
00000010: 570b a2bb 2d28 fbbd 138b 73be 1d20 34bd
00000020: 2258 7abd bf0c d1bd 189a a6bd f0bf 25bd
00000030: 2b0e 593c 3814 75bc 3918 4fbe 7422 febb
00000040: 8453 97bc 73c0 513e 4686 debd e74a 00bd
00000050: 3f81 f93d b789 2c3d 32db e13d f2fd b53b
00000060: 0127 b5bd 6047 913d fd92 10bd ebc4 6bbc
00000070: 77dd 05be 7146 8b3d bff3 7dbe 0b7b 6c3d

egnn.layers.0.edge_mlp.2.weight f4 [32, 32]
-0.0307956 -0.027729437 -0.053505875 0.07787587 -0.024825927 -0.07613218 -0.08912995 -0.03243585
-0.06694293 -0.015614023 0.019005515 -0.008907146 0.0042249537 -0.011327177 -0.09571244 0.014320119
0.0053651426 0.09942425 -0.09396886 -0.012723152 0.02459691 0.027815117 0.02791739 -0.022933051
-0.026648123 0.078545995 -0.035156745 -0.009686546 -0.00012082883 -0.0008831958 -0.110825464 -6.8614536e-05
0.014143432 -0.017580947 0.057269797 -0.04311195 -0.0056122174 0.07671714 0.056923047 0.041356597
0.022454 0.046381213 0.012309139 0.008974438 -0.008553378 0.0153108835 0.07244554 0.0069240592
0.016096815 -0.095767744 0.070227414 0.008800647 -0.04932968 -0.020217583 -0.029005928 0.009445479
0.017611047 -0.042521603 -0.001661906 -0.00020250409 0.051079527 -0.022460818 0.0920438 -0.012303004
0.0181 0.017474592 0.05923965 -0.025643062 0.026174068 0.0766937 0.029360538 0.038337443
0.01632413 0.04159889 0.020439647 -0.0010985394 -0.01575645 0.030679135 0.089215934 -0.0069417935
0.014974557 -0.05924978 0.04646076 0.003411532 -0.03344795 -0.03046958 -0.05034262 0.016145715
0.026643801 -0.053849492 -0.0025607948 0.0039654877 0.015784336 -0.0329597 0.094823 -0.013896063
0.017462661 -0.0074527073 0.03869249 -0.037728913 -0.008451571 0.11808397 0.052524336 0.034652945
0.0029188253 -0.0027982763 -0.01175583 -0.010826294 -0.007269256 0.024579352 0.113764316 -0.005512422
0.050889 -0.09087531 0.058944352 0.014524044 -0.018211465 -0.039697107 -0.027241144 0.008865932
0.059389405 -0.035083316 0.020131165 0.016743753 0.06798968 -0.045247406 0.13989192 -0.037518684
-0.009401583 -0.012212248 -0.040091425 0.065537736 -0.0061839977 -0.08168792 -0.022215601 -0.03280046
-0.017619653 -0.012806094 0.005379695 -0.007576115 0.015004887 -0.017440943 -0.07158744 0.0037334517
0.007004148 0.07829203 -0.052799772 -0.0017398541 0.04674653 0.0067134365 0.03863675 0.0003593479
-0.026430942 0.02839631 -0.021458197 -0.0068175592 -0.004256237 0.02922814 -0.06949206 0.029782934
0.014431752 0.01516758 0.029215703 -0.03932392 -0.0025293794 0.08588891 0.01246666 -0.011522665
0.028977834 -0.009194238 0.007217449 0.0050110924 -0.008769977 0.0059755887 0.04949689 -0.0070420112
0.015356373 -0.059979033 0.064857736 0.0080372775 -0.04753232 -0.012757961 -0.021513458 -0.008220751
-0.0060075177 -0.017408961 0.041936886 0.008845524 0.011459471 -0.018220434 0.0658099 -0.018416377
-0.008489689 -0.009359648 -0.054538466 0.06985809 0.022117885 -0.10584754 -0.055874903 0.011470021
-0.015818367 -0.032477785 -0.011749334 -0.010499203 0.018542485 -0.015652215 -0.056948107 -0.0065443935
-0.02590794 0.078873314 -0.06337406 -0.015183815 0.049087286 0.039656017 0.01997588 -0.008600858
-0.009494857 0.053890314 -0.04770617 0.004023475 -0.021566851 0.036337916 -0.10527879 0.023769747
0.00068108446 -0.0006313736 0.018951396 -0.010730928 0.0016084386 0.035269752 0.060488123 0.0038607386
0.008653327 0.022190597 0.013031783 0.008603928 -0.0014139413 0.01065255 0.028284099 0.0073132436
0.0062025134 -0.02960802 0.03235792 -0.010760198 -0.011035453 -0.006168873 -0.026291972 -0.016829768
0.0068951203 -0.019925902 0.009826838 0.00010435676 0.004561397 -0.0053380756 0.02584837 -0.0018426018
00000000: 0e47 fcbc d828 e3bc fa28 5bbd 627d 9f3d
00000010: be5f cbbc 30eb 9bbd c389 b6bd 74db 04bd
00000020: 6019 89bd f6d1 7fbc 74b1 9b3c 47ef 11bc
00000030: 7b71 8a3b a095 39bc e204 c4bd ef9e 6a3c
00000040: 14ce af3b f19e cb3d bf72 c0bd c474 50bc
00000050: 767f c93c 87dc e33c 03b3 e43c 18de bbbc
00000060: 2a4d dabc b9dc a03d 8500 10bd 52b4 1ebc
00000070: 7c65 fdb8 4486 67ba 76f8 e2bd 26e5 8fb8
00000080: dab9 673c eb05 90bc bc93 6a3d 2896 30bd
00000090: b1e6 b7bb e01d 9d3d 2428 693d 8965 293d
000000a0: 73f1 b73c 3afa 3d3d 45ac 493c 8509 133c
000000b0: 7823 0cbc 80da 7a3c 545e 943d 38e3 e23b
000000c0: 78dd 833c e121 c4bd 64d3 8f3d 9730 103c
000000d0: eb0d 4abd 589f a5bc d79d edbc 36c1 1a3c
000000e0: 0b45 903c 222b 2ebd 50d4 d9ba 4757 54b9
000000f0: c438 513d c0ff b7bc 7681 bc3d 8a92 49bc
00000100: 7446 943c e026 8f3c 46a5 723d 6611 d2bc
00000110: 006b d63c 9611 9d3d 8385 f03c b907 1d3d
00000120: 2fba 853c 9963 2a3d 0c71 a73c defc 8fba
00000130: ac13 81bc cf52 fb3c d8b6 b63d fc77 e3bb
00000140: d857 753c e6af 72bd a34d 3e3d 0294 5f3b
00000150: b800 09bd 579b f9bc 1034 4ebd 0544 843c
00000160: 1a44 da3c 4991 5cbd 02d3 27bb ecf0 813b
00000170: 274e 813c c000 07bd 9032 c23d 50ac 63bc
00000180: db0d 8f3c d735 f4bb 047c 1e3d a289 1abd
00000190: 7578 0abc 02d6 f13d c223 573d 3ff0 0d3d
000001a0: c349 3f3b 4963 37bb 869b 40bc c560 31bc
000001b0: f032 eebb a35a c93c 44fd e83d 8ca1 b4bb
000001c0: fc70 503d d61c babd a26f 713d 41f6 6d3c
000001d0: 3630 95bc 6f99 22bd d228 dfbc 6a42 113c
000001e0: 4e42 733d 86b3 0fbd 1dea a43c 322a 893c
000001f0: 2c3e 8b3d 5855 39bd d43f 0f3e 31ad 19bd
00000200: 1909 1abc e115 48bc e836 24bd a638 863d
00000210: 22a3 cabb ff4b a7bd 7efd b5bc c659 06bd
00000220: 1757 90bc a7d0 51bc 2748 b03b 0f41 f8bb
00000230: 0fd7 753c 4fe0 8ebc 709c 92bd edac 743b
00000240: 0d83 e53b 9257 a03d 9344 58bd d10b e4ba
00000250: 4a79 3f3d 63fc db3b 9241 1e3d dc66 bc39
00000260: b485 d8bc 619f e83c 1ac9 afbc d565 dfbb
00000270: e777 8bbb da6f ef3c da51 8ebd 57fb f33c
00000280: 2873 6c3c 7181 783c c555 ef3c 1e12 21bd
00000290: f2c3 25bb 86e6 af3d f640 4c3c 8fc9 3cbc
000002a0: ec62 ed3c 6ea3 16bc 5a80 ec3b 1734 a43b
000002b0: f3af 0fbc dfce c33b 40bd 4a3d acc0 e6bb
000002c0: 4c99 7b3c 93ac 75bd 22d4 843d c9ae 033c
000002d0: 40b1 42bd c406 51bc fe3c b0bc 54b0 06bc
000002e0: b6da c4bb 3d9d 8ebc 03c6 2b3d d1ec 103c
000002f0: 81c0 3b3c 0543 95bc 57c7 863d f1dd 96bc
00000300: 5618 0bbc 3659 19bc ba63 5fbd c211 8f3d
00000310: 9130 b53c 98c6 d8bd 15dd 64bd c1ec 3b3c
00000320: 8595 81bc 6d07 05bd 4780 40bc d904 2cbc
00000330: 69e6 973c 1339 80bc 6b42 69bd 5a72 d6bb
00000340: e33c d4bc 5588 a13d 42ca 81bd 89c5 78bc
00000350: c00f 493d 596e 223d 75a4 a33c 9dea 0cbc
00000360: 5190 1bbc 17bc 5c3d 8b67 43bd 5bd7 833b
00000370: f7ac b0bc 11d7 143d 689c d7bd c6b8 c23c
00000380: ce8a 323a c482 25ba f53f 9b3c c6d0 2fbc
00000390: 3ed2 d23a 0477 103d 65c2 773d 7204 7d3b
000003a0: afc6 0d3c 0ec9 b53c 4283 553c 7df7 0c3c
000003b0: ff53 b9ba 0888 2e3c 0eb4 e73c efa3 ef3b
000003c0: 743e cb3b 858c f2bc bd89 043d 8b4b 30bc
000003d0: 0bce 34bc 4224 cabb 4362 d7bc 95de 89bc
000003e0: 76f0 e13b a53b a3bc bf00 213c 1cda da38
000003f0: c577 953b 06eb aebb f6bf d33c 7583 f1ba

egnn.layers.0.edge_mlp.2.bias f4 [32]
0.09938174 -0.0684748 -0.05682601 -0.1057711 0.05773111 -0.0918874 0.054310538 -0.022320662
-0.008710943 0.059326246 0.039410755 -0.014424183 0.07210696 0.03107305 0.08892046 0.08337265
0.04305153 -0.115186185 0.02096662 -0.06422242 0.071322635 -0.00051087124 -0.10383948 0.029389827
-0.034898963 -0.09314883 -0.046039395 -0.023460232 0.03819481 -0.06443577 0.08356055 -0.047590643
00000000: a788 cb3d 843c 8cbd 64c2 68bd 859e d8bd
00000010: 7577 6c3d 762f bcbd ba74 5e3d d2d9 b6bc
00000020: 58b8 0ebc 1400 733d 2c6d 213d 6953 6cbc
00000030: d0ac 933d e98c fe3c ee1b b63d 48bf aa3d
00000040: cd56 303d bce6 ebbd 30c2 ab3c 0b87 83bd
00000050: 9a11 923d fdeb 05ba cba9 d4bd efc2 f03c
00000060: 37f2 0ebd d0c4 bebd ce93 3cbd ac2f c0bc
00000070: 2972 1c3d e7f6 83bd cb21 ab3d 68ee 42bd

egnn.layers.0.node_mlp.0.weight f4 [32, 48]
-4.4010114e-05 -0.00019412368 -8.062715e-07 -0.00014921885 6.129977e-06 -8.7928165e-05 8.621164e-06 0.000569171
-0.00016810471 -7.2197406e-07 2.44938e-06 8.474391e-06 -0.00027762176 -0.00021074606 -0.00010531477 0.000389005
-0.0002754788 9.66669e-05 0.0003196724 3.3943954e-05 5.4779543e-05 -0.000240665 -0.00019114715 -0.00017343258
0.0001816163 -0.00026375978 -0.00019044228 0.00060475915 -0.00031680666 -0.00027026565 -0.00024908615 0.00010332073
-0.00056218565 0.00030286782 0.0035223272 -6.2821186e-05 -0.00027057627 0.00060610793 -0.0016141247 -0.00021642368
0.000274083 0.0002926272 0.00055425026 -0.003349699 0.0022159447 0.00016853938 0.0016999649 3.8297825e-05
0.032380268 -0.024540337 0.00045886275 0.088429324 -0.00012516144 -0.05100579 -0.00027970853 0.06394448
0.043967184 0.00044879314 -0.00012146761 -0.00023682108 -0.030846516 -0.04860122 0.0745436 0.06455005
-0.057245303 0.042555578 0.04829929 0.044114098 -0.034625832 0.022669187 -0.043724503 0.015037752
0.007902267 -0.055024344 -0.031783145 0.039988775 -0.06339962 -0.04476083 -0.05420309 -0.03955221
-0.06053161 0.0517719 0.09941521 0.0330641 -0.05439335 0.012231018 -0.030384816 -0.054523975
0.03602804 0.056930594 0.06527952 -0.09943815 0.08430737 0.047813054 0.0361086 0.045740314
6.1812345e-05 0.00017205706 7.401237e-07 0.00014652601 -6.3367434e-06 5.929084e-05 -9.151942e-06 -0.00041407856
0.00018542157 6.5510983e-07 -2.5278973e-06 -8.987422e-06 0.00024094488 0.00015858584 0.00014280833 -0.00030414097
0.0002493864 -7.223325e-05 -0.00029466223 -2.0635622e-05 -6.794765e-05 0.0002470314 0.00016833117 0.00017664208
-0.0001797583 0.000241598 0.00017022947 -0.0005756306 0.00029040646 0.00024337736 0.0002252672 -0.00012452195
0.00052492955 -0.00027424 -0.0034113734 7.394549e-05 0.00024081513 -0.0006003636 0.0015386834 0.0001979932
-0.0002523789 -0.00026772718 -0.0005229225 0.0032424012 -0.002142797 -0.00014886734 -0.0016200767 -2.8091868e-05
-0.017370293 -0.0009317582 2.6426693e-05 -0.02216324 -0.00019389302 0.003475014 -0.0002195441 0.03642609
-0.024369754 2.1162976e-05 -0.00015246207 -0.00021218687 -0.016108882 -0.023589797 -0.028436009 0.024520587
0.010504963 -0.009927971 -0.0036217687 -0.00942321 0.009734612 -0.01376063 0.010422536 -0.0045135515
0.001881322 0.008278889 0.0075401766 -1.955861e-05 0.009574093 0.004819591 0.007646267 0.01606197
0.0061701206 -0.0027161457 0.10358463 -0.014453942 0.005824468 0.000103579485 -0.021957947 0.0064552147
-0.004387008 -0.0035864282 -0.005853544 -0.10260219 0.05393433 -0.006327233 0.026308913 -0.009918892
-0.00011577767 -0.00014542996 -1.2574412e-06 -0.00026387096 5.3733997e-06 -6.545204e-06 7.66193e-06 0.0005288418
-0.00025100828 -1.1704643e-06 2.0515333e-06 7.5419553e-06 -0.00022065673 -0.00014384014 -0.000199079 0.00031854038
-0.00025904924 8.5314176e-05 0.00029911468 2.7277236e-05 6.5085005e-05 -0.00024804784 -0.00017577445 -0.00018744817
0.00017913918 -0.00024291199 -0.00017351196 0.000573335 -0.00029819962 -0.00025199473 -0.00023115444 9.847102e-05
-0.0005323531 0.00029242886 0.0032892304 -7.494206e-05 -0.00025331904 0.00050910906 -0.0015410337 -0.00019866659
0.0002524607 0.00029012948 0.0005211681 -0.0031220026 0.0020041624 0.00015634522 0.0016207275 2.8057124e-05
3.3947497e-05 0.00018950013 5.6540017e-07 0.00011300997 -6.496204e-06 8.2301136e-05 -9.253309e-06 -0.0004979819
0.0001527878 4.8258033e-07 -2.626825e-06 -9.103664e-06 0.00025553544 0.00018957586 0.000109679015 -0.0003547955
00000000: 8097 38b8 ae8d 4bb9 8e6e 58b5 a177 1cb9
00000010: 1ab0 cd36 1366 b8b8 9ea3 1037 6b34 153a
00000020: 4445 30b9 aecd 41b5 0760 2436 3b2d 0e37
00000030: c38d 91b9 b7fb 5cb9 70dc dcb8 5ef3 cb39
00000040: 236e 90b9 a6b9 ca38 b499 a739 0b5f 0e38
00000050: 16c3 6538 055b 7cb9 ac6e 48b9 74db 35b9
00000060: 4170 3e39 3d49 8ab9 76b1 47b9 b388 1e3a
00000070: 1219 a6b9 71b2 8db9 c797 82b9 e5ad d838
00000080: a45f 13ba 3bca 9e39 d8d6 663b debe 83b8
00000090: 22dc 8db9 37e3 1e3a 0a91 d3ba caef 62b9
000000a0: ccb2 8f39 c26b 9939 1b4b 113a a086 5bbb
000000b0: 6239 113b f2b9 3039 5bd1 de3a faa1 2038
000000c0: 2ca1 043d d108 c9bc 8493 f039 6f1a b53d
000000d0: c53d 03b9 72eb 50bd d8a5 92b9 53f5 823d
000000e0: ef16 343d ff4b eb39 6dbc feb8 2d53 78b9
000000f0: d5b1 fcbc 1312 47bd 51aa 983d d132 843d
00000100: 0d7a 6abd c24e 2e3d 7ad5 453d fcb0 343d
00000110: d1d3 0dbd bbb4 b93c 7718 33bd e760 763c
00000120: 8378 013c 3561 61bd 0b2f 02bd 45cb 233d
00000130: a9d7 81bd 2257 37bd 0f04 5ebd 8001 22bd
00000140: feef 77bd c60e 543d 349a cb3d 396e 073d
00000150: 90cb 5ebd 9c64 483c 94e9 f8bc 8854 5fbd
00000160: 2392 133d 0e30 693d 45b1 853d 3ba6 cbbd
00000170: 58a9 ac3d 9fd7 433d 9de6 133d 325a 3b3d
00000180: 40a1 8138 376a 3439 eaac 4635 c7a4 1939
00000190: 36a0 d4b6 0eaf 7838 4b8b 19b7 af18 d9b9
000001a0: b96d 4239 ceda 2f35 f2a4 29b6 afc8 16b7
000001b0: 26a6 7c39 104a 2639 d2be 1539 1c75 9fb9
000001c0: 13c0 8239 ee7b 97b8 e57c 9ab9 a91a adb7
000001d0: 1e7f 8eb8 fe83 8139 0e82 3039 ff38 3939
000001e0: 807d 3cb9 7855 7d39 a07f 3239 eae5 16ba
000001f0: b241 9839 1d33 7f39 b435 6c39 1b92 02b9
00000200: 6d9b 093a dfc7 8fb9 5991 5fbb 2f13 9b38
00000210: 5283 7c39 b861 1dba a6ad c93a 659c 4f39
00000220: b951 84b9 bc5d 8cb9 bc14 09ba 777e 543b
00000230: 2b6e 0cbb 4619 1cb9 c158 d4ba d4a6 ebb7
00000240: 254c 8ebc 3c41 74ba e4ae dd37 af8f b5bc
00000250: c34f 4bb9 0fbd 633b 6c35 66b9 8633 153d
00000260: 14a3 c7bc 2587 b137 3ade 1fb9 7b7e 5eb9
00000270: c6f6 83bc 643f c1bc a2f2 e8bc 66df c83c
00000280: 021d 2c3c eea8 22bc 325b 6dbb cf63 1abc
00000290: ec7d 1f3c 4474 61bc 49c3 2a3c 6ae6 93bb
000002a0: b196 f63a 2da4 073c 9613 f73b cc11 a4b7
000002b0: a8dc 1c3c a9ed 9d3b 898d fa3b 6494 833c
000002c0: b92e ca3b 5d01 32bb 2e24 d43d 3ad0 6cbc
000002d0: 2edb be3b d038 d938 27e1 b3bc 4486 d33b
000002e0: e4c0 8fbb 480a 6bbb 16cf bfbb 1921 d2bd
000002f0: 3eea 5c3d ad54 cfbb ca85 d73c d982 22bc
00000300: aacd f2b8 8f7e 18b9 5ac5 a8b5 2958 8ab9
00000310: 274d b436 e09e dbb6 bd8b 0037 f9a1 0a3a
00000320: c399 83b9 d918 9db5 13ad 0936 e710 fd36
00000330: 1760 67b9 cbd3 16b9 ddbf 50b9 c401 a739
00000340: 00d1 87b9 b3ea b238 7ed2 9c39 6bd1 e437
00000350: 3f7e 8838 6b0c 82b9 1850 38b9 bc8d 44b9
00000360: 4fd7 3b39 31b6 7eb9 c3f0 35b9 dc4b 163a
00000370: ad57 9cb9 291e 84b9 0c62 72b9 3a82 ce38
00000380: 9d8d 0bba 2351 9939 2190 573b 362a 9db8
00000390: e8cf 84b9 bb75 053a 83fc c9ba 2851 50b9
000003a0: b45c 8439 851c 9839 009f 083a 839a 4cbb
000003b0: 4458 033b 9af0 2339 976e d43a 375c eb37
000003c0: d962 0e38 8eb4 4639 01c6 1735 c4ff ec38
000003d0: f8f9 d9b6 1699 ac38 a93e 1bb7 008b 02ba
000003e0: aa35 2039 ab8a 0135 8348 30b6 f0bb 18b7
000003f0: 63f9 8539 e2c8 4639 7903 e638 d903 bab9

egnn.layers.0.node_mlp.0.bias f4 [32]
0.0013914289 -0.05038125 -0.0013577823 0.052293632 0.0015364446 -0.0012767916 -0.10293178 0.0015338373
0.07627663 0.054227367 -0.0034898543 -0.0009519166 -0.06742511 -0.001253524 0.0016563606 0.0015735503
0.044461068 0.02420726 0.050140228 -0.05788018 -0.0016465826 0.00042622507 0.028724184 0.00042812186
-0.0012447975 -0.056512598 -0.04786716 -0.051023476 0.01221811 0.04841485 -0.061801437 -0.003976182
00000000: 9b60 b63a 925c 4ebd 9df7 b1ba d931 563d
00000010: 8762 c93a 045a a7ba e6cd d2bd 0a0b c93a
00000020: ec36 9c3d 841d 5e3d 0ab6 64bb 0b8a 79ba
00000030: 2d16 8abd 494d a4ba 3d1a d93a 963f ce3a
00000040: cf1c 363d 4e4e c63c d75f 4d3d c513 6dbd
00000050: 25d2 d7ba f676 df39 fb4e eb3c 8b75 e039
00000060: 7928 a3ba c179 67bd 5b10 44bd fefd 50bd
00000070: 782e 483c a64e 463d 8123 7dbd a24a 82bb

egnn.layers.0.node_mlp.2.weight f4 [16, 32]
-0.0025581198 0.016423186 0.0029983271 -0.00039838656 -0.002441541 0.0030960187 0.111395426 -0.0019857693
-0.08182285 -0.028108042 -0.0008192366 0.0033702175 0.069085576 0.0029280107 -0.0021991553 -0.0022387397
0.006947945 -0.01620469 -0.06612785 0.047172923 0.0033657656 -0.0014720961 0.016769335 -0.0012928246
0.0030040175 0.0586226 0.0573489 0.032848973 -0.049113903 -0.03280659 0.060982708 -0.00080506376
-0.0004278417 -0.023586791 0.00035307155 0.018664338 -0.00042613142 0.00036222016 -0.0070358166 -0.00031945697
0.0033288037 0.028178459 -0.00013580616 0.0004147626 -0.0049707745 0.00040232172 -0.00038560666 -0.00041767073
0.019884503 0.0017789326 0.00416668 -0.042352766 0.00031987406 -0.00024567172 0.019744072 -0.00055260176
0.00039285867 -0.003775592 -0.005307606 -0.02494361 0.014439961 0.0306988 -0.03660791 -0.00011729802
-9.891371e-06 -0.00052533974 7.798057e-06 -0.00159147 -6.8009062e-06 8.773411e-06 0.0013255345 1.479041e-06
-0.0007334419 0.00040489165 -4.4282306e-06 1.5602607e-05 0.00058604934 1.0806303e-05 -2.2043446e-06 -5.493804e-06
0.00066525355 -0.00029389572 -0.00021266562 -0.000153594 6.522364e-06 2.7110852e-06 0.0008643846 7.05628e-06
1.0402937e-05 0.000348532 0.00017275897 -0.00050247833 -2.3735167e-05 0.000528639 -0.00013594989 -5.6294766e-06
-0.0007597959 0.08756106 0.00035977928 -0.025401888 -0.00093940605 0.0004594633 0.07634883 -0.0008013151
-0.053756047 -0.11599841 0.00036336744 0.00043469333 0.016064314 0.00070357684 -0.0009692539 -0.0008510628
-0.042261776 -0.0053487485 -0.03387865 0.14383371 0.00011995427 -0.00046476396 -0.07568733 -0.00064670155
0.00057860976 0.02234507 0.0070309066 0.073496036 -0.011118053 -0.107020855 0.14028741 0.00045557148
2.910805e-05 -0.0005475459 -2.208104e-05 -0.0015913015 3.5204404e-05 -2.0355903e-05 0.001372168 4.2537336e-05
-0.0009688734 0.00045498056 -2.581259e-05 -9.0845915e-06 0.00086183986 -2.1844784e-05 4.207965e-05 3.9324666e-05
0.0006503686 -0.0004394008 -0.0005966229 -0.0002562543 -2.295708e-05 3.067698e-05 0.00078514265 1.7871838e-05
-2.089662e-05 0.00069765275 0.00055600435 -0.0005311392 -0.00030920067 0.0005547746 -0.00024199365 -3.4171742e-05
-0.00062156183 -0.0686101 0.00037471758 -0.05820289 -0.000617065 0.00044908095 -0.023823828 -0.00042104095
0.010974185 0.06596613 -0.001346357 0.00056772394 -0.014928463 0.00062768144 -0.00048101068 -0.0005018805
0.06145733 -0.0070765717 0.010199509 -0.08724257 0.00046056497 -0.00050814974 0.055304516 0.0012228681
0.0005731722 -0.017549789 -0.012687521 -0.07834594 0.005247648 0.06943892 -0.06549275 -0.0014090372
3.10111e-05 -0.0005771479 -2.241951e-05 -0.0021832874 4.0371335e-05 -1.983962e-05 0.00146995 5.485657e-05
-0.0010513196 0.00048641962 -3.4721084e-05 -2.6566759e-06 0.0009481687 -2.1029222e-05 5.1840663e-05 4.6514313e-05
0.00067766506 -0.00065951265 -0.0007197645 -0.00028789465 -2.3955012e-05 4.1595922e-05 0.0007969877 1.7668657e-05
-1.9945175e-05 0.0008022757 0.00069376617 -0.0005620203 -0.00045833216 0.000582995 -0.00027651986 -4.6360754e-05
0.0052178646 0.18541674 -0.004924572 0.07633383 0.004793981 -0.0051474143 -0.18156949 0.0028998891
0.15514621 -0.1914515 0.0021439597 -0.006459658 -0.14439581 -0.005484104 0.0038491485 0.0043993415
-0.183661 0.053645264 0.122316055 0.19593707 -0.0048830505 0.0019440398 -0.18554898 0.0023250405
-0.0054199123 -0.13184713 -0.11530172 0.18518086 0.11818282 -0.19215 0.19343746 0.0023016946
00000000: 21a6 27bb eb89 863c 957f 443b 8ade d0b9
00000010: 4302 20bb 93e6 4a3b 4923 e43d ae23 02bb
00000020: bd92 a7bd d642 e6bc 0ac2 56ba dede 5c3b
00000030: bd7c 8d3d dee3 3f3b b41f 10bb d2b7 12bb
00000040: 96ab e33b b3bf 84bc 0a6e 87bd 6538 413d
00000050: 2d94 5c3b 59f3 c0ba d85f 893c ff73 a9ba
00000060: 0ddf 443b 401e 703d aee6 6a3d a58c 063d
00000070: a92b 49bd 3460 06bd 01c9 793d ea0a 53ba
00000080: f14f e0b9 1639 c1bc 761c b939 f4e5 983c
00000090: 646a dfb9 5ee8 bd39 b58c e6bb ca7c a7b9
000000a0: 0f28 5a3b 83d6 e63c 3067 0eb9 7e74 d939
000000b0: e1e1 a2bb b5ee d239 402b cab9 d1fa dab9
000000c0: d3e4 a23c 132b e93a a588 883b 187a 2dbd
000000d0: c5b4 a739 80cd 80b9 52be a13c 7adc 10ba
000000e0: 99f8 cd39 ec6f 77bb 6deb adbb 8b56 ccbc
000000f0: 9695 6c3c 0d7c fb3c 2df2 15bd e5fd f5b8
00000100: 1df3 25b7 f4b6 09ba 66d4 0237 df98 d0ba
00000110: 5733 e4b6 8331 1337 8fbd ad3a 7683 c635
00000120: 7444 40ba a347 d439 3696 94b6 58e2 8237
00000130: 1ba1 193a b84c 3537 5aee 13b6 6b57 b8b6
00000140: 6964 2e3a 0416 9ab9 fefe 5eb9 130e 21b9
00000150: aeda da36 17f0 3536 de97 623a fcc4 ec36
00000160: 4688 2e37 2cbb b639 a226 3539 c0b8 03ba
00000170: e21a c7b7 5d94 0a3a c58d 0eb9 d6e4 bcb6
00000180: 0a2d 47ba 3753 b33d c2a0 bc39 9f17 d0bc
00000190: 7942 76ba 1fe4 f039 c65c 9c3d 590f 52ba
000001a0: 4d2f 5cbd 9390 edbd 5a82 be39 8de7 e339
000001b0: 4f99 833c 3e70 383a 8715 7eba dc19 5fba
000001c0: af1a 2dbd 8e44 afbb 57c4 0abd 2549 133e
000001d0: f58f fb38 90ab f3b9 f501 9bbd 6887 29ba
000001e0: d8ad 173a 020d b73c 8563 e63b 1785 963d
000001f0: 7f28 36bc c02d dbbd 81a7 0f3e c5d9 ee39
00000200: 102d f437 2f89 0fba ac3a b9b7 3893 d0ba
00000210: 71a8 1338 f8c1 aab7 51da b33a 1e6a 3238
00000220: fefb 7dba 758a ee39 1d88 d8b7 066a 18b7
00000230: 18ed 613a 513f b7b7 ae7e 3038 8af0 2438
00000240: 7f7d 2a3a 615f e6b9 af66 1cba df59 86b9
00000250: f493 c0b7 28ab 0038 08d2 4d3a 7beb 9537
00000260: 264b afb7 afe2 363a d2c0 113a 263c 0bba
00000270: 361c a2b9 4b6e 113a adbf 7db9 a153 0fb8
00000280: 4ff0 22ba 7483 8cbd be75 c439 2766 6ebd
00000290: 88c2 21ba a072 eb39 302a c3bc 29bf dcb9
000002a0: 11cd 333c 4019 873d 3f78 b0ba 4fd3 143a
000002b0: 8396 74bc fd8a 243a 2930 fcb9 a190 03ba
000002c0: aeba 7b3d 96e2 e7bb d71b 273c 3cac b2bd
000002d0: fc77 f139 5a35 05ba fd86 623d a548 a03a
000002e0: ef40 163a 93c4 8fbc 52df 4fbc d673 a0bd
000002f0: 76f4 ab3b fe35 8e3d 1021 86bd 71af b8ba
00000300: ea11 0238 bd4b 17ba 8811 bcb7 7c15 0fbb
00000310: 6454 2938 426d a6b7 56ab c03a cb15 6638
00000320: 6fcc 89ba 2306 ff39 7ba1 11b8 5849 32b6
00000330: 868e 783a e967 b0b7 7d6f 5938 5d18 4338
00000340: 55a5 313a 25e3 2cba 94ae 3cba 91f0 96b9
00000350: fff2 c8b7 4877 2e38 f0ec 503a 2737 9437
00000360: f04f a7b7 d04f 523a dcdd 353a 8b54 13ba
00000370: 4d4c f0b9 22d4 183a def9 90b9 7b73 42b8
00000380: 9ffa aa3b e3dd 3d3e 4e5e a1bb e954 9c3d
00000390: d416 9d3b a4ab a8bb 5aed 39be 110c 3e3b
000003a0: a6de 1e3e dd0b 44be ad81 0c3b 8aab d3bb
000003b0: 7fdc 13be 00b4 b3bb ff41 7c3b 5a28 903b
000003c0: a111 3cbe 23bb 5b3d d780 fa3d baa3 483e
000003d0: ff01 a0bb 27cf fe3a 8d00 3ebe b55f 183b
000003e0: 8599 b1bb ef02 07be 4f23 ecbd 0da0 3d3e
000003f0: d609 f23d f8c2 44be 7814 463e 07d8 163b

egnn.layers.0.node_mlp.2.bias f4 [16]
-0.130173 0.042777132 -0.0046675666 -0.14101334 -0.0037487112 0.073245555 -0.0036187163 -0.1066332
-0.16128787 -0.0046401615 -0.0039241468 -0.0037194057 0.011991443 0.057053708 -0.13217676 -0.08639081
00000000: 124c 05be 1337 2f3d 63f2 98bb cd65 10be
00000010: f0ac 75bb c401 963d fc27 6dbb 8262 dabd
00000020: a628 25be 7f0c 98bb 2196 80bb 46c1 73bb
00000030: c277 443c 26b1 693d 5859 07be aaed b0bd

egnn.layers.0.coord_mlp.0.weight f4 [32, 32]
0.06293182 -0.03008953 -0.011897501 -0.05108193 0.015948594 -0.049925886 0.044925302 -0.028763998
0.0005479259 0.0390888 0.039676964 0.017489724 0.059710536 0.054075416 0.044867545 0.08139307
0.037329294 -0.045964032 0.023103261 -0.03991666 0.086355284 0.084399134 0.104581945 0.047541294
-0.0026491515 -0.09151856 -0.0042116223 -0.21471654 0.18944961 -0.05645789 0.09921814 -0.018947829
-0.0074378694 -0.00016118561 -0.00279499 0.007796237 -0.0031464065 0.00689646 0.0012760895 -0.015436829
-0.011138353 -0.0067351004 0.011484327 -0.020350693 -0.0070021586 0.00020648452 -0.010089818 -0.008133778
0.005190815 0.00770652 -0.047234673 -0.009258624 -0.005973859 0.011544551 -0.022591436 -0.008665983
-0.0074745924 0.0061119306 0.0030894473 0.027275817 0.04673868 0.0065567144 0.002641687 0.0069970847
0.010570053 -0.0043662232 -0.003239955 -0.013226436 0.0058927126 -0.01074996 0.005115588 0.0040048966
0.0006985951 0.0069009447 -0.0122802425 0.0058542327 0.007489804 0.0040746746 0.009830563 0.0173604
-0.002872993 -0.011387757 0.054664273 -0.00055466726 0.0056480328 0.020240761 -0.0062981634 0.0077593867
0.0014816222 -0.012450262 -0.0018931179 0.0031289116 0.036653828 -0.011675026 0.004627256 -0.011789528
0.010200614 -0.0030057468 -0.0025735495 -0.011029927 0.002934657 -2.1234708e-05 0.0031057312 0.001944114
0.005394104 0.0051117325 -0.012379697 0.001135486 0.008082075 0.006544091 0.007833432 0.01323588
-0.0035971545 -0.011597328 0.04634633 0.0030688283 0.0042478163 -0.019672362 -0.03737893 0.0073225023
0.0102548245 -0.023161627 -0.0003569311 -0.030358715 -0.039322518 -0.0039124577 0.033197165 -0.008810081
0.014949147 -0.010957461 -0.007404172 -0.010716659 0.0149479 -0.020818815 0.012897799 -0.0035158966
0.002328773 0.009733181 -0.01458403 -0.004574405 0.0054957103 0.009223666 0.008146609 0.016388506
0.008777147 -0.0016774563 0.019623285 -0.0070561767 0.009639417 0.052265625 -0.0080344295 0.0071260915
0.0003287099 -0.01253666 -0.0047725746 -0.004695283 0.076513305 -0.0103954375 0.058679815 -0.013760921
0.04223079 -0.035422564 -0.029954858 -0.043736503 0.02770094 -0.0242863 0.03402343 -0.00963682
-0.0023526647 0.037015818 0.021184316 -0.005336842 0.039760556 0.026326803 0.047132384 0.054372143
0.026364204 -0.05613986 0.1340639 -0.032402 0.034790497 -0.0032360735 -0.062914506 0.042951588
-0.015054101 -0.10269743 -0.028671836 -0.13519788 0.10966759 -0.035406027 0.058304988 -0.04136201
-0.021927893 0.01355585 0.0149327535 0.020073483 -0.013600727 0.013438812 -0.012309697 0.0037436355
-0.003802276 -0.019265002 0.0009079631 0.0046633063 -0.020067615 -0.013115967 -0.020080002 -0.020972082
-0.009102017 0.028310116 -0.09982794 0.0061473544 -0.014219941 0.008337421 0.059204902 -0.020598123
0.013130179 0.032669816 0.016859172 0.059174966 -0.030183421 0.02043788 -0.033664808 0.021997605
0.010723055 -0.0037212216 -0.0029909136 -0.009246718 0.007083981 -0.01128958 0.004382475 -0.00014971565
0.0036329052 0.0047367234 -0.009054893 0.0039681057 0.0050939866 0.0069434037 0.006709683 0.012550504
-0.0055299625 -0.0077653457 0.054222796 0.00064771774 0.0040139565 0.028983574 -0.0049718777 0.0060864175
0.0037872235 -0.0052222465 0.0006911602 0.00350742 0.004346608 -0.00758282 0.009707795 -0.009290622
00000000: 66e2 803d 517e f6bc bced 42bc 493b 51bd
00000010: a0a6 823c 167f 4cbd 9803 383d 7aa2 ebbc
00000020: afa2 0f3a 941b 203d 5084 223d 9c46 8f3c
00000030: 0993 743d 2f7e 5d3d 08c7 373d 69b1 a63d
00000040: 9ae6 183d c844 3cbd 0d43 bd3c a77f 23bd
00000050: 0adb b03d 74d9 ac3d 0f2f d63d a9ba 423d
00000060: 639d 2dbb 156e bbbd a601 8abb a7de 5bbe
00000070: 14ff 413e 6340 67bd e132 cb3d 7a38 9bbc
00000080: 5fb9 f3bb ef03 29b9 272c 37bb 9377 ff3b
00000090: f133 4ebb b3fb e13b 7542 a73a c1ea 7cbc
000000a0: a37d 36bc 1eb2 dcbb c228 3c3c 7fb6 a6bc
000000b0: 5d72 e5bb c483 5839 c44f 25bc 8a43 05bc
000000c0: b617 aa3b fa86 fc3b 2579 41bd 7cb1 17bc
000000d0: 5dc0 c3bb 5b25 3d3c ad11 b9bc c4fb 0dbc
000000e0: 6ded f4bb 9746 c83b 5378 4a3b 8971 df3c
000000f0: 0f71 3f3d b5d9 d63b 2720 2d3b cd47 e53b
00000100: 042e 2d3c 8912 8fbb 6d55 54bb b2b3 58bc
00000110: a817 c13b 9a20 30bc aaa0 a73b 823b 833b
00000120: ec21 373a 5221 e23b 1233 49bc ddd4 bf3b
00000130: 086d f53b d984 853b 5f10 213c 6637 8e3c
00000140: d348 3cbb b793 3abc a5e7 5f3d 1767 11ba
00000150: 2213 b93b f4cf a53c d360 cebb 7442 fe3b
00000160: fe32 c23a 2ffc 4bbc 7f22 f8ba 6d0e 4d3b
00000170: 5322 163d 9c48 3fbc 3da0 973b dd28 41bc
00000180: 7a20 273c 10fc 44bb ffa8 28bb deb6 34bc
00000190: 6053 403b 3021 b2b7 8689 4b3b a4d1 fe3a
000001a0: 06c1 b03b 5280 a73b 36d4 4abc 96d4 943a
000001b0: ae6a 043c d06f d63b cc57 003c 4edb 583c
000001c0: 3dbe 6bbb b802 3ebc a6d5 3d3d 651e 493b
000001d0: 4431 8b3b ef27 a1bc a61a 19bd 9af1 ef3b
000001e0: da03 283c 74bd bdbc 7b22 bbb9 d7b2 f8bc
000001f0: a610 21bd 1334 80bb c0f9 073d 2858 10bc
00000200: 44ed 743c ec86 33bc b29e f2bb ed94 2fbc
00000210: 09e8 743c 388c aabc 4a51 533c f56a 66bb
00000220: 549e 183b ec77 1f3c dbf1 6ebc e4e4 95bb
00000230: 5c15 b43b dc1e 173c 5b79 053c 3041 863c
00000240: 06ce 0f3c 18de dbba 03c1 a03c 8037 e7bb
00000250: a5ee 1d3c 7b14 563d d7a2 03bc fd81 e93b
00000260: b256 ac39 9066 4dbc 4263 9cbb e3da 99bb
00000270: 02b3 9c3d a051 2abc 3f5a 703d 7c75 61bc
00000280: 31fa 2c3d 4017 11bd e463 f5bc 0c25 33bd
00000290: 15ed e23c 10f4 c6bc 275c 0b3d c1e3 1dbc
000002a0: 2a2f 1abb e69d 173d bb8a ad3c ade0 aebb
000002b0: f7db 223d 4fab d73c e30d 413d 53b5 5e3d
000002c0: bef9 d73c e9f2 65bd 0c48 093e f6b7 04bd
000002d0: 7b80 0e3d 4e14 54bb 52d9 80bd 01ee 2f3d
000002e0: 7aa5 76bc 0853 d2bd 33e1 eabc 5071 0abe
000002f0: 6799 e03d e905 11bd 36d1 6e3d 366b 29bd
00000300: 20a2 b3bc 5b19 5e3c 82a8 743c 2571 a43c
00000310: 95d5 5ebc 772e 5c3c 9dae 49bc c857 753b
00000320: 9b2f 79bb a3d1 9dbc 5f04 6e3a a6ce 983b
00000330: d764 a4bc 5ae4 56bc d17e a4bc a5cd abbc
00000340: a020 15bc 9eea e73c 9772 ccbd bf6f c93b
00000350: c1fa 68bc ae99 083c d780 723d 65bd a8bc
00000360: f61f 573c c9d0 053d 3f1c 8a3c 7361 723d
00000370: 3943 f7bc 576d a73c 1ce4 09bd 5234 b43c
00000380: c1af 2f3c bddf 73bb 3403 44bb 8c7f 17bc
00000390: bd20 e83b eef7 38bc dd9a 8f3b fdfc 1cb9
000003a0: 0916 6e3b 8436 9b3b f95a 14bc e206 823b
000003b0: 75eb a63b 7e85 e33b e7dc db3b a1a0 4d3c
000003c0: b034 b5bb 7174 febb b918 5e3d 9acb 293a
000003d0: 8287 833b f66e ed3c 22eb a2bb 9270 c73b
000003e0: 1133 783b 611f abbb fa2e 353a bedc 653b
000003f0: fe6d 8e3b 4e79 f8bb 720d 1f3c b137 18bc

egnn.layers.0.coord_mlp.0.bias f4 [32]
0.100438245 -0.0032737008 0.022153124 0.015114843 0.034028348 0.0949816 -0.04981118 0.017356338
-0.103190735 0.009595187 -0.047098346 -0.003029849 0.120549984 -0.0052859033 -0.0853371 0.0032299522
0.022597719 0.034439087 -0.04231031 0.012024907 -0.04282975 -0.06114142 -0.052341077 0.010993766
0.12178692 0.0477784 0.03390465 0.10654649 -0.024434818 0.075558424 0.018188331 0.10058142
00000000: 91b2 cd3d 968b 56bb 787a b53c 3fa4 773c
00000010: 4f61 0b3d b785 c23d cf06 4cbd e12e 8e3c
00000020: aa55 d3bd 2235 1d3c 32ea 40bd 6e90 46bb
00000030: e9e2 f63d 5f35 adbb 38c5 aebd 9bad 533b
00000040: da1e b93c 0010 0d3d 934d 2dbd 1e04 453c
00000050: 3f6e 2fbd 6d6f 7abd 9963 56bd 321f 343c
00000060: 6c6b f93d 49b3 433d 9adf 0a3d 0c35 da3d
00000070: 872b c8bc 60be 9a3d b2ff 943c a2fd cd3d

egnn.layers.0.coord_mlp.2.weight f4 [1, 32]
-0.011433945 8.8440494e-05 -0.0010124231 -0.00061711186 -0.0013075039 -0.008107284 0.0024554573 -0.00066471414
0.006883716 -0.00039310358 0.00197831 9.3631235e-05 -0.039787386 0.00018006301 0.005382962 -0.00013373193
-0.0010596261 -0.0016700067 0.0017947177 -0.0005620573 0.0018408718 0.0024531647 0.00306836 -0.00043503864
-0.025904745 -0.002289649 -0.0015556407 -0.0147947315 0.0011321369 -0.0041592754 -0.00080001395 -0.017755602
00000000: 7155 3bbc 2179 b938 48b3 84ba adc5 21ba
00000010: 8d60 abba 6ad4 04bc bdeb 203b 3640 2eba
00000020: cc90 e13b 7819 ceb9 89a6 013b e35b c438
00000030: 19f8 22bd 4ccf 3c39 8f63 b03b 643a 0cb9
00000040: 27e3 8aba 20e4 daba bc3c eb3a 0757 13ba
00000050: 6849 f13a 46c5 203b 8a16 493b e615 e4b9
00000060: 3036 d4bc f00d 16bb a4e6 cbba 9a65 72bc
00000070: 3664 943a 884a 88bb 07b8 51ba 3274 91bc

egnn.layers.0.attention_mlp.0.weight f4 [1, 32]
0.1397173 -0.087714486 -0.07911561 -0.14427625 0.08493712 -0.07726542 0.08678911 -0.02084273
-0.0014282536 0.1025601 0.047074053 -0.011729101 0.13175346 0.0836823 0.13081408 0.19345824
0.059468776 -0.2086242 0.28896856 -0.06943225 0.097233586 0.24606535 -0.21526074 0.12016407
-0.040736258 -0.23069096 -0.07706333 -0.26966068 0.22661087 -0.12507288 0.21209326 -0.1289944
00000000: 0d12 0f3e a7a3 b3bd 5d07 a2bd 27bd 13be
00000010: 83f3 ad3d 553d 9ebd 7dbe b13d 5fbe aabc
00000020: 3d34 bbba 080b d23d b9d0 403d 6a2b 40bc
00000030: 61ea 063e a061 ab3d 20f4 053e eb19 463e
00000040: 8895 733d 95a1 55be b0f3 933e 7f32 8ebd
00000050: 6722 c73d 8ef8 7b3e 506d 5cbe 9418 f63d
00000060: 10db 26bd 403a 6cbe 61d3 9dbd f710 8abe
00000070: ae0c 683e 1b13 00be fa2e 593e 1c17 04be

egnn.layers.0.vel_mlp.0.weight f4 [8, 17]
0.10232178 -0.08432547 0.0012232581 0.23965512 0.0014980497 -0.1735206 0.0015561676 0.26475078
0.11763386 0.0012198931 0.0016021131 0.0014400757 -0.106559806 -0.19636881 0.19688872 0.2402725
0.12091134 0.23052517 0.037596926 -0.0008820005 0.14364344 -0.0010714734 -0.035134006 -0.0011919156
-0.3011127 0.25730222 -0.0008567967 -0.00087108475 -0.0009449817 0.22923635 0.23605387 0.24184093
-0.2242324 0.21519743 0.086764865 -0.07114898 0.00050376036 0.20003664 0.00096915505 -0.13842013
0.001012904 0.26816016 0.09753749 0.0004994837 0.00085168605 0.000921443 -0.09595899 -0.115765594
0.17228416 0.22301051 0.07004567 0.08004677 -0.06727468 0.00037591436 0.22517496 0.00086331036
-0.14193933 0.00087092316 0.22298832 0.08858723 0.0003678747 0.00059731735 0.000789718 -0.07076845
-0.16025423 0.16246466 0.21615139 0.0736142 4.492263e-05 -4.1226094e-06 2.900085e-07 -0.00038694608
6.036704e-07 3.7324594e-06 7.8614886e-07 0.00019581945 4.767609e-05 2.9343636e-07 3.533683e-07 7.558218e-07
-9.985664e-05 -0.00011284102 -0.00019435758 1.8769542e-05 -0.0005107543 -0.1266577 0.12028762 -0.0024704328
-0.33242896 -0.0024873612 0.22204988 -0.0026532218 -0.29328203 -0.15002815 -0.0024570185 -0.0030479836
-0.0024404095 0.1426986 0.2517082 -0.2541374 -0.26819327 -0.29143146 -0.00015098047 0.00010409004
2.4450887e-06 -0.0011872904 7.5449825e-06 0.0006073552 1.1981015e-05 -0.014291844 -0.00026782605 2.440111e-06
1.2508575e-06 1.1499664e-05 0.0022763906 -0.010154265 -0.0018039882 0.0060253087 -0.004219345 2.0539072e-05
0.00011146376 -8.4217857e-07 -0.0008875262 -6.436146e-07 0.0004533945 -1.5387536e-06 0.00087672775 5.786181e-05
-8.211661e-07 5.9774237e-07 -1.5137672e-06 -0.00030968463 -0.0004803886 1.3892133e-05 0.0004976356 0.0025434985
00000000: 158e d13d d5b2 acbd bb55 a03a 2768 753e
00000010: 355a c43a 62af 31be 52f8 cb3a 6a8d 873e
00000020: 05ea f03d d2e4 9f3a fffd d13a ecc0 bc3a
00000030: 073c dabd e814 49be 329d 493e ff09 763e
00000040: 5da0 f73d ca0e 6c3e 3cff 193d 0d36 67ba
00000050: 4417 133e ae70 8cba ade8 0fbd 0d3a 9cba
00000060: 722b 9abe 1ebd 833e a79a 60ba 8259 64ba
00000070: a6b8 77ba efbc 6a3e 1bb8 713e 26a5 773e
00000080: 2e9d 65be b75c 5c3e c7b1 b13d 8eb6 91bd
00000090: c90e 043a 68d6 4c3e e50e 7e3a 02be 0dbe
000000a0: 6bc3 843a 4a4c 893e bcc1 c73d c9ef 023a
000000b0: af43 5f3a fe8c 713a 2686 c4bd 8316 edbd
000000c0: 426b 303e de5c 643e 1b74 8f3d 90ef a33d
000000d0: 4fc7 89bd 5f16 c539 4494 663e c74f 623a
000000e0: 8b58 11be aa4e 643a 0d57 643e 396d b53d
000000f0: 4edf c039 4a95 1c3a 1405 4f3a 0def 90bd
00000100: af19 24be 235d 263e ca56 5d3e 0bc3 963d
00000110: 4f6b 3c38 f254 8ab6 77b2 9b34 06df cab9
00000120: ea0b 2235 2a7b 7a36 bd07 5335 e254 4d39
00000130: d0f7 4738 9689 9d34 92b6 bd34 aee3 4a35
00000140: 206a d1b8 10a5 ecb8 77cc 4bb9 4973 9d37
00000150: 24e4 05ba 8eb2 01be 5b59 f63d fce6 21bb
00000160: 2134 aabe ff02 23bb 0b61 633e ade1 2dbb
00000170: 1029 96be fba0 19be ee05 21bb aec0 47bb
00000180: 47ef 1fbb 951f 123e e6df 803e 4c1e 82be
00000190: a150 89be 8136 95be 8350 1eb9 ea4a da38
000001a0: 4e16 2436 db9e 9bba e82a fd36 eb36 1f3a
000001b0: 1102 4937 5728 6abc 016b 8cb9 cac0 2336
000001c0: 23e3 a735 aeee 4037 7f2f 153b 135e 26bc
000001d0: cd73 ecba f46f c53b 6e42 8abb 524b ac37
000001e0: a7c1 e938 1212 62b5 e0a8 68ba dcc4 2cb5
000001f0: 94b5 ed39 2c87 ceb5 34d4 653a a5b0 7238
00000200: 1b6e 5cb5 8b74 2035 a52c cbb5 2b5d a2b9
00000210: abdc fbb9 4212 6937 c373 023a d3b0 263b

egnn.layers.0.vel_mlp.0.bias f4 [8]
-0.32829672 -0.10166072 -0.30303615 -0.26926962 0.00046521393 0.2481639 -0.008473955 0.0019660683
00000000: 8216 a8be 7f33 d0bd 8e27 9bbe b5dd 89be
00000010: f5e7 f339 ad1e 7e3e 58d6 0abc 27d9 003b

egnn.layers.0.vel_mlp.2.weight f4 [1, 8]
-0.30143794 -0.20611058 -0.21298617 -0.1937816 -1.5268835e-05 0.47291717 -0.00040685647 0.00019777416
00000000: 1356 9abe a70e 53be 0c19 5abe af6e 46be
00000010: 9315 80b7 3322 f23e 5a4f d5b9 9961 4f39

exp_avg f4 [16, 1]
-2.7381245e-06 1.1437019e-06 -1.2990689e-08 -4.691467e-06 -1.4548155e-08 3.012748e-06 -1.4326387e-08 -2.5753568e-06
-2.834672e-06 -1.3037929e-08 -1.8710717e-08 -1.3738375e-08 2.5539754e-07 1.6673029e-06 -4.1778453e-06 -2.5898546e-06
00000000: 9fc0 37b6 4c81 9935 a82d 5fb2 656b 9db6
00000010: 76ef 79b2 9e2e 4a36 1e20 76b2 4bd4 2cb6
00000020: 4b3b 3eb6 6bfd 5fb2 4db9 a0b2 0306 6cb2
00000030: 921d 8934 17c8 df35 6b2f 8cb6 5dcd 2db6

exp_avg_sq f4 [16, 1]
2.124852e-10 3.8663836e-11 2.3555997e-13 6.104712e-10 1.0927378e-13 2.4378286e-10 8.112539e-14 1.7303124e-10
2.4727265e-10 2.3024128e-13 1.120241e-13 8.68362e-14 2.791909e-12 7.5472004e-11 5.048557e-10 1.7605134e-10
00000000: 44a1 692f 9c0b 2a2e c59b 842a 17ce 2730
00000010: 0c10 f629 6305 862f 9aad b629 f73f 3e2f
00000020: 88f0 872f 449d 812a 7f41 fc29 a989 c329
00000030: 9076 442c f6f6 a52e 10c6 0a30 0c92 412f

exp_avg f4 [16]
-1.3461122e-05 5.934218e-06 -8.7823565e-08 -2.313806e-05 -7.303666e-08 1.5259506e-05 -6.731001e-08 -1.3069738e-05
-1.335814e-05 -8.754769e-08 -9.713704e-08 -6.519938e-08 1.3318123e-06 8.595161e-06 -2.0092551e-05 -1.32246105e-05
00000000: 14d7 61b7 8b1e c736 8499 bcb3 9b18 c2b7
00000010: 54d8 9cb3 8a01 8037 128c 90b3 1946 5bb7
00000020: c61c 60b7 da01 bcb3 a799 d0b3 bd03 8cb3
00000030: b9c0 b235 ef33 1037 6d8c a8b7 45df 5db7

exp_avg_sq f4 [16]
4.8149644e-09 8.902349e-10 6.066156e-12 1.3988884e-08 2.8054067e-12 5.722987e-09 2.10253e-12 4.159822e-09
5.428888e-09 5.9296314e-12 2.8799972e-12 2.243058e-12 5.97043e-11 1.7963077e-09 1.13481855e-08 4.211209e-09
00000000: e070 a531 b6b4 7430 136f d52c c353 7032
00000010: b769 452c eda3 c431 d0f3 132c 2eee 8e31
00000020: 0189 ba31 5fa1 d02c 6ba9 4a2c 57d7 1d2c
00000030: 884a 832e f5e1 f630 d9f5 4232 30b2 9031
